Birth-Death-0.1--1d/experiments/cnf/toy/2020_10_20_13_45_31_8gaussians_alph100_0_m32_checkpt.pth (torch, 8199 bytes, 7 tensors)

A f4 [2, 2]
00000000: c391 2b3f 4611 643f 0639 72bf e9b0 213f
0.6701929 0.8908886 -0.9461826 0.6316057

c.weight f4 [1, 2]
00000000: db62 45be 4284 9dbd
-0.19275992 -0.07691242

w.weight f4 [1, 32]
00000000: 03a7 4f3f b250 4d3f d5e2 4c3f a6e6 4c3f
00000010: 04b9 503f db02 4d3f fe85 4d3f 9927 4d3f
00000020: 9ac7 4c3f 29bd 4d3f f8ee 4c3f 7a12 4d3f
00000030: d2cd 4c3f bdae 523f 09ca 4c3f f9f8 4c3f
00000040: 974f 6d3f 247f 503f 7b7b 4d3f cc01 4e3f
00000050: dedb 4c3f 2c41 973f b25a 4d3f b01c 513f
00000060: f686 4d3f f944 4e3f 2c55 4d3f f08d 4d3f
00000070: c559 503f 77ae 4e3f 03ca 4c3f f8d8 4c3f
0.81114215 0.80201256 0.8003362 0.8003944 0.8153231 0.8008248 0.8028258 0.80138546
0.7999207 0.8036676 0.8005214 0.8010632 0.80001557 0.8229788 0.7999578 0.800674
0.9269957 0.81444 0.8026654 0.8047149 0.8002299 1.1816764 0.80216515 0.816844
0.8028406 0.80573994 0.80208087 0.80294704 0.8138698 0.8073496 0.79995745 0.8001857

N.layers.0.weight f4 [32, 2]
00000000: 0694 d13e 519b 383f 3bef b7bd d040 98be
00000010: 5792 57be cfcc 743e eb05 b53e 5cc2 40bd
00000020: a631 863d c13f 12bf 2ee6 85be d899 a9be
00000030: 32e1 693d 6fda fcbe a0c3 1abe 4d5e e9be
00000040: 02c4 a3be e80b 013f 7559 a8be 1586 9abe
00000050: 71a4 a4be 51d1 c4be 4000 803e 0d62 4c3f
00000060: a92e 8e3e 552f f13e 9ff8 0cbb 6aca 2fbf
00000070: d420 e33c db41 0ebe 42a0 97be 0dae 4abe
00000080: acf2 97bc beb7 153f 4f0a 9a3c ec59 193f
00000090: ac6e 083e 3f6e d6be d8be 97bb a544 c93d
000000a0: 045a ce3e 5efa 083e cc23 a6bc 22cc 103f
000000b0: 1ca3 6dbc 6a6f 263f 184d 31bc c6ea ec3e
000000c0: 14dc 853d 566f 753e 0d8f 0c3e 1d39 1bbf
000000d0: 7816 fd3e 7234 ebbe fb2f f6bb 5d24 57be
000000e0: 7264 443d c4bd 34bf 8884 8cbd 1c53 cebe
000000f0: d011 b83e b875 fe3e 7db6 54bb 7ca4 ac3e
0.40933245 0.72111994 -0.089811765 -0.29736948 -0.21051918 0.23906253 0.35356078 -0.047060356
0.065524384 -0.5712853 -0.26152176 -0.33125186 0.05709953 -0.49385402 -0.15113688 -0.45579758
-0.3198548 0.5040879 -0.3288075 -0.3018042 -0.3215671 -0.38440946 0.2500019 0.79837114
0.27769974 0.47106424 -0.0021510494 -0.68668234 0.027725615 -0.1389231 -0.29614455 -0.19792958
-0.018548332 0.58483493 0.018803744 0.59902835 0.13323468 -0.41880986 -0.0046309046 0.09827546
0.4030305 0.13376758 -0.020280741 0.5656148 -0.01450422 0.65013754 -0.010821603 0.46272868
0.06536117 0.23968253 0.13726445 -0.6063402 0.49431205 -0.4593845 -0.007513044 -0.21009965
0.047947355 -0.7060206 -0.06861216 -0.40297782 0.3595109 0.49699187 -0.0032457404 0.33719242

N.layers.0.bias f4 [32]
00000000: c5b3 f33e 4dad f2be e054 203f 70da 1dbf
00000010: 51f9 05bf 68f5 f4be 9b08 b1be 248f aabe
00000020: 9368 8ebd 86a7 bdbe 2c7c 13be 51e4 8d3e
00000030: 93be 4ebf bf5a 9fbe 96a3 193f f1b9 22bf
00000040: f3d5 02bf 37f1 d6bd 27d8 533e 7080 113f
00000050: 58fe 37bf ff0f 3d3b 64e2 4ebe 18cc 413f
00000060: 3927 5abf a48b 03bf 3186 f3be 43d4 0cbf
00000070: ae89 4bbf b9d9 8bbe f211 583f 7e5e 2dbf
0.4759809 -0.47397843 0.6262951 -0.61661434 -0.5233355 -0.4784348 -0.34576878 -0.33312333
-0.0695354 -0.37041873 -0.14402837 0.27713254 -0.80759543 -0.3112392 0.6001524 -0.63564974
-0.5110771 -0.10495227 0.20687924 0.56836605 -0.7187247 0.0028848646 -0.20203549 0.7570205
-0.852161 -0.5138495 -0.47563317 -0.55011386 -0.7950696 -0.27314547 0.8440238 -0.6772231

N.layers.1.weight f4 [32, 32]
00000000: d362 36be 6323 b03e f545 dd3d 0212 fcbd
00000010: c165 313e a7c6 123d 42db 0a3e 5ddf e6bd
00000020: 5a31 1bbe 9eee 923d d107 12be 103e 0e3e
00000030: 55e2 983c 2752 813e 017e 113e 403c 113d
00000040: 9a3e 983e a21d 523d 1ef4 c9bc 1b39 213e
00000050: 69a6 0ebe 8df8 2e3e 3d45 913e 9acb a63e
00000060: 2700 1f3e bd37 983e c144 51be 1664 ae3e
00000070: 174b 103e 407a 0d3e 34ee c0bd 7622 7f3d
00000080: 672f 663d 6525 cd3c 1192 80be 0397 bb3c
00000090: 8498 54be 97e2 6fbe 61b3 16be 6c2f 7bbb
000000a0: c981 61bd 2591 8b3d 3e10 65be e7a1 3ebe
000000b0: 48fe edbd df2b 96be 27b8 5bbd b261 e0bd
000000c0: 4f22 56be d079 07bd bc2a d63b 004d 25be
000000d0: 857c 51be c776 41be 9a26 d1bd 3e09 04bd
000000e0: 0546 67be 1f33 a8bc c4df 42bd 10f8 33be
000000f0: 4eef 4dbe 4ec6 d9bd c685 b13c ed66 00bd
00000100: cce8 68be d2d8 74be cbe9 2abe fbd1 7dbb
00000110: d88e 07be 65bb 02be bf47 d1bd 947b 84be
00000120: 88f6 3fbe 0dc6 3d3d d9ec d1bc b919 ec3b
00000130: 4014 7f3c 6d39 f1bb 2e02 a6be 5729 80bd
00000140: 61fe bcbd b912 4bbc 1c3b 84be 2279 9cbe
00000150: 8cd6 823d a866 6fbe be8d 333c 955f 3cbe
00000160: 46fb bbbd edc7 3bbe 38b8 b3bd a9ca d9bd
00000170: bf4b 45be eb50 8cbe e9ba 0c3d c6ca 6fbe
00000180: a8e9 e83c 87d6 51be 295a e1bd 16da 263d
00000190: 7786 4abc b61d 2cbc 2f24 47be 0473 49be
000001a0: b720 86be e71b a8bd 7a19 04be 574b f6bc
000001b0: ade0 a53a 6900 29be deb2 99be a138 6ebe
000001c0: 796e 033c 2191 92be d741 36bc 4773 22be
000001d0: 2ef5 fabd 561f 1dbd 7c56 58be 66e3 5ebd
000001e0: 6c09 7ebe 9ac9 67be 7a33 58bd b806 8dbe
000001f0: b081 2cbe 61c7 11bd a8be 85bb f32e bbbd
00000200: 5254 ad3d 68b6 523e c095 23bd 6d40 573e
00000210: dc42 133e b3dc 783e 89d4 133e 3b27 7d3c
00000220: 7e66 893d 59b7 98bd 6940 59bd 1643 1d3e
00000230: 8dc9 88bd af2f 593e 1f2f 5a3d 7e97 423e
00000240: 4ef4 5e3c b2c5 103e 3ac5 6e3e 2a8f 883e
00000250: c563 873d 24bd 903e 1ef2 973e c6b9 8c3e
00000260: 81a2 423d cec0 1d3e 3725 963d 9515 623e
00000270: fb77 ac3e 22ac fe3d f618 36bd 996d 0b3e
00000280: 5440 f6bd 2447 3bbe 4030 adbd 748d afbd
00000290: b66a 2fbc 9b06 e7bd 007f 74bd 6500 59bc
000002a0: ab1e e9bd 9eaf f2bd 11e6 0dbd 46d1 a1bc
000002b0: 5069 64be d74d a6be c3cb a0be ba78 adbd
000002c0: 6def 6ebd 4065 7fbd 4038 b83d ae3b c2bd
000002d0: 4c52 b63d 75d1 5cbd 8b35 37be 4b6d 85be
000002e0: fe66 a3bc 631b 9abd a165 e03d 81ed 50be
000002f0: 8ddb 38be 880e 44be 0352 cf3d 8761 a0be
00000300: 3161 0b3d e32c 583c 4cc0 b13e 9740 6abc
00000310: 85a2 adbc 5755 683d 0799 d23d aab5 14bd
00000320: 75e8 1fbd f6c0 e7bd 2c33 14be 99a6 17be
00000330: fb93 9fbd 584f 6c3e ede5 b73d 25fe f9bc
00000340: 9ee1 763e 20a8 9d3d 1e19 a53d 0159 c4bd
00000350: 9a75 7abd 07f6 2abe ec4b 0abe a5af 8c3e
00000360: a26f bb3c 2973 3b3e 3404 27be 58c8 853d
00000370: 99a4 1d3d 15ea 69be a056 863d b45b ae3e
00000380: 2dab 5cbd 00c7 3e3d 6596 a43d b223 26bd
00000390: 794b 323e 8bb7 d0bc 499b 953e 791a b63d
000003a0: 9f6c 493e 8164 b0bd 7bac 263e aa36 0c3e
000003b0: 4f60 a73c 8510 663d f962 903e d7fd 523e
000003c0: a3ae 813e f371 2a3e 128e 883e 600a 763e
000003d0: da6f 4e3e b004 2e3e 572e 513e 0661 ab3d
000003e0: 3ca4 533e c356 bc3c 8f0e 95bd 52f9 013e
000003f0: bceb 0d3e 683a 4abc 7804 4c3e 7cc6 0c3e
-0.17811136 0.34401998 0.10804359 -0.12308122 0.17323972 0.03583398 0.13560203 -0.11273072
-0.15155545 0.07174419 -0.14260794 0.13890862 0.018662611 0.2525799 0.14208223 0.03545785
0.2973526 0.05129779 -0.024652537 0.1574444 -0.13930668 0.17087002 0.28373137 0.3257721
0.15527402 0.29730025 -0.20436384 0.34060735 0.14091145 0.13816166 -0.09420434 0.062288724
0.05619755 0.025042245 -0.2511144 0.022899156 -0.20761305 -0.23426281 -0.14716865 -0.0038327826
-0.055055413 0.068147935 -0.22369477 -0.18616448 -0.11620766 -0.29330346 -0.05364242 -0.10956134
-0.20911525 -0.033075154 0.006535856 -0.16142654 -0.20457657 -0.18892966 -0.10212441 -0.032235377
-0.22585304 -0.020532189 -0.04757668 -0.17575097 -0.20110819 -0.10633527 0.021670233 -0.031348158
-0.22745055 -0.23910835 -0.16690747 -0.0038729894 -0.13238084 -0.12766798 -0.102187626 -0.25875533
-0.18746388 0.046331454 -0.025625633 0.007205215 0.015568793 -0.007361582 -0.32423538 -0.06257885
-0.092282064 -0.012394601 -0.25826347 -0.30561167 0.06388578 -0.23379004 0.010959087 -0.18395837
-0.09178786 -0.18337984 -0.08775371 -0.106343575 -0.19267176 -0.27405486 0.03435794 -0.23417196
0.028431728 -0.20491992 -0.11003525 0.040735327 -0.0123611605 -0.0105051305 -0.19447397 -0.19672781
-0.26196834 -0.08208447 -0.12900344 -0.030065222 0.001265546 -0.16504063 -0.30019277 -0.2326379
0.008021944 -0.2862635 -0.011124096 -0.15864287 -0.122537956 -0.038359962 -0.21126741 -0.054416083
-0.24808282 -0.22635499 -0.052783467 -0.27544188 -0.16846347 -0.035590533 -0.004081566 -0.09139814
0.084633484 0.20577395 -0.039937735 0.2102067 0.14380974 0.2430294 0.14436544 0.015451248
0.06709002 -0.07456846 -0.053039942 0.15357623 -0.06679068 0.21209596 0.053267594 0.19003102
0.013608051 0.14137915 0.23317423 0.26671726 0.066108264 0.28269303 0.29676908 0.27485484
0.047518257 0.1540558 0.07331317 0.22078545 0.33685288 0.124351755 -0.0444574 0.13616027
-0.12023988 -0.18288857 -0.084564686 -0.08571902 -0.010706594 -0.11280557 -0.05969143 -0.013244723
-0.113828026 -0.118499026 -0.034643237 -0.01975311 -0.22305799 -0.32481262 -0.31405458 -0.084702924
-0.058333803 -0.06235242 0.08995104 -0.09484039 0.08902416 -0.05391069 -0.17891519 -0.26059946
-0.019946571 -0.07524755 0.10956884 -0.204031 -0.18052502 -0.19146168 0.10123064 -0.31324407
0.034028236 0.013194296 0.34717023 -0.014297626 -0.02119566 0.05672201 0.10283094 -0.03630606
-0.039040048 -0.11316101 -0.14472646 -0.14809646 -0.07791897 0.23077142 0.08979402 -0.030516693
0.24109504 0.07698083 0.08061431 -0.09587289 -0.06114731 -0.16695414 -0.13505524 0.27477756
0.02288038 0.18305649 -0.16310197 0.06532353 0.03848705 -0.22843201 0.06559491 0.3405434
-0.053874183 0.0465765 0.08036498 -0.040561385 0.17411603 -0.025478145 0.29220036 0.08891768
0.19670342 -0.086129196 0.16276734 0.13692728 0.020431666 0.056168098 0.2820051 0.20604645
0.2532855 0.1664503 0.2667089 0.24027395 0.20159855 0.16993976 0.20427833 0.08368115
0.20668119 0.02299059 -0.072781675 0.12692764 0.13859457 -0.012343027 0.1992358 0.13747591

N.layers.1.bias f4 [32]
00000000: f719 053e e29e a0be d65b cdbd e259 b9bd
00000010: dde2 32bc 79c2 90be 7dcb cfbc 05e8 413d
00000020: 1ead 353e f936 a93b c81b 4abd 727c 40bd
00000030: ef14 e4bd e0b9 623d 5322 893d 60cf ac3e
00000040: ff43 bcbe 64db ac3e 15cf a83e e420 723e
00000050: 195e 0cbe 5995 07bd 51f1 153e 4018 243e
00000060: 978b 993e 8d3d 913e df86 74be 619c bb3a
00000070: 8a22 bc3c 08d4 70be 7cde 9d3d 254b 68be
0.12998186 -0.31371218 -0.10027282 -0.09050347 -0.010918346 -0.2827337 -0.025365585 0.04734041
0.1774182 0.005164024 -0.0493429 -0.04699368 -0.11136805 0.055353045 0.06696 0.33751965
-0.36770627 0.33761132 0.3297049 0.2364536 -0.1370777 -0.033101413 0.14642836 0.16024876
0.2998931 0.28367272 -0.23879574 0.0014313572 0.022965688 -0.23518384 0.07708451 -0.22684915
