Birth-Death-0.1--1d/experiments/cnf/toy/2020_10_20_13_06_44_8gaussians_alph100_0_m32_checkpt.pth (torch, 8199 bytes, 7 tensors)

A f4 [2, 2]
0	0x3e69f266	0.22846374
1	0xbe9719bb	-0.29511818
2	0xbe920a4b	-0.28523478
3	0x3ecb117f	0.39661786

c.weight f4 [1, 2]
0	0x3d736fd5	0.059432823
1	0xc0a6a28f	-5.2073436

w.weight f4 [1, 32]
0	0x3df90c88	0.12160593
1	0x3d7da9e5	0.061929602
2	0xbd5f2553	-0.054478955
3	0xbda9a867	-0.08284073
4	0xbda84451	-0.08216155
5	0xbc455bbc	-0.012045797
6	0xbd326765	-0.043555636
7	0xbd4b1a56	-0.049585663
8	0x3d402b04	0.046916023
9	0x3f06f88d	0.5272301
10	0xbd5c83f7	-0.05383679
11	0xbd572ac8	-0.052531034
12	0xbc6ba575	-0.01438271
13	0xbd8f7e36	-0.07006495
14	0xbd9c2c56	-0.07625644
15	0xbc29ef38	-0.010371976
16	0xbd68929e	-0.05678045
17	0x3b525871	0.0032096172
18	0x3d4f0831	0.05054492
19	0xbc7669e9	-0.015039899
20	0xbd8fa731	-0.07014311
21	0x3c60ebc2	0.013728084
22	0x3dcc852b	0.09986337
23	0xbd0ae1d1	-0.03390676
24	0xbbf4b07d	-0.007467328
25	0xbd535bfa	-0.051601388
26	0x3b3ac161	0.002849661
27	0x3f377024	0.7165549
28	0xbd17ed1f	-0.03709137
29	0x3ef5770e	0.47942394
30	0xbd33b66a	-0.043875135
31	0xb90c93e4	-0.00013406534

N.layers.0.weight f4 [32, 2]
0	0x3f056123	0.52101344
1	0xbf0ced0e	-0.55049217
2	0xbea2df94	-0.31811202
3	0x3fbbf0ef	1.4682902
4	0xbe8d22c1	-0.27565578
5	0x3bb5e2fd	0.0055507408
6	0x3da12035	0.07867471
7	0x3f941a43	1.1570514
8	0x3e15296c	0.14566582
9	0xbeea11f7	-0.4571683
10	0xbe995675	-0.29948774
11	0x3f5712e9	0.8401323
12	0x3eadaddd	0.3392171
13	0x3fb67cf6	1.4256885
14	0x3e72237a	0.23646346
15	0x3eb21606	0.34782428
16	0x3eb429c7	0.35188124
17	0x3ec70c8a	0.38876754
18	0xbecc97ed	-0.3995966
19	0xbeeedb1f	-0.4665155
20	0x3e443895	0.1916221
21	0x3ec99303	0.39369974
22	0xbebdadb7	-0.37046596
23	0xbeb5b408	-0.35488915
24	0xbe8f60f4	-0.28003657
25	0xbf897077	-1.0737447
26	0xbe23c503	-0.15993123
27	0x3fc059bd	1.5027386
28	0x3e455a14	0.19272643
29	0xbf760a0a	-0.9610907
30	0x3eb1ecb0	0.3475089
31	0x3fb50070	1.4140759
32	0x3ea7f368	0.32802892
33	0x3f00aa73	0.50260085
34	0xbe0cdd3e	-0.13756272
35	0x3e707f20	0.23485994
36	0xbe848b4f	-0.25887534
37	0x3f80fa82	1.0076449
38	0x3da28d7e	0.07937144
39	0xbf54eda6	-0.8317512
40	0xbe5b47d7	-0.21414123
41	0x3f83364d	1.0250946
42	0x3ed303aa	0.41213733
43	0x3db6fbe8	0.08934766
44	0xbf0bb05d	-0.54565984
45	0x3eb2ceec	0.34923494
46	0xbe31ef28	-0.17376387
47	0xbf28ed29	-0.6598688
48	0xbdce2625	-0.10065869
49	0x3ed94944	0.4243871
50	0xbec46e35	-0.3836533
51	0x3ee9072b	0.4551328
52	0x3ea79d2f	0.3273711
53	0x3f59ca8e	0.850747
54	0x3dc8a098	0.09796256
55	0xbd7fbf6f	-0.062438425
56	0xbe054330	-0.13013911
57	0xbf218bd1	-0.6310397
58	0xbc3e8065	-0.011627291
59	0xbf6dac86	-0.92841375
60	0x3e40cc6b	0.1882798
61	0xbf1efeba	-0.6210743
62	0xbe7a3413	-0.24433927
63	0x3f4c9b7e	0.7992476

N.layers.0.bias f4 [32]
0	0x3e80ec12	0.25180107
1	0x3f8731e7	1.0562104
2	0x3ed63da4	0.41843903
3	0x3f942935	1.1575075
4	0xbf49a934	-0.7877381
5	0x3fb226a9	1.3918048
6	0x3f7ee400	0.9956665
7	0x3fc140a5	1.5097853
8	0x3f703fdb	0.93847436
9	0xbfaf1a67	-1.3679932
10	0xba96b11b	-0.0011496873
11	0xbfc1b680	-1.513382
12	0xbeec86e6	-0.4619667
13	0x3fba6277	1.4561299
14	0xbdd2d19f	-0.10293888
15	0x3f5cd774	0.86266255
16	0x3fc14133	1.5098022
17	0x3f342931	0.70375353
18	0x3f82c49d	1.0216252
19	0xbf8131e2	-1.0093348
20	0x3f9f9a7a	1.2469018
21	0x3e62948d	0.2212698
22	0xbea331e2	-0.31873995
23	0xbf8af2c5	-1.0855337
24	0xbf49c7b6	-0.7882036
25	0x3fb139e2	1.384579
26	0x3fba0e30	1.453558
27	0x3f8ac8cf	1.0842532
28	0xbf58915b	-0.84596795
29	0x3de46fa4	0.11154106
30	0xbfa7cb46	-1.3108909
31	0x3fc7397c	1.5564418

N.layers.1.weight f4 [32, 32]
0	0x3e5ab8db	0.2135958
1	0x3f5f273d	0.8716925
2	0x3ea652e0	0.32485104
3	0x3d1a4636	0.037664615
4	0x3e64ab2b	0.2233092
5	0x3f53d4ae	0.827464
6	0x3f16002c	0.5859401
7	0x3eecc4d7	0.46243927
8	0x3f12a865	0.572882
9	0x3f34e3d3	0.7066013
10	0xbedcfdf9	-0.43162516
11	0x3f195a46	0.5990337
12	0x3e8720cf	0.26392218
13	0x3eb4b59f	0.35294816
14	0x3de860b7	0.11346572
15	0x3ed0361b	0.4066628
16	0x3f3ecfca	0.7453581
17	0x3e1bf1dd	0.15228982
18	0x3f4e3a27	0.80557483
19	0xbde77a31	-0.11302603
20	0x3f0d06db	0.55088586
21	0x3f168866	0.5880188
22	0x3e6149a8	0.22000754
23	0x3e398ee0	0.18120909
24	0x3e7533a4	0.2394548
25	0x3f5f702a	0.87280524
26	0x3f32d8d7	0.6986212
27	0x3b361fc2	0.0027789925
28	0x3d955bb1	0.072928794
29	0xbd10f410	-0.035389006
30	0x3f183b91	0.5946589
31	0x3f7acc5e	0.9796809
32	0xbee5c9b2	-0.44880444
33	0xbdf9318f	-0.12167656
34	0xbe3cf26a	-0.18451849
35	0x3e378aff	0.17924117
36	0xbe878ba1	-0.26473716
37	0x3d666fa2	0.056258805
38	0x3c5a6a94	0.013331074
39	0xbe83f371	-0.2577167
40	0xbe8c69df	-0.27424523
41	0x3b864a62	0.0040982226
42	0x3e4c60e9	0.19958843
43	0xbd922fef	-0.07138049
44	0x3ebb2f56	0.36559552
45	0xbdebb4b3	-0.11509075
46	0xbe412fbe	-0.18865868
47	0xbdbedb81	-0.09319211
48	0x3c58917d	0.013218281
49	0xbe6e6279	-0.23279752
50	0xbe4241f4	-0.18970472
51	0xbea5a880	-0.32355118
52	0x3d711796	0.058860384
53	0x3dcc7afe	0.099843964
54	0xbef52d2c	-0.47886026
55	0x3eac7dd4	0.3368975
56	0x3e517977	0.20456491
57	0xbda48586	-0.0803328
58	0xbe0f4492	-0.13991001
59	0x3e5d1ac3	0.2159224
60	0x3e92142d	0.28531018
61	0xbe29b2f3	-0.1657217
62	0xbb7bfc55	-0.0038449962
63	0xbd9b5e07	-0.07586294
64	0x3dd33af6	0.1031398
65	0x3e04eebb	0.12981693
66	0x3da07dd9	0.078365035
67	0xbf1c5a5d	-0.61075383
68	0xbe363fc6	-0.17797765
69	0xbe199290	-0.14997315
70	0x3e4f83f5	0.20265181
71	0x3e2cccf2	0.16875055
72	0x3db96860	0.09053111
73	0x3e28467c	0.16433138
74	0xbe6b0247	-0.22950087
75	0x3d887d14	0.06664482
76	0xbcfed06e	-0.031105246
77	0xbe6c3126	-0.23065624
78	0xbe2aab88	-0.16666996
79	0x3e99b860	0.3002348
80	0x3e757385	0.23969848
81	0xbddaf4fb	-0.106912576
82	0x3e74c0d7	0.23901688
83	0xbe2e53ba	-0.17024127
84	0xbe69ae94	-0.22820503
85	0x3ddf9cbc	0.109185666
86	0xbd8e4671	-0.069470294
87	0xbd92ddd2	-0.07171215
88	0xbe474ca5	-0.19462831
89	0x3d4e4375	0.0503573
90	0x3d3979f8	0.045282334
91	0xbe016a0f	-0.12638114
92	0xbe20919a	-0.15680543
93	0xbda2cc8e	-0.07949172
94	0x3d536798	0.051612467
95	0x3d3bb74c	0.045829102
96	0x3dd2eb67	0.10298806
97	0x3b6cb101	0.0036116245
98	0x3dbbe55b	0.091746055
99	0x3f0ac315	0.5420392
100	0x3cb79256	0.022408646
101	0xbe1b2a2c	-0.15152806
102	0xbdfe49b6	-0.12416403
103	0xbeb19fec	-0.34692323
104	0xbe97b1dc	-0.29627883
105	0xbe802757	-0.25030014
106	0x3e2216ff	0.15829085
107	0xbe513093	-0.20428686
108	0x3e3cc754	0.18435413
109	0x3e54806c	0.20752114
110	0x3eadbf61	0.33935073
111	0xbe81e656	-0.25371045
112	0xbdfc8b1c	-0.123312205
113	0x3ea3e4bf	0.32010457
114	0xbea815f1	-0.3282924
115	0x3e9d3aa0	0.3070879
116	0x3e78c6e5	0.24294622
117	0xbdf2f8cf	-0.11863863
118	0x3d9c459a	0.07630463
119	0x3e326c23	0.17424063
120	0x3e2518de	0.16122767
121	0xbe875121	-0.26429084
122	0xbe975df3	-0.29563865
123	0x3d9c7f4c	0.076414675
124	0x3eab7d2e	0.33493942
125	0x3e030cad	0.12797804
126	0x3e85d0db	0.26135907
127	0x3ddf066a	0.10889895
128	0x3e882b91	0.2659574
129	0xbb773b74	-0.0037724646
130	0x3d2db5a7	0.042409565
131	0x3f060d2a	0.52363837
132	0x3e27ef15	0.16399796
133	0x3e613a37	0.21994863
134	0xbc94ea5b	-0.018178156
135	0xbdd1ab1a	-0.10237713
136	0xbd4a754a	-0.04942826
137	0xbc61144f	-0.013737752
138	0x3f01970e	0.50621116
139	0x3d3eb335	0.046557624
140	0x3e1e1028	0.1543585
141	0x3e8f8b5e	0.28036016
142	0x3e9eafa9	0.30993393
143	0x3e124434	0.1428383
144	0x3c860f0c	0.016364597
145	0x3ef90124	0.48633683
146	0xbe337f39	-0.17529
147	0x3f0ae3a0	0.5425358
148	0x3e9495cd	0.2902054
149	0x3e5bf5c5	0.21480472
150	0x3dbbbf29	0.0916732
151	0x3ef1b14f	0.47205588
152	0x3f131b58	0.574636
153	0x3d9a40c3	0.075318836
154	0x3d837e80	0.06420612
155	0x3f0224f5	0.5083764
156	0x3ee26d7e	0.4422416
157	0x3eba5210	0.36390734
158	0x3e3a77c7	0.18209754
159	0x3e53c960	0.20682287
160	0x3ee361f3	0.44410667
161	0x3cd82b7e	0.026387926
162	0x3e84e5a0	0.2595644
163	0x3f1b369a	0.6063019
164	0x3f05cff6	0.5227045
165	0x3e0d9033	0.13824539
166	0x3e1a2ae8	0.1505543
167	0xbd5a0ec7	-0.05323675
168	0x3de2d64a	0.11076029
169	0x3d1183e7	0.035526183
170	0x3ed744f6	0.420448
171	0x3e61ffec	0.22070283
172	0x3eeafded	0.45896855
173	0x3eb57ef6	0.35448426
174	0x3eb479e1	0.35249236
175	0x3cfefc4a	0.03112616
176	0xbd996f9c	-0.07491991
177	0x3ea340b6	0.31885308
178	0xbba72d93	-0.0051018684
179	0x3f2757a3	0.653681
180	0x3e5cd9dd	0.21567483
181	0x3e3ed5fa	0.18636313
182	0x3e8a53a2	0.27016932
183	0x3ec00fa5	0.37511936
184	0x3f23e06a	0.64014304
185	0xb8df7e2e	-0.000106569714
186	0xbdf03b43	-0.11730053
187	0x3ee95c99	0.4557846
188	0x3f2b1793	0.66832846
189	0x3f1f1983	0.621483
190	0x3ec33d0d	0.38132516
191	0x3e36c18c	0.1784727
192	0xbd26d072	-0.040726133
193	0x3f0f9535	0.56087047
194	0x3edb4772	0.42827946
195	0x3da4becc	0.08044204
196	0x3e9e7287	0.30946752
197	0x3ed42886	0.41437167
198	0x3f08f785	0.53502685
199	0x3f1afc69	0.605414
200	0x3f0d75a7	0.5525765
201	0x3f04e11a	0.5190598
202	0xbed38399	-0.4131134
203	0x3ec126d6	0.37724942
204	0x3af67ec2	0.0018806087
205	0x3eaa86ac	0.3330587
206	0x3e5e1031	0.21685864
207	0x3f0ced0d	0.5504921
208	0x3f2cbc82	0.6747514
209	0x3eccd496	0.4000594
210	0x3ee94438	0.4555986
211	0x3ef20bcd	0.47274628
212	0x3ef1383d	0.4711322
213	0x3e3cd5bd	0.1844091
214	0xbec54d4d	-0.38535538
215	0x3dcdc112	0.10046591
216	0xbf45e4e1	-0.77302366
217	0x3ebb7fdc	0.36620986
218	0x3effc52e	0.49955124
219	0xbe00ee7a	-0.12590972
220	0xbef14b23	-0.47127637
221	0xbee2aba0	-0.44271564
222	0x3eb3f3d0	0.35146952
223	0x3eb9a0c2	0.3625546
224	0x3ec22075	0.37915388
225	0xbe874a70	-0.2642398
226	0x3dd1c40e	0.102424726
227	0x3f25edb9	0.6481586
228	0x3eedee95	0.46471086
229	0xbe1328d7	-0.14371048
230	0x3db8f866	0.09031753
231	0x3d2a63b7	0.041599
232	0xbe3442e9	-0.17603649
233	0xbcdb34fe	-0.026758667
234	0x3f02e654	0.511327
235	0xbda20443	-0.07910969
236	0x3e3e1df0	0.18566108
237	0x3eec24c7	0.4612181
238	0x3eae5c9e	0.34055036
239	0xbe238802	-0.15969852
240	0x3cb6f691	0.022334369
241	0x3f01511d	0.50514394
242	0xbec1d502	-0.37857825
243	0x3ec867d8	0.39141726
244	0xbdd65199	-0.10464782
245	0xbbdf8926	-0.0068217693
246	0x3f07f499	0.531076
247	0x3ed8c5aa	0.42338306
248	0x3f1f609e	0.622568
249	0xbe0786d6	-0.1323503
250	0xbe19816d	-0.14990778
251	0x3f08f460	0.53497887
252	0x3f06d212	0.5266429
253	0x3f05b6f3	0.52232283
254	0x3ec70dff	0.38877866
255	0xbd25a3d0	-0.040439427

N.layers.1.bias f4 [32]
0	0xbec322a7	-0.38112375
1	0x3f32d81e	0.6986102
2	0xbec254a2	-0.37955195
3	0x3f124be2	0.5714704
4	0x3ecc1a94	0.39864028
5	0x3ef163d7	0.47146484
6	0x3e75290a	0.23941436
7	0x3ede0237	0.43361065
8	0x3ec33998	0.38129878
9	0xbf25843b	-0.6465489
10	0x3e33f955	0.17575581
11	0xbf3e3ac5	-0.74308425
12	0x3e86c274	0.2632023
13	0x3eb31197	0.34974357
14	0xbec81029	-0.3907483
15	0x3f1e6c93	0.6188442
16	0xbf0c4da1	-0.5480595
17	0xbd136b76	-0.035991155
18	0xbf7cd338	-0.98759794
19	0x3ef65e25	0.48118702
20	0xbf349777	-0.70543617
21	0x3f03131d	0.5120104
22	0xbf1a1465	-0.6018737
23	0x3ebeb6c2	0.37248808
24	0xbed7473a	-0.4204653
25	0xbec10bfa	-0.3770445
26	0xbeffcb35	-0.49959722
27	0x3f6fef6e	0.93724716
28	0x3efc1df5	0.49241605
29	0x3f39c03c	0.7255895
30	0x3e8d2a97	0.27571556
31	0xbf8c2ef0	-1.0951824
