Birth-Death-0.1--1d/experiments/cnf/toy/2020_10_20_12_57_57_8gaussians_alph100_0_m32_checkpt.pth (torch, 8199 bytes, 7 tensors)

A f4 [2, 2]
000000 a3 12 57 be f9 8b 8c 3f e5 2a a2 3e 90 bc 48 be
       -0.21003203 1.0980216 0.3167335 -0.19603181

c.weight f4 [1, 2]
000000 d8 9c 4c 3e b2 b7 84 3e
       0.19981706 0.25921398

w.weight f4 [1, 32]
000000 6e 26 c0 bd 86 4f 5f bc b4 e7 6a 3d 4d 35 3b 3d
       -0.0938233 -0.0136298 0.057349876 0.04570513
000010 d5 98 e4 3e 12 f5 06 be c2 8d a6 3d f5 a3 31 3e
       0.44647852 -0.13179424 0.08132507 0.17347701
000020 42 6e ad 3c eb b4 98 bc 9b 62 83 bd 46 85 95 bc
       0.02117074 -0.018640956 -0.06415292 -0.018252026
000030 12 ad 5e bd 65 a5 2c 3d 31 a7 3c bd 68 d1 6a bd
       -0.05436427 0.04214992 -0.046057884 -0.05732861
000040 45 95 d1 3d 79 17 59 bd 8d 2f 9f 3c 36 88 f7 bd
       0.10233549 -0.0530009 0.019431854 -0.12086527
000050 23 88 3d be fc 40 c9 3d 3b f7 15 3e c4 10 ee 3e
       -0.18508963 0.09826848 0.14645092 0.46497166
000060 37 3c 4e 3d 99 fc 21 be 17 b8 b4 bd 4d 68 28 3d
       0.050350394 -0.15819015 -0.08824175 0.041115094
000070 e7 f9 fc bb 0c ca 02 3d 1c 79 9e 3d e6 36 2d bd
       -0.0077202204 0.03193097 0.077379435 -0.042288683

N.layers.0.weight f4 [32, 2]
000000 6a c5 6b 3e 9b 91 b7 3f 86 0c a4 3e 4b f2 cc 3f
       0.23024526 1.434131 0.32040805 1.6011442
000010 37 e3 38 3e 43 98 c0 bf e8 2b 6c be b4 bd 8f bf
       0.18055426 -1.5046467 -0.23063624 -1.1229768
000020 88 b5 bb 3f f5 06 47 bc 23 7a ff 3d 70 44 99 3f
       1.4664774 -0.012147655 0.124744676 1.197401
000030 f2 8d e6 bc aa 67 7b 3d 16 1c 01 be 24 37 ae 3f
       -0.028143857 0.06137816 -0.1260837 1.3610578
000040 07 b9 b8 bd 0f 7a 30 bf 0b 13 3a bc a2 3e bc 3e
       -0.09019666 -0.68936247 -0.011357079 0.36766535
000050 4c cb f4 3e 9d b2 38 3f f7 95 9c 3e 53 b9 83 bf
       0.47811353 0.7214754 0.30583164 -1.0290931
000060 4e 27 b0 be 7c f8 64 3f 0f 26 99 bd d5 a1 08 bf
       -0.34404987 0.8944166 -0.07477962 -0.53371936
000070 94 ac ab 3e a7 08 b0 bf ba d0 82 be 4f 00 c0 3f
       0.33530104 -1.375264 -0.2554987 1.5000094
000080 cd af dd be d3 b0 61 bf 20 42 09 be 21 a2 97 3f
       -0.43298188 -0.8816044 -0.13404131 1.1846353
000090 03 91 df be f3 12 2d bf 5f 48 51 be dc e4 8b bf
       -0.43665323 -0.6760704 -0.20437764 -1.0929217
0000a0 fc 72 0e be 25 7c 01 bf 88 1b 0e bf 9e 3f 14 3e
       -0.1391105 -0.50580055 -0.5551076 0.14477393
0000b0 bc 06 c5 3b d3 08 89 be e3 42 cb bd 7b fb 93 3a
       0.0060127657 -0.26764545 -0.09924867 0.0011290157
0000c0 e4 90 a4 3e 68 df 3c bf ad 47 71 3e 1b df 67 bf
       0.32141793 -0.7377839 0.23562498 -0.90574807
0000d0 bf fd d8 bc 65 90 b0 3e a8 b1 cb 3e a8 97 40 3f
       -0.026488183 0.34485164 0.39783978 0.7523141
0000e0 a5 1f 75 be ff 06 26 bd b1 86 d3 bd b5 d1 36 3f
       -0.23937853 -0.040534016 -0.10328425 0.7141374
0000f0 b4 7b b7 be 5a 01 b0 bd 8b 3c 63 3e 44 a8 56 3f
       -0.35836565 -0.08594008 0.22191064 0.838505

N.layers.0.bias f4 [32]
000000 9d e6 b6 3f 92 9f 88 3f c1 ab c4 bf a2 54 bf bf
       1.4289128 1.0673697 -1.5364915 -1.4947703
000010 a1 32 d8 3c 98 e0 a5 3f a4 c0 da 3c 51 87 bc 3f
       0.02639133 1.2959166 0.026703186 1.4728795
000020 a1 dd 98 bf 6a ea b1 3d 61 72 8a be 4f 64 c5 bf
       -1.1942636 0.08687289 -0.2704039 -1.5421237
000030 10 3b b7 3f 64 96 1b 3f 8c 44 5c bf 44 93 71 3f
       1.43149 0.6077635 -0.86042094 0.94365335
000040 14 38 aa bf 2a 68 c7 3f d5 28 0b 3f 3d 0e c3 bf
       -1.3298364 1.5578663 0.5435918 -1.523872
000050 ff 56 b4 bf a7 86 00 be 36 a2 4b bf 4c 9f 0d 3f
       -1.4089049 -0.12551366 -0.7954439 0.5532119
000060 c5 55 5b bf 3a e9 48 bf 1c d1 b0 3c 65 4c 85 3f
       -0.8567775 -0.78480875 0.021584086 1.0413939
000070 51 01 fd 3e d9 45 3f 3f 57 44 b9 bf 4d 38 c1 3f
       0.49415067 0.74715954 -1.4473981 1.5095307

N.layers.1.weight f4 [32, 32]
000000 98 d4 44 3e 5f a6 ab 3c 85 e2 10 3d 68 bb a8 3e
       0.19221723 0.020953355 0.035372276 0.3295548
000010 73 e2 b2 3e 4e 45 19 3f 3d 89 05 3f 36 f9 c8 3d
       0.34938392 0.59871376 0.52162534 0.09813158
000020 e3 3b be 3e ec ae c2 3e df 89 9b 3e 2e 69 db 3c
       0.37155065 0.3802408 0.30378625 0.026783552
000030 c6 2e 79 be 01 d1 8f 3e f2 5c 52 3c 92 c5 60 be
       -0.24334249 0.28089145 0.012839543 -0.21950367
000040 f8 66 49 be 9f 9c 9e 3e 73 94 91 bc a6 fd 7d 3e
       -0.19668186 0.30978867 -0.017770981 0.2480379
000050 1c 5e 0a 3f 5c c7 40 3e 5b 61 0b 3f 07 44 0f 3f
       0.5404985 0.1882605 0.5444543 0.55963176
000060 a2 3e a3 bd 4d dc 82 3e cd ed 29 3f 25 8d 1f be
       -0.07970931 0.255587 0.6637848 -0.15581186
000070 e9 2b 3f 3e b1 23 05 3f b4 0b 2d be 0d 7b 80 3e
       0.18669094 0.52007586 -0.16898996 0.2509388
000080 11 b9 f7 3d 7c 54 73 bd 1d 58 91 3d 44 96 6e 3c
       0.120958455 -0.059406742 0.070968844 0.014562193
000090 89 1c 0b 3f bf b5 db 3e 5f 7d 02 3f 0f 9b d1 3e
       0.54340416 0.429121 0.5097255 0.40938613
0000a0 4c 0a 06 3f 08 51 e3 3e e0 c3 94 3e 7b fc 81 bd
       0.5235946 0.4439776 0.2905569 -0.06346985
0000b0 7e 2e f0 be 6b 9c 01 3f b3 31 84 bd 2f af 57 be
       -0.4691047 0.506293 -0.06454792 -0.21062921
0000c0 27 41 d5 be e3 19 c7 3e 73 73 a3 bd 58 2c 6b 3d
       -0.4165127 0.38886937 -0.079810046 0.057415336
0000d0 87 4f 88 3e 0c 9a c0 bc 4f 5e 20 3f ce 89 e6 3e
       0.26623175 -0.023510955 0.62643903 0.45027012
0000e0 dd b5 e7 be 72 b2 9a 3d 13 6b ad 3e 86 5b 91 be
       -0.45255938 0.07553567 0.33870754 -0.2839014
0000f0 43 13 07 3f 33 f3 f0 3e 26 b4 af be 27 b0 7e 3e
       0.52763766 0.47060546 -0.3431713 0.24871884
000100 7d e6 3e 3d 03 a2 84 3e 63 6d 88 3f c4 38 91 3e
       0.04660653 0.25904855 1.0658382 0.2836362
000110 3c 31 b1 3e da 01 12 be fb 3a 1d be 32 f5 70 3f
       0.34607875 -0.14258519 -0.1535453 0.9412414
000120 f4 31 3f bd 43 37 76 be 55 2b 84 3e d8 59 61 3f
       -0.0466785 -0.24044518 0.2581431 0.88027716
000130 35 e0 77 3f 21 74 f5 be 38 32 58 3f 15 38 62 3f
       0.9682649 -0.47940162 0.8445163 0.88366824
000140 3c fc 33 3f ee d3 5e 3f 8a c7 0e 3f 32 d7 21 3e
       0.70306754 0.8704213 0.5577322 0.15804747
000150 ae b4 ef bc 84 a0 2d 3f e0 7f 79 3d d5 77 de bc
       -0.02926096 0.6782305 0.060912967 -0.02715675
000160 93 ec 6c 3f 40 aa 03 3f 4a 42 4e be f3 5e fc 3e
       0.92548484 0.51431656 -0.20142475 0.4929119
000170 4b 4e 24 be 4d 3a 50 3e bc 12 e2 3e 4a d3 1c 3e
       -0.16045491 0.2033474 0.44154918 0.15314975
000180 41 c0 8a 3e 0c cd ec 3c 60 e3 5d 3e 56 4d 19 3c
       0.27099803 0.028906368 0.21668768 0.009356817
000190 79 1a 17 3f f1 82 6a 3e 56 10 f0 3e 21 1a 59 3e
       0.5902477 0.22901513 0.46887463 0.21201374
0001a0 b5 16 e2 3e 9d 4c a2 3e d3 68 27 3e 2f f6 18 3e
       0.4415795 0.31699076 0.16348581 0.14937662
0001b0 33 5d a6 3c 39 ca a8 3d 19 47 fe 3d b6 fb 7f 3e
       0.020308113 0.08241696 0.124159046 0.24998364
0001c0 4d 31 cf bd c7 a9 04 3f 8b 9d a4 bc d4 04 88 3e
       -0.10116825 0.5182156 -0.020094654 0.26566184
0001d0 6a 50 3e 3e 09 75 08 3e d0 8e 38 3e 7e 2b 02 3f
       0.18585363 0.13325895 0.18023229 0.50847614
0001e0 49 0a b6 3d ab 14 45 3e 3a 5b 5e 3e 5a e1 61 3e
       0.088886805 0.19246165 0.21714488 0.22058621
0001f0 87 45 86 3e 97 ee c2 3e b4 19 62 3d 7a 15 82 3d
       0.2622492 0.38072655 0.055200294 0.063517526
000200 7f d6 a1 3e 0b 8a 45 3e 26 27 0b 3e 00 bb c8 3e
       0.3160896 0.1929094 0.13589153 0.3920517
000210 3f ea 84 3f 5e 8e 40 3f 75 aa b3 3e ce 78 ac bc
       1.0383986 0.75217235 0.35090986 -0.021053698
000220 a1 55 3b 3f db 6d b0 3e 12 9b 16 3f 9b 7a fa 3c
       0.73177534 0.34458813 0.5883037 0.030576041
000230 69 b9 69 3e 39 ac 09 3f 0f 55 01 3e d5 f8 9a 3d
       0.22824635 0.53778416 0.12630104 0.07566992
000240 93 24 b4 3e 15 18 10 be b3 39 3c 3e 26 3f 12 3f
       0.35184154 -0.14071687 0.18381386 0.57127607
000250 81 96 c9 3e 02 b4 7a 3e 24 78 e9 3e 7f e2 22 be
       0.39372638 0.2448273 0.45599473 -0.15906714
000260 da c2 8b 3d d3 45 40 be 5c a4 0f 3f f5 06 b6 3e
       0.06824274 -0.18776636 0.5611017 0.35552183
000270 eb 5e f1 bd d8 e1 58 be 4b 49 8f 3e ff ec f2 3e
       -0.11785682 -0.21179903 0.27985606 0.4744644
000280 3a cf 25 be 68 33 88 bb 65 d5 89 be 83 3e aa bd
       -0.16192332 -0.0041565187 -0.2692062 -0.083127044
000290 ef c8 db bd 0c 9c 8e be c1 5f cf be e5 a1 2d be
       -0.107316844 -0.2785343 -0.40502742 -0.16956289
0002a0 a1 72 b8 be 0a ae 95 be 6c 6a 03 be bd 2b 49 be
       -0.36024955 -0.29234344 -0.12833565 -0.19645591
0002b0 8a 52 12 be 4e 95 06 be 26 4c 8c 3c 3f 93 8e bb
       -0.14289299 -0.13142893 0.017126154 -0.004351049
0002c0 2a da 48 bd ef 13 f2 bd 4a 23 f0 bd 6d a0 c1 be
       -0.049036182 -0.11820208 -0.11725481 -0.37817708
0002d0 49 89 c6 be 1d e8 4f be a9 15 cb be a3 fe 0a bf
       -0.38776615 -0.20303388 -0.39664963 -0.54294795
0002e0 28 40 7d 3b f5 f8 2f be fc d1 ad be b5 a3 39 ba
       0.0038642976 -0.17184813 -0.33949268 -0.0007081584
0002f0 fa f5 c9 be 4b dd e2 be c3 e3 29 3e 23 19 9c be
       -0.39445478 -0.44309458 0.1659079 -0.30487928
000300 b8 a8 47 bc b5 85 1d 3d 96 f0 1d 3e eb e4 69 3e
       -0.012186222 0.03845759 0.15423808 0.22841232
000310 ea c9 e1 3e 02 f0 3c 3e ad 07 69 bb 39 cf 67 3d
       0.4409936 0.1845093 -0.0035557554 0.056594107
000320 8c aa 82 3d 2d 88 6b 3d d4 b5 00 3e e0 de de 3d
       0.063801855 0.057502914 0.12569362 0.10882354
000330 5b c1 87 3d 2b cf 44 be eb 11 46 3e 03 5d 4c bc
       0.066286765 -0.19219653 0.19342773 -0.012473348
000340 d9 20 4b bc 81 3e 5b 3e 25 34 45 bb 84 af 82 bc
       -0.012397968 0.21410562 -0.0030090895 -0.015952833
000350 d4 80 4f 3e 91 66 75 3d 8c 48 c0 3c 67 06 a8 3e
       0.20263988 0.059912268 0.023472093 0.32817385
000360 1d ea e2 3d 62 6d 93 3e 84 47 78 3e 7e aa 45 3b
       0.1107981 0.2879439 0.24246031 0.0030161436
000370 ec 4a 29 3d f8 7a 4c 3e 8f 03 3e 3e cf f7 3b 3e
       0.041331217 0.19968784 0.18556045 0.1835625
000380 a6 ce c4 3e 38 75 9a 3d da 3b 21 b9 24 d2 54 3d
       0.3843891 0.07541889 -0.00015376453 0.05195822
000390 61 b3 23 be 3e bc 44 3e 0e 41 9a 3c f6 b3 44 be
       -0.15986396 0.19212434 0.018829849 -0.19209275
0003a0 3a 91 d6 3d a1 f3 39 bd 8c 2a 95 3d e9 21 75 3e
       0.104769185 -0.04539836 0.07283506 0.23938717
0003b0 b0 02 8d 3e c5 98 56 3e 80 26 98 3e 08 5f 01 3e
       0.27541113 0.20956714 0.29716873 0.12633908
0003c0 cd ee b8 3e 9c ce 15 be 69 6d 5c 3e 79 52 ab 3d
       0.3611969 -0.14629596 0.21526112 0.0836534
0003d0 08 61 4d 3d a6 23 35 3d cf 04 ba 3d 86 e2 91 be
       0.050141364 0.04422345 0.090829484 -0.28493136
0003e0 a0 a8 d6 3d 20 44 50 3e 7c ed 3f bd 64 ab 99 3e
       0.104813814 0.20338488 -0.046857342 0.30013573
0003f0 cf ff b5 bd 40 e3 0d bd 11 63 21 3e 23 6b 07 3e
       -0.08886682 -0.03464055 0.15760447 0.13224463

N.layers.1.bias f4 [32]
000000 10 ce ec 3e 37 c2 35 3f 36 02 8a be bb 25 ef 3e
       0.46250963 0.70999473 -0.26954812 0.46708474
000010 c3 01 a2 bd 8d 54 f4 be 4a 92 83 3e 97 d0 d6 be
       -0.07910492 -0.47720757 0.25697547 -0.41956016
000020 55 32 eb be 6e 9f b8 be 39 7a 16 bf b4 b5 18 3f
       -0.45936838 -0.36059135 -0.58780247 0.59652257
000030 34 12 56 3f ee b4 18 3f a1 f0 cf be 7b 3e 29 3f
       0.83621526 0.59651077 -0.40613273 0.6611096
000040 8b 5d dd 3e 62 2d 2a 3f 28 4d 35 3f cf e8 91 3e
       0.4323543 0.664755 0.70820856 0.2849793
000050 a3 6e 75 bf f8 9c 26 bf 79 5c 5f 3f 56 29 7a bf
       -0.95871943 -0.65083265 0.8725048 -0.97719324
000060 ac b8 19 3f 27 64 d8 be 39 05 d4 be ee 73 02 3f
       0.6004741 -0.4226391 -0.41410235 0.50958145
000070 3f 6b 0f bf e3 1f ca be ff 98 1d 3f 44 f2 e0 3e
       -0.5602302 -0.39477453 0.6156158 0.43934834
