Birth-Death-0.1--1d/experiments/cnf/toy/2020_10_20_11_55_05_8gaussians_alph100_0_m32_checkpt.pth (torch, 8201 bytes, 7 tensors)

A f4 [2, 2]
0	0xbdcfd6bd	-0.1014838
1	0x3f45e5d2	0.773038
2	0x3d162b40	0.03666234
3	0xbd826ba8	-0.0636819

c.weight f4 [1, 2]
0	0xbeb13c9d	-0.34616557
1	0xb6c3379b	-5.817926e-06

w.weight f4 [1, 32]
0	0x3ba48a5e	0.0050213775
1	0xbc7f1b36	-0.015570452
2	0x3eed2f0c	0.46324956
3	0x3d70378f	0.058646735
4	0xbd7b0ab6	-0.06128951
5	0x3c0c4b01	0.008562804
6	0x3d093269	0.03349534
7	0x3e6f405e	0.23364398
8	0x3c8f6813	0.017505681
9	0x39d71619	0.0004102446
10	0xbd7d463d	-0.061834563
11	0x3d9cb5f3	0.076518916
12	0x3d886d2d	0.06661449
13	0xbc5642dc	-0.013077464
14	0x3e7caa4e	0.24674341
15	0xbc451eb5	-0.012031247
16	0xbd142b67	-0.036174204
17	0xbdadc284	-0.084843665
18	0xbce02951	-0.027363451
19	0x3c188f67	0.0093115335
20	0xbd05c312	-0.032656737
21	0xbd8c0011	-0.0683595
22	0x3e0188d7	0.12649857
23	0x3e332c44	0.17497355
24	0x3eaad6f2	0.33367115
25	0x3d05ce8c	0.03266768
26	0x3c102a9b	0.00879922
27	0x3e189ea7	0.14904271
28	0xbbb6ce1b	-0.005578769
29	0x3e2212b7	0.15827452
30	0xbd32ffcf	-0.04370099
31	0xbca6c43b	-0.020357242

N.layers.0.weight f4 [32, 2]
0	0x3e865a53	0.26240787
1	0xbf9e8001	-1.2382814
2	0x3c9f89d2	0.019474898
3	0x3f771119	0.96510464
4	0x3f217736	0.63072526
5	0xbe2ea87e	-0.17056462
6	0x3e4b47b9	0.19851579
7	0xbe329a48	-0.17441666
8	0x3e64d34c	0.22346228
9	0x3f23ded0	0.6401186
10	0x3e82473b	0.2544497
11	0xbf086c48	-0.53290224
12	0x3e0ed978	0.13950145
13	0x3f5d8f6b	0.86546963
14	0x3f8bf803	1.0935062
15	0x3f456d72	0.77120125
16	0xbdf1a7cc	-0.11799583
17	0xbfc9fed3	-1.5780891
18	0x3bd43699	0.006476235
19	0x3e16e45b	0.14735548
20	0x3e1fe928	0.15616286
21	0x3f482e00	0.7819519
22	0xbee2774a	-0.44231635
23	0xbf4bfa22	-0.7967855
24	0x3cac337c	0.021020643
25	0xbe52ad4f	-0.20573924
26	0xbe367fec	-0.17822236
27	0xbfc26ab7	-1.5188817
28	0x3c130d0d	0.0089752795
29	0x3f6cb980	0.9247055
30	0x3e50ebb9	0.20402421
31	0x3eaf8603	0.3428193
32	0x3e6a01a0	0.22852182
33	0xbf97f142	-1.1870501
34	0xbe124acb	-0.14286344
35	0x3d0e5829	0.034752045
36	0xbea38e72	-0.31944615
37	0xbd1d321e	-0.038377874
38	0xbe84df5f	-0.2595167
39	0x3f84dcde	1.0379903
40	0xbe63bae3	-0.2223926
41	0xbf682389	-0.9067922
42	0x3db83a8d	0.08995543
43	0x3f17abf2	0.5924674
44	0x3da9b857	0.08287113
45	0xbe7c999d	-0.24667974
46	0x3e62b6cf	0.22140048
47	0xbfad04ef	-1.3517131
48	0x3e9f6f51	0.31139615
49	0xbf3d01f2	-0.73831093
50	0xbe658dcd	-0.22417374
51	0xbf97200c	-1.1806655
52	0xbdebb009	-0.115081854
53	0xbee94bd0	-0.45565653
54	0xbe8f8ee4	-0.28038704
55	0x3f24a770	0.6431799
56	0x3cdb6ec9	0.026786225
57	0xbf50be5b	-0.8154046
58	0xbe867d54	-0.26267493
59	0x3f5ae0a8	0.8549905
60	0xbb6fc33e	-0.003658488
61	0xbd04f20f	-0.032457408
62	0xbe4429ef	-0.19156621
63	0x3f30abad	0.69011956

N.layers.0.bias f4 [32]
0	0xbfb6c3bc	-1.4278483
1	0x3f1ad6b0	0.6048384
2	0x3e6e0a17	0.23246036
3	0xbf92da01	-1.147278
4	0x3fa501f5	1.2891222
5	0xbf9e0da9	-1.2347919
6	0x3efd8c4c	0.495211
7	0x3de479bc	0.111560315
8	0xbfb53538	-1.4156866
9	0x3a2eac4e	0.00066632486
10	0x3fabab1c	1.3411593
11	0x3dc8867a	0.09791274
12	0xbe48387f	-0.19552802
13	0xbfb2a634	-1.3956971
14	0x3e2c2d61	0.16814186
15	0x3fb099f5	1.3796984
16	0xbf94c893	-1.162371
17	0xbe991f76	-0.29906815
18	0xbf50e109	-0.81593376
19	0x3fb114a0	1.3834419
20	0xbda36b5f	-0.07979464
21	0x3a8b1b89	0.0010613065
22	0xbf4edefe	-0.8080901
23	0xbf9d54bc	-1.2291484
24	0xbf9f72b8	-1.2456884
25	0xbf807bd3	-1.0037788
26	0xbf27d1d1	-0.6555453
27	0x3f8da901	1.1067201
28	0xbf0dba50	-0.55362415
29	0x3fb61470	1.4224987
30	0xbef3de0d	-0.4763035
31	0x3fa944e8	1.3224154

N.layers.1.weight f4 [32, 32]
0	0xbc97abca	-0.018514533
1	0xbf10f082	-0.56616986
2	0xbe136585	-0.14394195
3	0xbeb46a92	-0.35237557
4	0x3e26efda	0.16302434
5	0x3e25bac0	0.1618452
6	0xbe54f3bf	-0.20796107
7	0xbedd14d6	-0.4317996
8	0xbef22e54	-0.4730097
9	0xbf139577	-0.5764994
10	0xbdc30018	-0.09521502
11	0xbed52636	-0.41630715
12	0xbeae73c7	-0.34072706
13	0xbddd6063	-0.108094
14	0xbf14458e	-0.5791863
15	0x3c2bc184	0.010483149
16	0x3b87b177	0.0041410285
17	0xbf01fbe6	-0.5077499
18	0xbda1c2e6	-0.07898502
19	0x3da3a26d	0.07989965
20	0xbe75a9f8	-0.23990619
21	0xbeda19f1	-0.42597917
22	0xbf007f3f	-0.5019416
23	0x3e214efd	0.15752788
24	0x3cbf90c6	0.023384463
25	0xbd075dc1	-0.033048395
26	0xbed36619	-0.41288832
27	0xbcf1f247	-0.029534472
28	0xbef8f3fc	-0.48623645
29	0x3ca2be88	0.019866243
30	0xbefc9582	-0.49332815
31	0xbe746cbc	-0.23869604
32	0xbe3330c0	-0.17499065
33	0xbe51683b	-0.20449917
34	0xbe57fced	-0.21092577
35	0xbea97520	-0.33097172
36	0xbdac751e	-0.08420776
37	0x3c1a90d3	0.009433943
38	0xbe106337	-0.14100347
39	0xbe315669	-0.17318119
40	0xbeabeca6	-0.33578986
41	0xbe71ce43	-0.23613839
42	0xbe683cda	-0.22679463
43	0xbdebfa8d	-0.11522398
44	0xbe82a3e9	-0.2551568
45	0xbed82e0e	-0.42222637
46	0xbe9b5a0d	-0.3034214
47	0xbca5f921	-0.020260395
48	0xbd1c0a8b	-0.038095992
49	0xbed8bb75	-0.42330518
50	0x3d58c41c	0.0529214
51	0xbe088d70	-0.13335204
52	0xbeb0b774	-0.34514964
53	0xbd83d997	-0.06437986
54	0xbd15a1c5	-0.03653123
55	0x3d39a280	0.045320988
56	0xbe0bee5c	-0.13665146
57	0xbdb97d28	-0.09057075
58	0xbee0dd96	-0.43919057
59	0xbdf28420	-0.11841607
60	0xbedf889c	-0.43658912
61	0xbe0893c5	-0.1333762
62	0xbe0ee7eb	-0.13955657
63	0xbdb64b02	-0.08901025
64	0xbcd3db38	-0.025861368
65	0xbf0f947f	-0.5608596
66	0xbed85971	-0.42255738
67	0xbecf4362	-0.40481097
68	0x3ee8af32	0.45446163
69	0x3e76aac5	0.24088581
70	0xbe999bd3	-0.30001697
71	0xbf6d24f3	-0.92634505
72	0xbe815445	-0.25259605
73	0xbf55bdde	-0.8349284
74	0xbc96790e	-0.01836827
75	0xbf260d58	-0.6486411
76	0xbf57513e	-0.8410834
77	0x3e40c528	0.18825209
78	0xbf60b9de	-0.8778361
79	0x3ecb2d18	0.3968284
80	0xbd8143d6	-0.06311767
81	0xbf21a972	-0.6314918
82	0x3efa633c	0.48903835
83	0x3e022a3f	0.12711428
84	0xbece781a	-0.40326005
85	0xbf25c501	-0.6475373
86	0xbf16d094	-0.58912015
87	0x3f0c4c45	0.5480388
88	0x3e345706	0.17611322
89	0x3f056091	0.52100474
90	0xbefea928	-0.4973843
91	0x3eb38e54	0.35069525
92	0xbf5646ca	-0.83701766
93	0x3c41c6e5	0.011827205
94	0xbf13870c	-0.5762794
95	0xbd87cb97	-0.066306286
96	0xbefd8972	-0.49518925
97	0x3ea2f8b2	0.31830364
98	0x3e90cc22	0.2828074
99	0xbe8a7d8a	-0.27048904
100	0xbe8ee640	-0.27910042
101	0xbe8c731a	-0.27431566
102	0x3cf9a511	0.030474218
103	0xbd805f7d	-0.06268213
104	0xbd8d6348	-0.06903702
105	0x3e845597	0.2584655
106	0xbed5475a	-0.41656
107	0x3dde7902	0.10862924
108	0x3ed23ee4	0.41063607
109	0xbea0c4e4	-0.31400216
110	0x3ef039b0	0.46919012
111	0xbeea7aef	-0.45796916
112	0xbf40d7c7	-0.7532925
113	0x3e8f6f6b	0.28014693
114	0xbf2a7972	-0.6659156
115	0xbf2bf83d	-0.67175657
116	0xbda41759	-0.08012266
117	0x3e6a45d0	0.22878194
118	0x3eac14c2	0.33609587
119	0xbf182573	-0.5943214
120	0xbeebe46a	-0.46072704
121	0xbecc9c85	-0.39963165
122	0x3deadb8e	0.11467658
123	0xbeb7988f	-0.3585858
124	0x3e5145b7	0.2043675
125	0xbf439b0d	-0.76408464
126	0x3ea080cc	0.31348264
127	0xbf1a31b8	-0.60232115
128	0xbe1b1d0f	-0.15147804
129	0x3ed69636	0.41911477
130	0x3ed86b99	0.4226959
131	0xbcb98ca0	-0.022650063
132	0xbdc9fff3	-0.098632716
133	0xbe7d7c47	-0.2475444
134	0x3ea69d05	0.3254167
135	0x3eac0730	0.33599234
136	0x3e84c700	0.25933075
137	0x3ef80199	0.4843872
138	0x3e3472c1	0.176219
139	0x3ea5294a	0.32258064
140	0x3f12f0d5	0.5739873
141	0x3eace12b	0.3376554
142	0x3ee9c44a	0.4565757
143	0x3d86223f	0.06549501
144	0xbe4b6bfa	-0.19865409
145	0x3f01a51e	0.50642574
146	0xbe31283c	-0.17300504
147	0xbcc0c89e	-0.023533162
148	0x3e74e56b	0.23915641
149	0x3ea07339	0.31337908
150	0x3ec3a920	0.3821497
151	0xbe9faf5c	-0.31188476
152	0xbe60566c	-0.21907967
153	0xbd80ecf9	-0.06295199
154	0x3edf60ca	0.43628532
155	0xbe4d313f	-0.20038317
156	0x3f061c81	0.52387244
157	0xbd94c484	-0.07264045
158	0x3e862086	0.26196688
159	0x3e13161c	0.14363903
160	0x3d18aa07	0.037271526
161	0x3ef9548c	0.48697317
162	0x39c058cf	0.0003668726
163	0x3e0f568a	0.13997856
164	0xbd849c0a	-0.064750746
165	0xbe22d616	-0.1590198
166	0x3e298ca7	0.16557561
167	0x3e7f2da1	0.2491975
168	0xbcd32cd7	-0.025778217
169	0x3ed22491	0.41043523
170	0xbdcb83a7	-0.0993722
171	0x3eb23fbc	0.3481425
172	0x3ebd4c97	0.36972496
173	0xbe3f34f6	-0.18672547
174	0x3f0c20a2	0.54737294
175	0xbdc670cb	-0.09689482
176	0x3d8bfeea	0.068357304
177	0x3eb4ce71	0.35313752
178	0xbdc06a25	-0.093952455
179	0xbd3997f2	-0.045310922
180	0xbdb5550c	-0.08854112
181	0x3e966819	0.29376295
182	0x3e80d059	0.25158957
183	0xbe6a8f1d	-0.22906156
184	0xbb9e30f7	-0.0048276144
185	0x3d22df14	0.039763525
186	0x3ea133ed	0.3148493
187	0xbe2dfd09	-0.16991057
188	0x3e8e0f39	0.2774599
189	0xbe0f992f	-0.14023279
190	0x3e1f1796	0.15536341
191	0x3e209660	0.15682364
192	0x3e4a0a21	0.19730426
193	0x3e7c95c4	0.24666506
194	0xbd3b6210	-0.045747817
195	0x3e1db745	0.15401943
196	0x3e614e91	0.22002627
197	0x3e82ad53	0.2552286
198	0x3ee6f7e8	0.45111012
199	0x3e45e835	0.19326861
200	0x3f78aa4b	0.97134846
201	0xbd0bbc96	-0.034115396
202	0x3f104724	0.5635855
203	0x3e6c4d25	0.23076303
204	0x3dea4fee	0.11441027
205	0x3f3b10e3	0.7307264
206	0x3e20db1a	0.1570858
207	0x3eee51ee	0.46546882
208	0x3e44ae7f	0.1920719
209	0x3d822c43	0.063560985
210	0x3ea3445d	0.31888095
211	0x3e91aab8	0.2845056
212	0x3e88e631	0.26738122
213	0xbe480967	-0.19534837
214	0xbd4d0a77	-0.05005881
215	0x3ee8fe70	0.4550662
216	0x3ede5f36	0.43432015
217	0x3e549f9e	0.20764014
218	0x3ec91f21	0.39281562
219	0x3ece7533	0.4032379
220	0x3ce25a65	0.027630994
221	0x3e0e511f	0.13898133
222	0xbe637d56	-0.2221578
223	0x3e6d6a49	0.23185076
224	0xbdbebe09	-0.0931359
225	0xbedf9e78	-0.4367559
226	0xbec2efaf	-0.3807349
227	0xbec7ca02	-0.39021307
228	0xbd790426	-0.060794972
229	0xbe464a92	-0.19364384
230	0xbea4546f	-0.32095668
231	0xbeca18c5	-0.39472023
232	0xbeb16972	-0.3465076
233	0xbedf4600	-0.43608093
234	0xbe12aa81	-0.14322855
235	0xbe5abe59	-0.21361674
236	0xbebc8268	-0.36818242
237	0xbed8b592	-0.42326027
238	0xbeb23228	-0.3480389
239	0xbcfa3f0a	-0.030547637
240	0xbe34c20d	-0.1765215
241	0xbebdb4c8	-0.37051988
242	0xbea07b03	-0.3134385
243	0xbebf2879	-0.37335566
244	0xbef37263	-0.47548208
245	0xbe87c470	-0.26517057
246	0xbe432b1d	-0.19059415
247	0xbdbedc33	-0.093193434
248	0xbdcd3371	-0.10019577
249	0xbe053f40	-0.13012409
250	0xbe628edd	-0.2212481
251	0xbe9f7f2e	-0.31151718
252	0xbf040d43	-0.51582736
253	0xbdf00198	-0.11719054
254	0xbe214827	-0.1575018
255	0xbe1fde9e	-0.15612265

N.layers.1.bias f4 [32]
0	0xbf21ecfb	-0.6325223
1	0xbeff294d	-0.49836197
2	0xbf681e58	-0.906713
3	0x3f2b02b1	0.6680098
4	0x3f11291f	0.5670337
5	0x3ecb506d	0.39709798
6	0xbdfdba94	-0.123891026
7	0xbf19bb22	-0.60051167
8	0xbf235326	-0.6379875
9	0x3f22f36c	0.6365268
10	0x3f1cd3a0	0.61260414
11	0xbe472e79	-0.19451322
12	0xbedc7309	-0.43056515
13	0xbeeb00c2	-0.45899016
14	0x3f93d041	1.1547929
15	0xbf2eae9e	-0.68235195
16	0x3f531744	0.82457376
17	0xbf07d980	-0.53066254
18	0xbf3b401c	-0.731447
19	0x3ef8d573	0.4860035
20	0x3eea5f45	0.4577581
21	0x3ec225ee	0.37919563
22	0x3e34bdf9	0.17650594
23	0xbecd7497	-0.40128013
24	0x3ee8f935	0.4550263
25	0xbedf2ddb	-0.43589672
26	0x3f5a0454	0.85162854
27	0x3ed42c4a	0.4144004
28	0xbebe8aa3	-0.37215146
29	0x3f3dbdc8	0.7411771
30	0x3eedb5e8	0.46427846
31	0xbedb8526	-0.42875022
