Birth-Death-0.1--1d/experiments/cnf/toy/2020_10_20_02_18_12_8gaussians_alph100_0_m32_checkpt.pth (torch, 8199 bytes, 7 tensors)

A f4 [2, 2]
000000 e0 1e b6 3e da 28 e7 be cc cf 55 be f0 c3 c0 bf
       0.3557043 -0.45148355 -0.2088005 -1.5059795

c.weight f4 [1, 2]
000000 eb e0 c8 be 9c d0 12 38
       -0.392341 3.5003395e-05

w.weight f4 [1, 32]
000000 82 ac a6 3e fa 8d b6 3e 18 2a b4 3e 3c b8 a7 3e
       0.32553488 0.35655195 0.35188365 0.32757747
000010 3c e8 a2 3e b3 bc ad 3e 10 ae a3 3e ed ed ac 3e
       0.31817806 0.3393303 0.31968737 0.33775273
000020 5b 95 d3 3e 95 33 a2 3e d7 04 a8 3e 66 d9 a5 3e
       0.41324887 0.3167998 0.32816193 0.32392424
000030 44 df 95 3e 80 22 a7 3e 10 2a ab 3e 05 da ad 3e
       0.292719 0.3264351 0.3343053 0.33955398
000040 33 3f f4 3e 56 82 b2 3e 84 4a 9c 3e 5a 93 b0 3e
       0.47704467 0.34865063 0.305256 0.3448742
000050 8a dd aa 3e 94 61 9f 3e f8 e8 cc 3e a2 6e 9c 3e
       0.33372146 0.31129134 0.4002149 0.30553156
000060 55 0c a6 3e f7 0f b9 3e 75 dd af 3e 94 a3 cd 3e
       0.32431284 0.36144993 0.34348646 0.40163863
000070 44 94 ae 3e 31 44 b5 3e 79 83 1f 3f 79 1d a7 3e
       0.34097493 0.35403588 0.62309986 0.32639673

N.layers.0.weight f4 [32, 2]
000000 29 2d 94 be 41 dd 4d bf cc 9a 5e 3e ee e9 17 3f
       -0.28940704 -0.8041573 0.21738738 0.59341323
000010 ed 43 fc bc 09 2a a3 bf 20 99 6d be a9 cc 97 be
       -0.030794108 -1.2747203 -0.23202944 -0.2964833
000020 25 0a 65 be 7e 17 d2 be b0 5f 7f 3e fd 6c 84 bf
       -0.22367151 -0.41033548 0.24938846 -1.034576
000030 0f 63 32 be 15 a3 25 3e 2c 29 3b be cd 5f 8c 3f
       -0.174206 0.16175492 -0.18277425 1.0966736
000040 1d 47 83 bd 6a 4e 80 bf 92 94 73 be 33 98 f6 3c
       -0.06410048 -1.002393 -0.23787144 0.030101871
000050 2a 2e 0f 3e d6 96 a6 bf ef b8 87 be 87 94 00 3d
       0.13982454 -1.3014781 -0.2650828 0.031391647
000060 06 33 94 bd 4b c9 3b bf 96 09 c4 bd 20 8c 0c bf
       -0.072362944 -0.73354024 -0.09572141 -0.54901314
000070 5b 81 2a 3c 53 4c af 3e 6a 1c 8f 3d 15 6e 8b 3f
       0.010406817 0.34237918 0.069878414 1.0892969
000080 fa 36 71 3e 7f 0c 63 3d 49 df 5c bd f0 10 46 3f
       0.23556128 0.05543184 -0.05392388 0.77369595
000090 16 3c 4e 3b 0a 61 1a bf cd 6e 12 3d 6c ac 72 bf
       0.003146892 -0.6030432 0.0357502 -0.94794345
0000a0 5b cd 2c 3e 0d 1b 8e bf 63 a7 59 be 6c 51 65 3f
       0.16875212 -1.1102005 -0.21255259 0.89577365
0000b0 bd 39 05 bd 73 d9 7f 3f 52 54 2d be 9e ad a7 bf
       -0.032525767 0.99941176 -0.16926697 -1.3099859
0000c0 d9 f2 92 3d e1 4c e8 3d c5 3c 2c be 72 80 3e 3f
       0.07175226 0.113427885 -0.16820057 0.7441474
0000d0 26 9c cd bc 3d aa e6 3e 50 06 6c 3e db 32 ad 3d
       -0.025098871 0.45051757 0.23049283 0.084569655
0000e0 2d cb 40 3d d8 6e 75 bf c8 b8 24 bc a4 5b 2f bf
       0.047068764 -0.9587226 -0.010053821 -0.6849921
0000f0 74 98 27 be d0 b7 f9 bd 89 21 c4 3d d9 2d a2 bc
       -0.1636675 -0.121932626 0.09576709 -0.019797252

N.layers.0.bias f4 [32]
000000 47 e7 ae 3d 19 b9 5e 3f 16 d5 53 bf 89 41 8c bf
       0.085402064 0.87001187 -0.8274702 -1.09575
000010 16 6b 0d bf 88 b1 78 bf 6d cb 4c 3d af 6f a1 3f
       -0.55241525 -0.9714589 0.04999869 1.2612208
000020 97 1a 6c bf 5c 46 90 3f 15 f2 a7 bf d1 94 8f bf
       -0.9222807 1.1271472 -1.3120753 -1.121729
000030 2a c8 9e bf 80 19 86 bf 7a ff aa 3f ab c3 71 3f
       -1.2404835 -1.0476532 1.3359215 0.9443919
000040 ae b8 8f bf c2 aa 6b 3f 80 fc c9 3d 9a e5 26 3e
       -1.1228235 0.9205743 0.09862614 0.16298524
000050 2f ce 9b bf ce d2 92 3f 4f 87 5e 3f 15 cf 37 bf
       -1.2172297 1.1470582 0.86925215 -0.7180036
000060 d8 d9 8e be 96 05 5f 3f 56 f8 e9 3e 0a e7 36 bf
       -0.27900577 0.871179 0.45697278 -0.7144629
000070 c1 ed 81 be 85 13 14 3f 17 8b ea be 37 66 87 3f
       -0.25376704 0.57842284 -0.45809242 1.0578068

N.layers.1.weight f4 [32, 32]
000000 ca 09 81 be 29 8b b1 bd 74 ae 40 3e a8 35 62 be
       -0.2520278 -0.08669121 0.18816549 -0.2209078
000010 6b 03 52 be 58 68 59 be f8 13 bb be 46 e6 6a 3d
       -0.20509116 -0.2123121 -0.36538672 0.057348512
000020 3e cc f3 be fa 17 a7 be b7 9b 14 bd e1 dd 1c be
       -0.47616762 -0.3263548 -0.036281314 -0.15319015
000030 52 69 45 be 3c d5 8c bd e4 47 91 3d b3 36 a2 3a
       -0.19278458 -0.06876609 0.0709379 0.0012375921
000040 72 24 d5 3d e5 24 13 3d 2e ed 9b be cd 3f e0 3d
       0.10407342 0.035923857 -0.3045439 0.10949669
000050 ad 66 11 be 2c 98 b1 be b6 31 7b 3e c1 f5 3e be
       -0.14199324 -0.3468641 0.24530682 -0.18648435
000060 64 9b 8a be c6 38 ac 3d 9e 00 76 3e 40 dc 97 be
       -0.2707168 0.08409266 0.24023673 -0.29660225
000070 35 f5 a7 3d 81 9d bf be 9f 40 d6 be 37 a8 cf be
       0.082010664 -0.37424853 -0.41846177 -0.40558025
000080 b8 be da 3d bd 75 d2 be 91 4d 07 3d e7 d0 d1 be
       0.10680908 -0.41105452 0.033032957 -0.40979692
000090 d1 5e 91 be 6e c9 26 be 3a 9c 46 3d 91 70 30 bd
       -0.28392652 -0.16287777 0.048488833 -0.0430761
0000a0 e9 5d 80 3d ce ec 3f 3e cb 80 ed bd 8a d0 d7 3c
       0.06267912 0.18742678 -0.11596831 0.026344556
0000b0 63 f7 07 bf ee 12 48 be d9 72 93 bd ea 2b 23 be
       -0.5311186 -0.19538471 -0.0719964 -0.1593472
0000c0 33 24 54 be 9a e0 08 be 08 ae 0c bf bd 0f 16 be
       -0.20716934 -0.13366929 -0.5495305 -0.14654441
0000d0 96 40 37 be 7b 38 8c 3e 77 12 05 be 21 9a 2d be
       -0.17895731 0.2738684 -0.12995325 -0.16953327
0000e0 71 02 bf 3d 63 ce 87 be 7e 59 2a be 76 36 a7 bd
       0.093266375 -0.26524648 -0.16635701 -0.081646845
0000f0 3c e7 12 be 6e 20 02 be de a0 8b 3c c3 f2 b9 3e
       -0.14346021 -0.12707683 0.01704448 0.36318025
000100 df 32 5f bd d2 98 4f be 3b b3 80 3e 8a 6e 56 be
       -0.054491874 -0.2027314 0.25136742 -0.20940605
000110 57 b9 d7 be 46 97 03 be 95 5d 3f be 8c ec a7 bd
       -0.4213359 -0.12850675 -0.18688042 -0.081994146
000120 f1 10 04 bf 30 ff 13 be 87 b0 2a bd 14 b1 1a be
       -0.5158835 -0.14452815 -0.041672256 -0.15106612
000130 73 a5 90 be 02 30 02 3e 0c a6 4b 3e 4d 9a 97 3e
       -0.28251228 0.12713626 0.1988756 0.2960991
000140 d5 81 f2 3b 9a ef 84 3e c0 c0 f1 be 20 45 92 3e
       0.007400731 0.2596405 -0.4721737 0.28568363
000150 26 9d d1 bd 8b 65 5a be ed 72 ad 3e c3 85 11 be
       -0.10235052 -0.21327798 0.33876744 -0.14211182
000160 d2 6e a7 be 82 f1 6b 3e 1b bb 41 3e a7 1f 4f be
       -0.32701737 0.23041347 0.18919031 -0.20226918
000170 7c db fa 3d 66 48 68 be 27 3e 9d be d9 4c 09 bf
       0.122488946 -0.22683868 -0.3071148 -0.53632885
000180 87 90 23 3e d5 6e 6d 3e 02 df d3 be 4b b3 ad 3d
       0.15973102 0.2318681 -0.4138108 0.08481463
000190 5f 80 03 3f d7 c8 ef 3d 4b f2 af 3e 1b 55 09 3e
       0.51367754 0.11708229 0.34364542 0.13411371
0001a0 5c 97 67 3e ee 48 c0 3e a1 3c 9f 3a 77 7c 65 3e
       0.22616333 0.3755564 0.0012148806 0.22410761
0001b0 15 bc 79 3e e8 60 8a 3d 89 2b a6 3e a4 4d 90 be
       0.24388154 0.06756765 0.3245509 -0.28184235
0001c0 01 a9 18 3e 83 a3 1b bd b8 6e 8a 3e 10 33 91 be
       0.1490822 -0.037997734 0.27037597 -0.2835927
0001d0 cb 71 a0 3a fd dd b7 3e 09 20 d5 be 12 35 a2 3d
       0.0012240944 0.3591155 -0.41626003 0.079202786
0001e0 7e 15 08 3f c2 6c 75 be 3f 40 1f be 4e f7 7a 3e
       0.53157794 -0.23967269 -0.15551852 0.24508402
0001f0 10 a9 68 be 36 f3 58 3e d0 f6 09 3f 99 4e f8 3e
       -0.22720742 0.21186528 0.5389223 0.48497465
000200 6a 62 f9 3d a3 5d bf 3c 8b 89 a6 3d 52 f0 fc 3d
       0.12176974 0.02336008 0.08131703 0.12350525
000210 57 ac 85 3e 66 2b 08 3b 9d db e6 3e 21 15 1c 3e
       0.26108047 0.002077782 0.45089427 0.15242435
000220 9d f2 55 3e 08 02 38 3e 0e e3 7b bd fa 8b 92 3e
       0.20893331 0.17969525 -0.061495833 0.2862242
000230 8a b6 a9 3e 09 b1 fe 3d e2 99 e3 3c d2 33 4f 3d
       0.3314708 0.124361105 0.027783338 0.05058653
000240 32 16 c9 3c 54 43 12 3b 2e 6d 81 3e 9e 05 f3 bd
       0.024546716 0.0022317963 0.2527861 -0.11866306
000250 d8 6f 10 3e 81 b0 95 3e 09 03 ea 3d 36 e7 b7 3e
       0.14105165 0.29236224 0.1142636 0.35918587
000260 23 f5 5e 3e 0f da 62 3d bd 59 9c bc 82 32 c3 3e
       0.217732 0.055383738 -0.01908576 0.38124472
000270 dd ae 09 bd 09 65 f8 3e 67 a3 27 3e 64 84 de 3e
       -0.03361403 0.48514584 0.16370927 0.4346038
000280 ce c4 7b 3d 22 f9 96 3d b9 21 3a bd 36 fb 82 3e
       0.061466984 0.07371737 -0.045442317 0.25582284
000290 cd 48 26 3e f7 a8 9f 3d 76 a6 98 3e f4 e4 cb bd
       0.16238709 0.07795899 0.298145 -0.09955779
0002a0 aa b1 f6 3e 7e a7 fb 3d 24 1f 33 3c 64 54 53 3e
       0.48182422 0.12287806 0.0109327175 0.20637661
0002b0 ed 76 d2 3e c7 03 1b 3d 1b f4 8e bb 32 de cf bd
       0.41106358 0.0378454 -0.0043625957 -0.10149802
0002c0 2d 60 11 3e 66 54 1b bd 79 0e f0 3e 6b 44 9e bd
       0.14196844 -0.037922285 0.46886042 -0.077278934
0002d0 de 24 f7 bd fd be a0 3e c2 89 f2 bd 90 28 18 3e
       -0.12067579 0.31395712 -0.118426815 0.14859223
0002e0 14 2b d8 3e d2 0f d1 3d 3e 93 18 be 4b db 9f 3e
       0.42220366 0.102080956 -0.14899918 0.31221995
0002f0 6f a0 01 bc d3 82 aa 3e 72 82 60 3e 59 91 2e 3e
       -0.0079117855 0.33302936 0.21924761 0.17047633
000300 a9 8f 7c be ab 93 04 be 90 8f 81 bd d6 77 73 b8
       -0.24664177 -0.12946956 -0.063262105 -5.804732e-05
000310 ce f8 ca be 4a 79 9e be 00 8c 63 be 12 16 b3 be
       -0.39642948 -0.3095191 -0.22221375 -0.34977776
000320 fd c7 09 bf 2b 1a 3b be b7 0a b1 bd 99 7a a8 be
       -0.5382078 -0.18271701 -0.08644622 -0.32906035
000330 11 6a d9 be 7d f1 f4 bd a0 bd dc bd 4c dc 18 3d
       -0.42463735 -0.11960123 -0.107783556 0.037319466
000340 55 a6 f7 bb 0f c2 12 3e 4f 69 f5 be 3c 04 0a 3e
       -0.00755767 0.1433184 -0.47931907 0.13478178
000350 28 83 39 bd 4c 22 c3 be 41 55 e5 3d 92 12 15 bd
       -0.045291096 -0.38112104 0.111979015 -0.036394663
000360 f4 ef da be ec c7 cd 3d d4 d1 e8 3d 88 19 96 be
       -0.42761195 0.10047898 0.113681465 -0.29316354
000370 7c 9e 94 3d 5f c0 43 be 14 85 3b be 27 82 a2 be
       0.07256791 -0.19116352 -0.18312484 -0.31739923
000380 4f 73 b7 be 84 b2 7c be 80 db c7 3c 33 33 91 bd
       -0.3583016 -0.24677473 0.024396658 -0.070898436
000390 e3 16 db be 1f b3 9a be 11 b2 88 be 21 0f 50 be
       -0.427909 -0.30214784 -0.26698354 -0.20318271
0003a0 3d fc a9 be 7c 9c 94 be 0b 00 27 be 7f c0 fc bd
       -0.33200255 -0.29025638 -0.1630861 -0.12341403
0003b0 5f 1d 9d be f9 7d 77 be 74 03 27 be d2 90 0d 3d
       -0.3068647 -0.24169149 -0.16309911 0.03456194
0003c0 7b c6 ea bd 9e e9 f2 3c ed 8d 63 be f3 08 de bd
       -0.114636384 0.029652413 -0.22222109 -0.10841551
0003d0 77 ac ac bd 10 7b e5 be 2a 2c 06 bd 90 6a d7 bd
       -0.084313326 -0.44820452 -0.032756962 -0.10518372
0003e0 45 73 ab be 05 18 f7 bd f1 ac 6a 3d fa 3c b0 be
       -0.3348638 -0.12065128 0.057293836 -0.3442152
0003f0 89 50 01 be 55 45 62 be 1a 7d 5f be 49 69 d4 be
       -0.12628378 -0.2209676 -0.21825066 -0.41486576

N.layers.1.bias f4 [32]
000000 4e bb a7 be a8 a9 e4 3c 3c 39 eb be a4 ed 08 3f
       -0.3276009 0.02791293 -0.45942104 0.5348761
000010 cb 37 89 3e 32 7b 45 3e a9 46 b6 be 8a fb b2 be
       0.2680038 0.19285277 -0.35600784 -0.34957534
000020 43 60 c8 be 11 38 91 be b6 33 f4 be 14 9d 15 3e
       -0.39135942 -0.28363088 -0.47695702 0.14610702
000030 6b 7e e8 be 34 63 86 3e bd 7d 0f bf 53 95 1f 3e
       -0.4540895 0.2624756 -0.56051236 0.15584306
000040 21 bd 3c bf 85 20 cd 3e 0a 55 72 be 34 2f c1 3e
       -0.7372609 0.40063873 -0.23665252 0.37731326
000050 5f 8c 12 be c2 51 a2 3e ae 8a 36 3f 47 10 f8 3e
       -0.1431136 0.31703 0.7130536 0.4844992
000060 5c da c0 be 57 7a 03 3f ca af 66 3e 1e 51 df be
       -0.37666595 0.5135855 0.22527996 -0.43616575
000070 11 a9 d3 be 2f 96 af bd 9d 3a 20 bf c8 4f 8c 3e
       -0.41339925 -0.08573567 -0.62589437 0.27404618
