Birth-Death-0.1--1d/experiments/cnf/toy/2020_10_20_02_06_02_8gaussians_alph100_0_m32_checkpt.pth (torch, 8199 bytes, 7 tensors)

A f4 [2, 2]
000000 c7 42 3c be f8 fc 4d 3e a0 8e c3 be b4 e1 a3 3e
       -0.18384849 0.20116031 -0.38194752 0.32008135

c.weight f4 [1, 2]
000000 70 18 11 3e 5b 8d 4a bf
       0.14169478 -0.7912194

w.weight f4 [1, 32]
000000 0b 67 c2 3b ca 5d 17 be 5e a5 13 be 1a e6 ca 3c
       0.005932694 -0.14781871 -0.14418551 0.024767924
000010 7d 8b e0 3d 94 ed 6f 3d 44 22 10 3e cf c9 82 be
       0.10964105 0.05857618 0.14075571 -0.25544593
000020 7a b8 77 bd 54 b0 a6 3e 04 f0 0c be 0c 01 6a 3d
       -0.060478665 0.32556403 -0.13763434 0.057129905
000030 eb 07 d8 3d dc fa 86 bd 48 62 4b 3d 47 6b 36 be
       0.10548385 -0.065908164 0.049654275 -0.1781436
000040 2e 8c 78 bd 42 7b 09 bd c2 a5 84 bd ad 00 d0 bc
       -0.06068056 -0.033564813 -0.06476928 -0.025390947
000050 9b aa 76 be 40 71 9a 3d 2d ed e7 bc cf d5 2f 3d
       -0.24088518 0.07541132 -0.028311336 0.042928513
000060 66 3a b3 3d f1 f0 37 bc 5a a6 19 bd 2c e4 e2 bc
       0.08751373 -0.0112268785 -0.03751216 -0.027696691
000070 fe 60 81 bb 77 36 ad 3d 1c ea 3e bd 37 de b5 3e
       -0.00394833 0.08457654 -0.046609983 0.355211

N.layers.0.weight f4 [32, 2]
000000 5f ef ef 3c e5 1d 38 3f e3 67 d6 3d e2 da 80 bf
       0.029288946 0.71920615 0.104690336 -1.0066798
000010 77 33 be bd f1 59 57 3f df a6 6c 3e 2e d1 be bf
       -0.0928716 0.84121615 0.23110531 -1.4907587
000020 8d 66 da bd 5f b7 a4 3f 8c ee 44 3e 4f 2a 25 3f
       -0.10664091 1.286846 0.19231623 0.6451768
000030 4f 88 fd 3d 17 b5 3e 3f c6 90 0d 3b 2d af 79 be
       0.123795144 0.7449507 0.0021601184 -0.2438323
000040 8f 09 67 bc 68 bb 90 3f 87 6c b6 bb 67 b2 c2 bd
       -0.0141014 1.1307192 -0.0055671367 -0.09506684
000050 84 16 33 be 14 d8 e9 be 2f d6 d4 bd df 1b 7c bf
       -0.17489058 -0.45672667 -0.10392415 -0.9848003
000060 12 a1 7b 3f 5f ba bf be c7 79 0e be 8f b8 af bf
       0.9829265 -0.37446877 -0.13913642 -1.3728198
000070 62 4e 97 bd 7d 38 ba bf 38 a4 4c bd 50 56 3c 3f
       -0.07387997 -1.4548489 -0.0499613 0.735692
000080 7e 92 20 3e 6f 8a 81 3f 30 7a 9e bd 8a 61 b5 3e
       0.15680882 1.0120372 -0.07738149 0.3542598
000090 53 38 67 3d 26 ec 79 bf 1d 02 0d be 6c 9f 86 3f
       0.0564502 -0.9762596 -0.13770337 1.0517402
0000a0 f3 a8 1c 3e 34 4f 73 3f 09 d3 31 3e 97 f9 6c bf
       0.15298824 0.9504273 0.1736566 -0.92568344
0000b0 e2 9e bb bd d5 b8 32 3f 5a 58 e0 3b 99 34 a9 3e
       -0.09161164 0.6981328 0.00684647 0.3304794
0000c0 c8 8d ab 3d eb 91 58 bf ca ee 66 be d2 6d c0 be
       0.08376652 -0.84597653 -0.22552028 -0.37583786
0000d0 7c b1 05 be 05 37 a9 3f a9 87 e0 3e b9 99 ab be
       -0.13055986 1.3219916 0.438535 -0.3351572
0000e0 ee ee 69 bc 8e 5b 87 bf d5 85 c0 3d b6 c2 8f be
       -0.014278157 -1.0574815 0.094005264 -0.2807824
0000f0 33 c0 cc 3d 20 51 a4 3f 0b 4e e6 bf db b8 46 bd
       0.099975966 1.2837257 -1.7992567 -0.048516136

N.layers.0.bias f4 [32]
000000 8e 14 af 3e 90 bf 13 bf e3 10 8d 3f 0f 17 3a bf
       0.3419537 -0.57714176 1.1020778 -0.72691435
000010 55 ae 6f 3f 08 51 a9 be 68 e6 a4 3f 15 79 7e 3f
       0.93625385 -0.33069634 1.2882814 0.99403507
000020 f8 f9 2b 3d 09 8c 0f bf d5 4c c0 bf 35 19 a9 bf
       0.041986436 -0.5607305 -1.5023447 -1.3210818
000030 6e 42 13 3e bb 77 06 bf 33 dd b4 bf 87 df b2 3e
       0.1438081 -0.52526444 -1.4130005 0.34936163
000040 1f 06 8d 3f 71 c5 ab 3f 00 6e a4 bf c4 68 28 3f
       1.1017493 1.3419629 -1.2846069 0.6578486
000050 10 cd 2c 3f d9 18 6e bf 69 21 90 3f 92 70 41 bf
       0.675004 -0.93006665 1.1260196 -0.75562394
000060 96 a4 ac bf 55 67 d7 bf 13 a6 eb 3e 04 af 20 3e
       -1.3487728 -1.682841 0.46025142 0.15691763
000070 1b 03 86 bf e1 43 b2 bf 20 7d 9c 3f 5a 21 ab bb
       -1.0469698 -1.3926965 1.2225685 -0.0052224817

N.layers.1.weight f4 [32, 32]
000000 a3 1f 45 bd d8 43 5d 3e 7c 27 eb 3d 15 1a 98 3e
       -0.048125874 0.21607912 0.114821404 0.297074
000010 fa 55 08 3e 6d fe 85 be 43 08 77 3c 34 87 15 be
       0.13314047 -0.26170674 0.015077653 -0.14602357
000020 23 9e 70 be f0 32 6c 3e e4 02 95 3e 5e 43 e0 3d
       -0.23497824 0.23066306 0.29103768 0.10950349
000030 f2 ba 83 3e 39 94 ad 3d 2e fa 79 bd fb 90 a1 3e
       0.25728565 0.08475537 -0.061029606 0.31555924
000040 c3 87 8e 3e 33 4e ac 3e d6 d9 ea 3d 8c a4 b9 3d
       0.27837953 0.3365341 0.1146733 0.09064588
000050 86 db 90 bd 68 9e 1f 3e 0d ef e3 3d 49 a8 b9 bd
       -0.07073121 0.15587771 0.1112958 -0.09065301
000060 c1 4a 28 3e 49 80 a2 3e e8 3d c9 3d db 4d a6 3d
       0.16434766 0.317385 0.09826261 0.081203185
000070 76 f0 5b 3e 91 d2 56 3e 08 f2 f1 3d 81 71 96 3e
       0.21478447 0.20978762 0.11813742 0.29383472
000080 6c 92 c8 bd 22 7a 1b bf 12 8e 4e bf 12 d8 1e bf
       -0.09793553 -0.60733235 -0.8068553 -0.6204845
000090 2d 78 f8 be 64 1c a0 3e c5 f4 06 bf fe 2a 86 be
       -0.48529187 0.3127166 -0.5271724 -0.26204675
0000a0 f8 e5 3a be 41 1d a4 be 4a 6f 4a bf a9 94 e9 be
       -0.18251789 -0.3205357 -0.79076064 -0.4562123
0000b0 b0 ec 0d be 95 7b c1 be 12 d7 ed be f8 28 18 bd
       -0.1385982 -0.37789598 -0.46453148 -0.037148446
0000c0 08 ce 28 bf 68 0d 05 bf ae 83 d8 be 56 bc 29 bf
       -0.6593938 -0.5197358 -0.42287964 -0.66303
0000d0 e8 10 0d bf 36 ba 50 bf b7 ea 1f bf cd 68 44 be
       -0.5510392 -0.81534135 -0.6246752 -0.19180603
0000e0 5a 66 c4 be fb f2 4d bf a7 27 1b bf 6b af 9f be
       -0.38359338 -0.80448884 -0.6060738 -0.3118852
0000f0 75 22 87 bf 10 c8 24 bf da ab b8 be f7 38 bb 3c
       -1.055739 -0.6436777 -0.36068612 0.022854311
000100 30 a5 32 3f 94 8c a3 be 39 16 28 be e3 06 f4 be
       0.69783306 -0.3194319 -0.16414727 -0.47661504
000110 ca 0e b1 3d 88 c9 ea 3e 1b c4 11 bd 29 33 53 3f
       0.08645399 0.4585688 -0.03558741 0.8249994
000120 e6 c0 4b 3f ce 75 44 3f 30 89 bc be 76 22 2c bd
       0.79591215 0.76742256 -0.36823416 -0.042025052
000130 fe 9d ea 3e c8 15 f6 bc a1 be 87 3e 05 ac be 3e
       0.45823663 -0.030039683 0.26512626 0.37240615
000140 a7 8a 33 be 17 6d dd 3e 77 0b 48 3f 1f f6 05 bf
       -0.1753336 0.4324729 0.78142494 -0.52328676
000150 b4 b0 06 be ba 57 03 bf b7 13 5d 3e 23 8c 60 3f
       -0.13153344 -0.51305735 0.21589552 0.8771383
000160 20 79 da 3e 33 02 26 bf bd 32 8d be 5f fb 44 bf
       0.42670536 -0.64847106 -0.27577773 -0.7694606
000170 ff 49 07 be 07 b0 04 3e 85 0f c2 3e 80 4b 28 3e
       -0.13211821 0.12957774 0.37902465 0.16435051
000180 c7 ad fc be 89 45 19 be a3 9b 5b be 1d 57 47 bd
       -0.49351332 -0.14967932 -0.2144609 -0.048667062
000190 cf a2 19 bf 3f d3 fe be 23 da 91 be c8 56 04 bf
       -0.6001405 -0.49770543 -0.28486738 -0.5169492
0001a0 54 00 48 bf bb cf 3e bf 86 ce a6 be 10 4b af be
       -0.781255 -0.7453572 -0.3257944 -0.34236956
0001b0 bf e6 d1 be bc 77 ae be 45 be f8 be 01 c8 dc be
       -0.40996358 -0.34075725 -0.48582664 -0.4312134
0001c0 5c b7 6c be 5a 77 f2 be e6 d2 56 bf a6 5c a9 be
       -0.23116821 -0.47356683 -0.83915555 -0.33078498
0001d0 3d f4 b9 be cb 99 1f bd 11 b5 e9 be 00 59 0f bf
       -0.36319152 -0.038965028 -0.45645955 -0.5599518
0001e0 78 6e 01 bf 11 a1 2a be 47 ca 93 be ca 5c 57 be
       -0.50559187 -0.16663004 -0.28865263 -0.2103149
0001f0 fb 7a 01 bf 71 09 df be ff 67 f0 be 69 bd c8 be
       -0.5057828 -0.4356189 -0.46954343 -0.39207008
000200 e1 45 9c be b3 e5 9f be dc 3c fc bd a6 53 3b be
       -0.30522063 -0.31229934 -0.123162955 -0.18293628
000210 49 d9 a4 be cc f0 a8 be 6e 92 64 be 1b 29 86 be
       -0.32197025 -0.32996213 -0.22321483 -0.26203236
000220 2b da cf be 0e e0 b6 be 73 89 dd bd 6d a3 65 be
       -0.40596136 -0.35717815 -0.10817232 -0.22425623
000230 4c 5f be be c0 c2 c8 bd 33 dd 39 be 2e 8b 03 bf
       -0.3718208 -0.098027706 -0.18150787 -0.51384246
000240 d6 74 41 bd 27 53 c1 be fe 86 a8 be 9b 0e 72 be
       -0.047230564 -0.37758753 -0.3291549 -0.23638384
000250 ca dc bb be 2d cc 06 be 18 f7 c1 be b5 e5 cc be
       -0.36691886 -0.13163824 -0.3788383 -0.40019003
000260 c8 b7 1f bf 51 41 90 be 34 ca 22 be dc 95 87 bd
       -0.623898 -0.28174832 -0.15897447 -0.0662038
000270 4f 54 23 be 34 85 e7 be d0 a6 a8 be e3 e1 17 bf
       -0.1595013 -0.45218813 -0.32939768 -0.5932905
000280 03 55 11 be 59 f9 0c be a8 f9 37 bd 06 ee 29 be
       -0.14192586 -0.13766994 -0.044915825 -0.16594705
000290 54 6a 98 bd ba 90 80 3e fa 01 f0 bd 36 01 1b bd
       -0.074421555 0.25110418 -0.11719127 -0.03784295
0002a0 af da 2a 3d c8 ec 37 3d da 9c 2c be 8b 2b 07 be
       0.04171246 0.044903547 -0.16856709 -0.13200204
0002b0 a1 2c b6 be 3f 5a 3c be 65 59 47 be c7 f8 33 be
       -0.35580924 -0.18393801 -0.19467695 -0.1757537
0002c0 c2 6c 44 be 1c 13 9d be 29 33 a1 bd 99 13 32 bd
       -0.19182113 -0.30678642 -0.07871086 -0.04347572
0002d0 3a f0 31 3d 14 cd e4 bd bf 72 35 bc b1 9d 39 be
       0.04344199 -0.11171928 -0.011074721 -0.18126561
0002e0 4e 29 93 be 24 d5 69 be 05 91 0b be 3d 2f 4d bd
       -0.2874245 -0.22835213 -0.1362954 -0.050093878
0002f0 45 c0 63 be c8 e3 35 be e4 ed 67 be 00 63 a4 be
       -0.22241314 -0.17762673 -0.22649342 -0.3210678
000300 58 3b 0c 3f 20 21 9a 3e 05 2d 65 3e d3 8f 82 3d
       0.5477805 0.30103397 0.22380455 0.063750885
000310 50 11 a6 3e c9 31 24 3f c6 e5 36 3e 0a 79 3c 3f
       0.32435083 0.64138466 0.17861089 0.7362219
000320 bd df ff 3e 16 31 1c 3f 6a a9 70 3e d4 5c 2a 3f
       0.49975386 0.610124 0.23502126 0.66547894
000330 b3 e3 19 3f cc 49 61 3e 0c a6 c9 3e 03 28 cb 3e
       0.60113066 0.22000808 0.39384496 0.39678964
000340 13 86 4b 3e f6 6f 2f 3f 09 4b 32 3f b9 fe 02 3e
       0.19875364 0.68530214 0.69645745 0.12792481
000350 cb ea 79 3e 0e 50 7d 3e ac b5 15 3e d8 0c 47 3f
       0.24405973 0.2473757 0.14620084 0.77753973
000360 56 f7 1a 3f 7b 1e 76 3e 6f 5f a7 3e 12 49 c1 3e
       0.60533655 0.24035065 0.32689998 0.3775106
000370 a4 9a 82 3e 22 cb 00 3f 68 0b 02 3f 26 c7 17 3f
       0.25508606 0.50309956 0.50798655 0.5928825
000380 f8 2e e8 3c cf 91 d6 bc 7f a1 4f 3e 68 4d 8c be
       0.028342709 -0.026192574 0.2027645 -0.27402806
000390 a8 0f 5b bd 70 f9 a5 bb d8 8b 14 bf 12 46 e1 be
       -0.053481728 -0.0050651357 -0.58025885 -0.43998772
0003a0 da b4 2e be 2f 40 84 bd 38 5a 0a bf 5e 80 1f bf
       -0.17061177 -0.064575545 -0.5404391 -0.6230525
0003b0 a8 2e 85 be d4 5d 6c be 9a 95 5d bf 0f 0c c8 bc
       -0.26012158 -0.23082668 -0.865564 -0.024419812
0003c0 fa 6b d3 be dc 60 d4 3d 23 f5 35 3d 19 fe 03 be
       -0.41293317 0.10370037 0.044423234 -0.128899
0003d0 58 4e ac bd af 87 fb bd 3a d4 40 3e c9 ab b1 be
       -0.084133804 -0.12281739 0.18830958 -0.34701374
0003e0 01 6e cc bc 1e 5f c7 be da 3f 15 3c 16 88 ee 3c
       -0.024954798 -0.38939756 0.009109462 0.029117625
0003f0 60 88 ce 3d 11 23 5c 3d 85 a0 18 bf 16 3a be 3d
       0.10084605 0.05374438 -0.59619933 0.09288423

N.layers.1.bias f4 [32]
000000 e5 d6 04 3e 4d 2b 9b bd ba c1 87 3f d9 fa 5d bf
       0.12972601 -0.07576618 1.0605996 -0.8671089
000010 42 3a 18 bf e0 96 b6 be a9 59 1c 3f 8e 71 ca be
       -0.59463894 -0.35661983 0.6107431 -0.3953976
000020 cc 61 db be 28 f3 14 bf 51 0b ed 3e e3 f6 1d 3f
       -0.4284805 -0.58183527 0.46297696 0.61704844
000030 97 44 2b 3f 81 7d aa 3e ce a0 0c 3f d9 be 92 3e
       0.66901535 0.33298877 0.5493287 0.2866123
000040 15 33 ec 3e 2e cb 03 3f b1 31 35 3f 1c fb 2a bf
       0.46132722 0.514819 0.7077895 -0.6678941
000050 68 a5 0f 3f 69 5b cb be 42 f3 f2 3e 04 50 43 be
       0.56111765 -0.39718178 0.47451216 -0.19073492
000060 ec 2f c9 be b7 a3 ec be 0a 6d 40 bf 0b f6 30 3f
       -0.39294374 -0.46218655 -0.7516638 0.6912543
000070 a2 ed 0f bf 32 c9 58 3f 59 c5 d6 3e 96 04 32 3f
       -0.56221974 0.84682 0.4194744 0.6953825
