Birth-Death-0.1--1d/experiments/cnf/toy/2020_10_20_13_29_38_8gaussians_alph100_0_m32_checkpt.pth (torch, 8199 bytes, 7 tensors)

A f4 [2, 2]
000000 8a 42 97 be ab 75 2d 3f 06 da 77 3e ab 3a c2 3d
       -0.29542953 0.6775767 0.24204263 0.09483846

c.weight f4 [1, 2]
000000 31 4a d9 be 88 05 8a 3f
       -0.42439416 1.0782938

w.weight f4 [1, 32]
000000 7b 92 0d 3d dd d6 6e bd 08 40 90 3c b2 31 0f 3e
       0.034563523 -0.05831038 0.017608657 0.13983801
000010 f1 c1 8a 3d 3b 42 98 3d d6 be 17 bd 1f 08 0a bb
       0.06775273 0.074345075 -0.03704723 -0.002106197
000020 01 80 3b 3d ec f4 13 3d fb a8 df 3c ea 7e 95 bd
       0.04577637 0.036122248 0.027302256 -0.072995976
000030 e7 2d a4 bc 22 b3 3f bb fa 4c e9 3c dd 07 f6 bc
       -0.02004142 -0.0029251059 0.028479088 -0.030033046
000040 ea 9b ae 3c c4 61 e6 3b 1c 53 d9 3d c5 4d ac 3d
       0.02131458 0.0070306975 0.10611555 0.08413271
000050 c6 9b 9e 3d aa c6 e0 3e c6 d9 8e 3c a1 75 3c 3e
       0.07744555 0.4390157 0.017437827 0.18404247
000060 0b c9 25 3f 2e d1 0e 3e 20 ce 89 3b 7c 79 a1 bd
       0.6475989 0.13946983 0.00420548 -0.078844994
000070 d8 ad 0c bd aa 3e 85 3d d5 45 27 bd bf 34 7a bd
       -0.034345478 0.06506093 -0.04083808 -0.06108546

N.layers.0.weight f4 [32, 2]
000000 e8 c1 30 bd 4f ad 07 3d 1b 4b bd 3e 64 1d 7a bf
       -0.043153673 0.033124264 0.36971363 -0.97701097
000010 1a da af be d7 de 15 3f 54 54 b4 be 88 67 4f bf
       -0.34346086 0.5854315 -0.35220587 -0.8101735
000020 4b 77 93 3e 48 62 14 3f 1b 41 9e 3e 01 c9 d0 3e
       0.2880195 0.57962465 0.30909047 0.40778354
000030 86 9b c4 bc 01 c8 38 bf 67 6d b6 3e 90 bf 8c bf
       -0.02399994 -0.7218018 0.35630342 -1.099596
000040 ef a9 a3 be 14 42 0d 3f f7 fb 5c be 90 79 96 bf
       -0.31965587 0.5517895 -0.21580492 -1.1755848
000050 3a b1 b2 3c 0a 4f 7d be b2 3f b9 3e 7f f7 14 bf
       0.021813024 -0.24737182 0.36181408 -0.5819015
000060 82 c8 95 be 19 2e b9 3f 75 da a9 be b2 8d 0f bf
       -0.29254538 1.4467193 -0.33174482 -0.56075585
000070 85 00 35 3e bc 42 4f be 4a 07 e0 bc 22 c0 be 3e
       0.1767598 -0.20240301 -0.027347226 0.3725596
000080 cf 75 98 3e 20 2e 80 bf ad 4c 0b be c4 4d ae 3f
       0.2977738 -1.0014076 -0.13603468 1.3617482
000090 41 84 03 3e 43 43 a6 bf fb 20 a9 3e cc 6a 08 3f
       0.1284342 -1.2989277 0.33032975 0.5328796
0000a0 51 bc 8f 3e c3 a1 9d 3f 1a a2 92 3e 50 70 62 bf
       0.28073362 1.2314991 0.286393 -0.88452625
0000b0 e3 a4 3b 3d 4d 57 04 bf 6f 9b 40 bf 8f b1 ad 3d
       0.045811545 -0.5169571 -0.7523717 0.08481132
0000c0 30 44 59 bd 8d c4 2d 3e bb 28 a5 be 6d 90 05 bf
       -0.053043544 0.1696951 -0.32257637 -0.521735
0000d0 66 c5 31 3e ea c5 b6 3f 04 4f a6 3e bb 46 26 bf
       0.17360458 1.4279149 0.3248216 -0.64951676
0000e0 25 78 99 be b2 b1 b2 bf 93 a2 db 3e 71 97 75 3f
       -0.29974476 -1.3960478 0.42897472 0.95934206
0000f0 a1 95 93 3b c3 b3 0d 3f 5d 06 84 3e 21 d6 b8 bf
       0.004503921 0.5535242 0.25786105 -1.4440347

N.layers.0.bias f4 [32]
000000 e6 92 7f 3f 6b e5 6a bf 20 ef 7f 3e 91 5a 81 bf
       0.99833524 -0.91756314 0.24993563 -1.0105764
000010 78 35 b2 3f ef 8c b1 3f 41 82 21 bf 04 ac b0 bf
       1.3922567 1.3871135 -0.63089377 -1.3802495
000020 b4 44 d7 be e3 1b c1 bf d4 84 27 bf 5c 39 c7 bf
       -0.42044604 -1.5086635 -0.65437055 -1.556438
000030 79 82 b0 3f d6 b5 33 3f 61 f5 87 be 6d 17 39 3e
       1.3789817 0.70199335 -0.26554397 0.18075342
000040 cf 5d 8b bf ea a3 6f 3f 3b 2e 9e bf 67 8c c7 3f
       -1.0888003 0.9360949 -1.2357858 1.5589722
000050 0f 6f 81 3f ac de c1 bf ad 3a 76 be 0e 8d c9 bd
       1.0112017 -1.5146079 -0.2404582 -0.09841357
000060 09 76 85 3d 1f 4d a4 bf 94 80 94 3f 95 6e b5 bf
       0.06516654 -1.2836035 1.1601739 -1.4174372
000070 d5 b4 82 bf 41 5e 77 3f 53 92 ad 3d d1 34 c4 bf
       -1.0211436 0.96628195 0.08475175 -1.5328618

N.layers.1.weight f4 [32, 32]
000000 d8 1e 15 bf e0 c4 d1 3d 59 84 08 bf 16 a1 ac 3e
       -0.5825019 0.10242629 -0.53326946 0.3371665
000010 bc 4c 47 3e 0a 9a 24 3e 4e 78 97 be 0b 9c ee 3e
       0.19462866 0.16074386 -0.29583973 0.46603426
000020 ae 1d c2 be cf e1 1b 3e 31 7c 0a bf fc 34 3f 3e
       -0.3791327 0.15222858 -0.5409575 0.18672556
000030 57 9d 65 bd eb 7c 96 3e 6d e4 11 bf 20 a5 13 bf
       -0.056058254 0.2939218 -0.56989175 -0.57673836
000040 1d 57 49 3e f5 be 3c bf 50 20 39 bf bf 66 82 3e
       0.19662137 -0.7372888 -0.7231493 0.25469014
000050 29 79 33 3e 66 21 81 3e df 0d 2b bf b4 b7 72 be
       0.17526688 0.25220793 -0.6681804 -0.2370289
000060 93 6c fd be c6 0b d0 3e 37 f3 74 3d 2e a2 80 3e
       -0.49496898 0.40633982 0.05980226 0.25123733
000070 81 83 12 3e f2 78 e6 3e e6 63 a0 be a9 7e f0 3b
       0.14307977 0.4501415 -0.31326216 0.007339318
000080 c4 3a 24 bc 54 4a 0a 3f c7 f3 66 be c8 51 f6 3e
       -0.010023776 0.54019666 -0.22553931 0.4810927
000090 45 42 25 3f 0f 03 b7 3e 58 d7 31 bd ab e6 c4 3e
       0.64554244 0.3574452 -0.04341826 0.38457236
0000a0 31 7e 1d bf 2e 02 5e 3f 16 89 30 be 16 1a 8c 3e
       -0.6152068 0.86722076 -0.17239794 0.27363652
0000b0 ba 75 25 3e 00 26 e3 3e 85 3a 99 be 44 17 28 be
       0.1615819 0.4436493 -0.2992746 -0.16415125
0000c0 42 c7 e8 3e 65 62 7a bd 9f bd cd 3d 83 da 78 3f
       0.45464522 -0.061128993 0.10045933 0.9720842
0000d0 31 84 00 3f 6e 7a 23 3f b9 60 81 be 76 5e b1 be
       0.5020171 0.6385869 -0.25269106 -0.3464238
0000e0 0c 6b 7e be 06 3a 22 3f d6 aa ce 3e 27 13 07 3f
       -0.24845523 0.63369787 0.40364712 0.527636
0000f0 35 61 4c 3f 24 9e 23 3f 7d 95 46 be d3 54 91 3e
       0.79835826 0.6391318 -0.19392963 0.28385028
000100 97 ed d9 be cc 3b 5a 3e 23 4d a7 be 0a 13 0f bd
       -0.4256408 0.21311873 -0.32676038 -0.034930266
000110 5d 49 53 3b df cb 8e bb d2 09 16 bf c2 6a 1c 3e
       0.0032239773 -0.0043577994 -0.58608735 0.152751
000120 18 ec a3 be 4c f9 4a be e5 0d 22 bf 8f a7 aa 3d
       -0.32016063 -0.19821662 -0.6330245 0.083327405
000130 85 44 18 3d 44 13 6d 3e b9 34 01 bf 00 55 fb be
       0.03717472 0.2315188 -0.50471073 -0.49088287
000140 79 68 2e 3e d9 99 10 bf d6 0c f0 be 8c a3 05 3e
       0.1703204 -0.5648475 -0.46884793 0.1305067
000150 ba c8 2f be 29 3b fb bc cc db 23 bf e5 f4 a3 be
       -0.17166415 -0.030667858 -0.6400726 -0.32022777
000160 db ac e1 be 88 ba 90 3b 66 c1 fe be ff e5 b9 bd
       -0.4407719 0.0044167675 -0.49756926 -0.090770714
000170 b6 3c 1e 3d 88 90 35 3e eb 3d 14 bf 20 6c 56 3d
       0.038632117 0.17730916 -0.5790698 0.05234921
000180 af 15 62 bf 5d e8 46 3d ff bf 2a bf 68 98 21 be
       -0.88314337 0.048561443 -0.6669921 -0.15780795
000190 ea 69 d0 bd dd ea a0 bd 93 ce 4b bf 25 24 9f 3e
       -0.101764515 -0.078572966 -0.7961208 0.31082264
0001a0 a0 06 47 bf 99 0e 8b be 11 bc 2c bf af 2a 8f be
       -0.77744484 -0.27159575 -0.67474467 -0.27962252
0001b0 b4 f3 01 bf 04 e1 84 3e b7 1a 2e bf 84 38 2b bf
       -0.50762486 0.25952923 -0.68009514 -0.6688311
0001c0 7e a7 ce 3e d2 ef 28 bf ed 59 4a bf 79 20 2b 3d
       0.4036216 -0.65990937 -0.79043466 0.041779015
0001d0 ce 6d 8b be 37 d0 7d 3e cf b9 54 bf 03 38 19 bf
       -0.27232212 0.24786459 -0.8309602 -0.5985109
0001e0 9a b8 07 bf 14 db 3c 3e 4e e7 fd be 3c be fb bd
       -0.53016055 0.18442947 -0.49590534 -0.12292144
0001f0 75 01 88 be 96 f0 a1 bb 55 13 44 bf 90 b2 2c bf
       -0.26563612 -0.00494201 -0.76592 -0.67459965
000200 37 0d e6 3d a4 d1 2f 3e 65 00 28 3d 51 fa 9f bc
       0.11232989 0.17169815 0.041016 -0.01952854
000210 92 73 92 3d d2 89 23 bd 4d de 12 bd 10 d1 83 3d
       0.071509495 -0.039926358 -0.035856534 0.0643636
000220 fc 19 63 be ec 7a 0b 3e 77 bf 14 be 2d 7c 32 3e
       -0.22177881 0.1362111 -0.14526163 0.17430182
000230 c2 7d 3c bd 68 ba ef 3d 96 a4 b2 be 60 39 db 3d
       -0.04601837 0.11705476 -0.34891194 0.10704303
000240 a3 35 09 3d b8 d6 c2 bd c6 93 2a be aa c2 00 3e
       0.033498418 -0.095136106 -0.16657934 0.12574258
000250 1d 6c 30 3c 1c 88 8b 3d 5b 37 69 3c 73 c9 99 3e
       0.010767964 0.0681307 0.014234389 0.30036506
000260 6a 56 ed bd 37 26 44 3e 15 36 c9 3d 18 fc b5 3d
       -0.11588748 0.19155203 0.098247685 0.08885974
000270 81 61 8e 3e 89 84 85 bd 20 ae 53 3e a7 0e c6 3c
       0.27808765 -0.0651942 0.20671892 0.024176909
000280 99 c9 7f bd f9 0c ad be f2 06 21 3e be 05 03 bf
       -0.062448118 -0.3379896 0.15725306 -0.51180637
000290 e5 a9 ee be 04 89 9d be 3c 14 86 bc f7 5a 09 bf
       -0.46613994 -0.30768597 -0.01636707 -0.53654426
0002a0 eb e8 ba bc 23 8a fd be a1 ff 47 be cf 23 f8 be
       -0.022816142 -0.49519452 -0.19531108 -0.4846482
0002b0 ac 85 c0 be 67 69 3f bf 58 a9 76 3d e9 89 47 3c
       -0.37601984 -0.74770206 0.060220093 0.012178876
0002c0 c1 cb 55 bf 36 86 a2 be 5e 23 4f be 28 f6 0f bf
       -0.8351403 -0.3174302 -0.20228335 -0.5623498
0002d0 9c 2d cc be 3b bb 44 bf cc c1 31 bc bb d9 bf be
       -0.39878547 -0.7684819 -0.010849427 -0.37470803
0002e0 f0 de fa 3d f3 56 20 bf 6e 1c c1 be 53 87 12 bf
       0.12249553 -0.62632674 -0.37717003 -0.5723774
0002f0 14 3e 25 bf 61 cb 03 bf 61 bf 03 be 86 02 09 bf
       -0.6454785 -0.51482207 -0.12865974 -0.53519475
000300 2b d4 e5 be 98 4d 5b 3e 30 a9 9a be 39 84 0d 3e
       -0.44888434 0.21416318 -0.30207205 0.1381997
000310 80 9c 47 3e 33 e7 12 3d 9d 29 f7 be 84 98 9b 3e
       0.19493294 0.03586502 -0.48273936 0.30389798
000320 24 af 9c bd ec f8 14 3c 34 39 06 bf 77 52 b1 3d
       -0.07650593 0.009092551 -0.52431035 0.08658307
000330 3f d5 56 be fe 99 89 3e 4c 43 af be c7 fd 6b be
       -0.20979784 0.268753 -0.3423103 -0.23046027
000340 07 4e 8f 3c 89 97 ab be f7 26 93 be 9a e4 2c 3d
       0.017493261 -0.3351405 -0.28740665 0.0422102
000350 c6 7e 34 be 16 62 47 3e 9d d5 f1 be 14 1e 8b be
       -0.17626485 0.1947101 -0.47233286 -0.27171385
000360 d4 40 ab be e4 5b ce 3a 6f f7 b1 bd 57 27 23 bd
       -0.33447897 0.0015743938 -0.08689772 -0.03983244
000370 dc f2 d5 bc 03 64 4e 3e c9 59 e4 be 20 04 82 3d
       -0.026116781 0.20155339 -0.4459975 0.06348443
000380 9d 8b 37 bf 2d 67 5b be 02 33 2b bf 3e 80 92 be
       -0.7169741 -0.21426077 -0.66874707 -0.28613466
000390 bd b8 9d be ef 31 28 be 82 af 4a bf 54 5c 2e 3e
       -0.30805007 -0.16425298 -0.79174054 0.17027408
0003a0 00 97 34 bf 0d c0 61 bf e6 de 1c bf d2 08 02 be
       -0.7054291 -0.8818367 -0.61277616 -0.12698677
0003b0 9b eb ac be 42 9b 84 3e 06 97 37 bf 78 f8 1c bf
       -0.33773503 0.25899702 -0.7171482 -0.61316633
0003c0 4d 3f d5 3e fd 6b 63 bf eb f7 64 bf 97 14 f9 3d
       0.41649857 -0.8883665 -0.8944079 0.1216213
0003d0 1d a1 10 bf cc 14 f3 3c aa e6 65 bf 33 e9 33 bf
       -0.5649584 0.029673003 -0.8980509 -0.7027771
0003e0 6e 60 49 bf 7c 29 58 3e 78 aa 1e bf 5d b3 91 be
       -0.78662765 0.21109575 -0.61978865 -0.28457156
0003f0 97 09 f1 be 69 30 8c 3e da c9 09 bf 6f 54 cb be
       -0.4707763 0.27380684 -0.53823626 -0.39712855

N.layers.1.bias f4 [32]
000000 57 f9 e2 be d5 b0 9f bd bc 87 31 bf 1c c8 66 bf
       -0.44330856 -0.077974 -0.6934774 -0.9014909
000010 6e ac c5 bd c9 d0 3f bf 8d 34 de be 60 a7 2c bf
       -0.09652029 -0.74927956 -0.43399468 -0.67442894
000020 0f e2 d8 3e 49 28 8f be e0 aa 1e 3e 41 56 2d 3f
       0.4235997 -0.27960423 0.15494871 0.6770974
000030 29 b2 58 3f 09 aa 8a 3d ef a5 03 3f 5f da bf be
       0.8464685 0.06770713 0.5142507 -0.3747129
000040 d4 19 c2 be 6a 72 c4 be 47 51 10 3f 91 15 eb be
       -0.3791033 -0.3836854 0.5637402 -0.4591489
000050 b4 35 01 bf 59 d9 3f bf 84 cd 75 3e d0 1d 1e 3f
       -0.5047257 -0.7494102 0.24004179 0.6176424
000060 c0 50 80 3f dc 98 d4 be 6e a6 47 3f 43 d9 e9 3e
       1.0024643 -0.41522872 0.77988327 0.4567357
000070 99 67 42 bd f8 4e fb 3e c0 7e 33 3e b8 e8 0c bf
       -0.04746208 0.49083686 0.1752882 -0.550426
