Birth-Death-0.1--1d/experiments/cnf/toy/2020_10_20_13_03_37_8gaussians_alph100_0_m32_checkpt.pth (torch, 8199 bytes, 7 tensors)

A f4 [2, 2]
00000000: 78c0 a13e 2e51 5b3f 73a1 113e 376f 93bf
0.31592155 0.85670745 0.14221744 -1.1518315

c.weight f4 [1, 2]
00000000: 0ae8 c73c a522 51bf
0.024402637 -0.8169349

w.weight f4 [1, 32]
00000000: 7b8b 023d f29e ba3c c265 7ebd 3c93 aebd
00000010: 53bd 09be bee4 37be 3c10 d1bd 6b86 a9bd
00000020: eb7b 16be a8b9 81bd ac81 883a 352c 3b3d
00000030: f1d6 95bc 0bf5 cfbd 93bd 393d 7de5 c03d
00000040: 11bc 343d 84ea 46bb 892d 44be 8322 4fbe
00000050: d4c5 4c3c 7e4d 45bd 2b9c ed3d deb4 33be
00000060: 9d37 d93e 636a b43d 4ece 533d 932f b5bd
00000070: 33bf ad3d cdbe 3a3e 1f02 37bd fad4 c93e
0.0318713 0.02278087 -0.062108763 -0.085241765 -0.13451128 -0.17958352 -0.102081746 -0.08277591
-0.14695708 -0.06334239 0.0010414622 0.045696456 -0.018290969 -0.1015416 0.045346808 0.094187714
0.044124667 -0.0030352185 -0.19157995 -0.20228009 0.012498338 -0.048169605 0.11602052 -0.17549464
0.42425242 0.08809354 0.05171042 -0.08846965 0.08483734 0.18236847 -0.044679757 0.394203

N.layers.0.weight f4 [32, 2]
00000000: 7f61 91be d2a3 72bf 4f8a ebbd ffc6 7a3e
00000010: c9b8 1fbd 4c8e 2c3f b2da babe fea2 32bf
00000020: 4e42 efbe 09bc 8dbf d7eb a23d 1018 163f
00000030: 607e 1f3d 0ba2 9dbd ec68 a23c 127c 853e
00000040: b894 78bd 00e6 a3be c422 21bd 578f 7e3e
00000050: 8b14 903e d6b7 9bbf 51a3 e23e 692b 063f
00000060: df7b 163e 4762 c83d af7f e3bd c6a7 13be
00000070: f9c0 c53e 418d 743f 3fad b1be 5742 d83f
00000080: df0b 83be 6e04 d03f 13ac 91be 761d c23f
00000090: 33e7 cfbd 77a7 85bf 2feb d6bd ffe4 89be
000000a0: 2c8e bebe 1a28 543f 5e04 b5be 5b7b a23f
000000b0: 794c 893e 5de0 b23f ac5b 533e 9d62 9d3f
000000c0: e22b d0bf 8a4e d8be edf1 d03e ece2 363f
000000d0: b2f4 cfbe 746f 543f cea9 163e eea4 10bf
000000e0: cfaa a63e 3941 85bf a214 8b3c 798d 8bbd
000000f0: 30af 61bd 5d03 21bf 6f63 1dbe 4c72 3fbe
-0.28394696 -0.9478122 -0.1150099 0.24489973 -0.038994584 0.6740463 -0.36494976 -0.69779956
-0.46730274 -1.1073009 0.07955139 0.58630466 0.03893888 -0.07696923 0.019825421 0.2607122
-0.060688704 -0.32011414 -0.039339796 0.24859367 0.28140673 -1.2165477 0.44265226 0.5240999
0.1469569 0.0978437 -0.11108338 -0.14419469 0.3862379 0.95528036 -0.3470249 1.6895245
-0.25594994 1.6251352 -0.28451595 1.5165241 -0.101515196 -1.0441731 -0.104940765 -0.26932523
-0.37217844 0.8287369 -0.35354894 1.2693895 0.26816157 1.397472 0.20640439 1.2295719
-1.6263392 -0.4224742 0.40809575 0.71440005 -0.40616375 0.82982564 0.14713213 -0.5650166
0.32552192 -1.0410529 0.016977612 -0.06814093 -0.055098712 -0.62895757 -0.15369962 -0.18695945

N.layers.0.bias f4 [32]
00000000: 3b14 6bbf 8538 193e 706a ca3e d5a6 cfbf
00000010: 1c6a 48bf 66fe 06bf ae5e 443e e377 01be
00000020: 9adc 31bf 1279 07bf ffd2 29bf 8527 90be
00000030: 8215 083f 9e03 0ebf 3cee b03f b36c 573f
00000040: e18a a93f 0917 c53f d93b aebf 6aab 4e3f
00000050: 9b83 403f a569 793f 7b52 9c3f 38af 1f3f
00000060: 2349 9f3e 230a db3f 6f51 913f cece 01bf
00000070: 7804 323e 87a3 a53d ffdf 083f 103b 853f
-0.91827744 0.14962967 0.3953433 -1.6222788 -0.7828691 -0.5273193 0.19176742 -0.1264339
-0.69477236 -0.52919114 -0.6633758 -0.2815515 0.5315782 -0.5547427 1.3822703 0.84150237
1.3245507 1.5397655 -1.3612014 0.8073031 0.75200814 0.97426826 1.2212671 0.6237674
0.31110486 1.7112468 1.1352977 -0.50706184 0.17384517 0.08087831 0.5346679 1.040865

N.layers.1.weight f4 [32, 32]
00000000: 8acc 213e 8c72 0bbf 9e60 adbe 52a7 163e
00000010: df67 1bbb 3fb8 edbe cd80 f7be 2a55 c1be
00000020: 7a2e 14bf 5315 12bf baf3 afbd a2f4 0cbf
00000030: 557f 08bf 000b 0fbf 45a2 24bd 3ee8 cbbd
00000040: 4782 95bd bb85 a7bd 5a3e 0abf 76d3 b3be
00000050: 680c 553d f8ad 24ba f69a 983d 0a6e babe
00000060: 6445 05bf d7f3 7d3e d5fb 023e 7e02 10bf
00000070: 1540 193d c82f b7be 5065 0fbf 1353 adbe
00000080: b09c 953d 35b4 293e 6f1b c63e bc42 253e
00000090: 3715 933d 1147 1e3f 4578 213e 28e9 cf3e
000000a0: bf64 3f3f 1754 283f d46c 103e 9c07 0d3f
000000b0: 664e e1bc 79cf 313e 08d5 3f3e 42f5 123d
000000c0: aac3 9d3d 6fa2 263e d225 ac3e 88af 8d3d
000000d0: 575a 3f3e 3e70 183e b261 483e 00ce 573e
000000e0: 1976 113f 51cd 5abb 414c b0bc af98 453e
000000f0: e1b2 833e 8ff3 3e3f 654b 163f 4a57 263e
00000100: 09fb f9be e4dc e93e da7b 1a3e 5c5a b7be
00000110: cca2 b6be 5ac8 d63e 49c7 e23e 0731 083f
00000120: c26c ec3e c4f0 c73e 9748 37bc e66d 003f
00000130: e279 673e 114f 093f 4bc9 20be c327 3dbe
00000140: c218 173d 20d5 4dbd 496e 9e3e 6002 023f
00000150: cd6e 93be b47f 3fbe 3168 2dbe 21d4 b03d
00000160: 1948 d03d 1e7d c4be aca3 c7be 61a2 1d3e
00000170: 3b55 24be 8e2d 703e 725a 003f 760a e03d
00000180: d04f cc3e c21d 04bf f23d 09bf 178d 073f
00000190: 37a8 843e 96d2 f7be cfa9 01bf 8471 0bbf
000001a0: 78a3 c5be 41fa 98be a4b7 86be 2e6e 0bbf
000001b0: b1f1 6dbe a450 c3be c712 873e aa3d 9b3e
000001c0: 4a37 64bb 9bb1 8fbd d0f6 73be 59fa aabe
000001d0: f80b 063e a386 efbc 8c63 d13e 348f 6e3c
000001e0: bf0e 99be 17cc cc3e 7a95 5d3e 545d d9be
000001f0: e533 013e df26 21bf 492e 16bf 3c9d a5be
00000200: 5881 e6bc 957d e1be 730b 0ebf 1d33 81bd
00000210: fb11 e9bd e167 abbe 0c5b 0abf 5a71 0abf
00000220: 3951 91be 9654 0ebf 9e60 82be 7e5d 89be
00000230: 34a1 b8be b8a9 9fbe 1d37 2d3b b155 dd3c
00000240: 8a99 88bd ac1c a1be e7cb 00bf c518 d9be
00000250: 562f c53b 0d04 1cbe 6176 d2bd b036 62be
00000260: f46c 4abe fb6a 0e3e 19be 88bc e4b7 8bbe
00000270: 4799 bdbd f037 cdbe b2af dcbe 3605 c1be
00000280: de0c a53e 2af4 c4be 6d6f 71bd c195 7b3e
00000290: 5a72 ea3c 75cf 03be 7d88 03bf 1c8d a3be
000002a0: 50ec 75be d71b 04bf 56f7 a5be 9f5a 98be
000002b0: def3 a8bd eed1 4fbd 62a8 be3e d1f6 17bd
000002c0: 1963 cebd 4515 19be a30d f03e 133e cfbe
000002d0: 287c ec3c 6b00 f83c fb47 b53e 2bc3 d83d
000002e0: be1f e03e f17f b03e d92c 0dbe 6c56 80be
000002f0: 4630 363b a404 a7be 8621 8cbe ff79 90be
00000300: 1ab4 78bc 7ade 033f b9df 433e b856 b3bd
00000310: 9ba6 4fbe 1cb1 6d3e 9e6d 0e3f de5e ce3e
00000320: 0693 8f3e c879 0e3f e99a 9c3e 7aa2 753e
00000330: 9b75 943e 246f f13e 7ae3 43be 0872 debd
00000340: 0f36 3f3d f7b3 0c3e cd67 a03e 2c23 783e
00000350: 5d7d 803d 6d97 94bd b69d 28be fd3f ac3e
00000360: a8bc 8e3d 8e8d 1dbd a710 a93d 7033 9e3e
00000370: 8ac5 2fbe 0db1 0a3f a826 043f 2d75 e33e
00000380: 29ea 7a3d 5141 b43e 6a80 1c3f 8c6d 443b
00000390: df27 0cbd ca9b 143f 4c7c ee3e 7dbd c53e
000003a0: d689 1b3f 51e9 283f 2004 623e 9425 7e3e
000003b0: ff8c 243f d3a7 e53e 9951 c7bd 2338 933d
000003c0: f3ac 4a3e 13b4 683e 07ab 163f e258 093f
000003d0: 8cfe 06bd 6176 9e3e 163e be3d 239a 0c3f
000003e0: 79d0 283e f60a 3e3c 9ed5 123e d56e db3e
000003f0: 217e f2bc 4757 c93e f27b e73e 4871 bf3e
0.15800682 -0.5447166 -0.33862776 0.14712265 -0.0023713035 -0.4642963 -0.48340455 -0.37760288
-0.5788342 -0.5706379 -0.08591409 -0.5506078 -0.53319293 -0.5587616 -0.040193815 -0.09956406
-0.07300239 -0.08179804 -0.5400139 -0.3512227 0.052013785 -0.0006282027 0.074514315 -0.36412078
-0.52059007 0.24800049 0.12791379 -0.562538 0.03741463 -0.35778642 -0.56013966 -0.33852443
0.073052764 0.1657265 0.38692805 0.16138738 0.07181781 0.6182719 0.15768535 0.40607572
0.747631 0.6575331 0.14104015 0.55089736 -0.027503204 0.17364301 0.18733609 0.035878427
0.077033356 0.16272901 0.33622605 0.069182456 0.18686806 0.14886567 0.19568518 0.21074677
0.5682083 -0.0033386538 -0.021520736 0.19296525 0.2572241 0.7459039 0.5870879 0.16244236
-0.48824337 0.4567634 0.15086308 -0.35811126 -0.3567108 0.4194973 0.44292668 0.5319981
0.46176726 0.39050877 -0.01118674 0.5016769 0.22605088 0.5363627 -0.15701787 -0.18472199
0.036888845 -0.05025208 0.30943516 0.50784874 -0.28795472 -0.18701059 -0.16934277 0.086342104
0.101700015 -0.38376707 -0.3899206 0.15393974 -0.16048138 0.23454878 0.5013801 0.10939495
0.39904642 -0.51607907 -0.53610146 0.5294966 0.25909588 -0.48402852 -0.5064973 -0.54470086
-0.3860128 -0.2987843 -0.26311982 -0.54464996 -0.23236729 -0.3814746 0.26381513 0.30320483
-0.0034822994 -0.070162974 -0.2382462 -0.33394125 0.13090503 -0.029239004 0.4089626 0.0145605095
-0.29894063 0.39999458 0.21639052 -0.42454016 0.12617452 -0.6294994 -0.58664376 -0.32346523
-0.028137848 -0.44041124 -0.5548622 -0.06308577 -0.113803826 -0.3347769 -0.54045177 -0.5407921
-0.2838228 -0.5559782 -0.25464338 -0.2682914 -0.36060488 -0.31184173 0.0026430555 0.0270184
-0.0666991 -0.31467187 -0.5031113 -0.4240171 0.006017606 -0.1523592 -0.10276485 -0.22091174
-0.19768125 0.13907997 -0.016692208 -0.27288735 -0.09257751 -0.4008174 -0.43102795 -0.37699288
0.3223638 -0.38467532 -0.058944155 0.24568845 0.02861898 -0.12872107 -0.5138014 -0.31943595
-0.24015927 -0.5160498 -0.32415265 -0.29756638 -0.08249639 -0.050737314 0.3723784 -0.037100617
-0.10077495 -0.1494952 0.46885404 -0.40477046 0.028867796 0.030273637 0.3540648 0.105841
0.43774217 0.34472612 -0.1378664 -0.25065935 0.002779977 -0.32620728 -0.27369326 -0.28218076
-0.015179658 0.5151135 0.19128312 -0.08756775 -0.20278399 0.23212093 0.5563601 0.40306753
0.28041857 0.55654573 0.30586937 0.23987761 0.28995976 0.47155106 -0.19129744 -0.108615935
0.046682414 0.13740526 0.31329194 0.24232167 0.06273911 -0.07255445 -0.16466412 0.3364257
0.06969577 -0.038465075 0.08255129 0.3089862 -0.17165199 0.5417641 0.51621485 0.44425336
0.06125847 0.35206082 0.61133444 0.0029972522 -0.03421771 0.58050215 0.46579206 0.3862113
0.60757196 0.6598101 0.22071886 0.24819022 0.6427764 0.44854602 -0.097323604 0.071884416
0.19792537 0.22724943 0.58854717 0.5365125 -0.0329576 0.3094969 0.09289186 0.54922694
0.16485776 0.011599293 0.14339301 0.42857996 -0.029601159 0.393244 0.4521175 0.37391114

N.layers.1.bias f4 [32]
00000000: 821e 01bf 6599 a73e 5f88 033f 47f3 2dbf
00000010: 9eed fabe 61e2 16bf 5165 2d3f 592b 2e3f
00000020: e1b2 f3be f21b 6a3f 0806 db3e c357 103f
00000030: 8902 003f a501 19bf 042a 263f 3c4a c8be
00000040: 18dd 6b3d b46a 38bf 2930 9c3e 627d aabe
00000050: 3f03 b73d b117 08bf df43 6b3e ec12 233f
00000060: 0391 3f3f 26fd f63e 8a7b 63bf 7e66 063f
00000070: 61b7 db3e a497 a23e f745 fdbe 99ac 963f
-0.50437176 0.32734218 0.5137996 -0.67949337 -0.49009413 -0.58939177 0.6773272 0.68034893
-0.4759741 0.9144889 0.4277804 0.56383914 0.5000387 -0.59768134 0.6490786 -0.39119136
0.0575839 -0.72037816 0.30505493 -0.33298784 0.08936166 -0.5316115 0.2297511 0.6370075
0.74830645 0.48240012 -0.8886038 0.5250014 0.42913345 0.31756318 -0.4946744 1.1771423
