Birth-Death-0.1--1d/experiments/cnf/toy/2020_10_20_13_44_55_8gaussians_alph100_0_m32_checkpt.pth (torch, 8199 bytes, 7 tensors)

A f4 [2, 2]
000000 b2 0e 82 3f 29 fa a7 3f 67 2d 5a bd d9 af 5d bd
       1.0160735 1.3123218 -0.053265955 -0.05412278

c.weight f4 [1, 2]
000000 f3 0e 3e 3e 0d 5d 10 be
       0.1856039 -0.14097996

w.weight f4 [1, 32]
000000 85 6c 4d 3f 73 c5 4c 3f e6 e8 4c 3f 9a 84 4d 3f
       0.8024371 0.79988784 0.80042875 0.8028046
000010 3b ca 4d 3f 9f 74 52 3f eb c4 4c 3f 50 0c 4d 3f
       0.80386704 0.822092 0.7998797 0.8009691
000020 d8 0d 4d 3f 62 b5 51 3f 9a fb 4f 3f 26 cb 4c 3f
       0.8009925 0.81917393 0.8124329 0.7999748
000030 6f a2 4d 3f d2 df 4c 3f cb 3e 4d 3f 8f c9 50 3f
       0.8032598 0.8002902 0.8017394 0.81557554
000040 59 c9 4f 3f 9d c3 4e 3f 84 65 51 3f 98 eb 51 3f
       0.8116661 0.8076723 0.81795526 0.8200011
000050 a8 10 4d 3f cd 1a 50 3f 01 c9 4c 3f 52 25 4f 3f
       0.8010354 0.81290895 0.7999421 0.8091632
000060 e6 a2 4d 3f fd 12 4d 3f ef c3 4c 3f 9a e3 4d 3f
       0.8032669 0.801071 0.7998647 0.8042542
000070 e8 8f 50 3f 07 d2 4c 3f f2 c3 4c 3f 2d 4c 50 3f
       0.81469584 0.80007976 0.7998649 0.81366235

N.layers.0.weight f4 [32, 2]
000000 b4 ea 5f be 9a 2d ac be df f1 c8 be 5c 3a 8f 3e
       -0.21866876 -0.3362854 -0.39247033 0.27974212
000010 aa 00 f7 3e 17 32 cd 3e fc af de 3e 16 d4 3c bf
       0.48242694 0.40077278 0.4349364 -0.7376112
000020 93 65 85 be ea 40 e3 bd 4e fa 7f bd 2e 20 a2 be
       -0.26054057 -0.11096366 -0.06249457 -0.31665176
000030 28 fb 5e 3d 1e 6a 45 be bd 46 c3 3e f0 48 ad 3e
       0.05443874 -0.19278762 0.38139907 0.3384471
000040 ed fd bf be 38 61 20 3f b1 4f 27 bd e6 43 00 bf
       -0.37498417 0.62648344 -0.040847484 -0.50103605
000050 8d 99 0d bd fc d4 3a bf 7a 28 01 bf a8 d8 bc 3d
       -0.034570266 -0.7298124 -0.5045239 0.092210114
000060 04 c1 ee 3e 24 df b2 3e a7 dc a5 3e b5 02 82 3e
       0.46631634 0.34935868 0.32394907 0.2539269
000070 6d 48 af 3d 01 7c 2b 3e f6 a0 8e 3c 9f 05 65 3e
       0.08558736 0.16746522 0.017410737 0.22365426
000080 e9 9f 93 3b ad 78 83 3e eb f3 05 be 62 d1 3b 3f
       0.0045051468 0.25678006 -0.13081329 0.7336637
000090 66 18 f2 3c ea 6e b9 3e 00 0b 84 bd 36 8b f8 3e
       0.02955265 0.36217433 -0.064474106 0.4854371
0000a0 05 d9 cb 3e db 59 3f be 40 fb 82 bd 8c f2 45 bf
       0.3981401 -0.18686621 -0.063955784 -0.7732322
0000b0 45 16 e4 3e 0f f4 19 be c4 ab bf 3a ee 6b e0 3e
       0.4454824 -0.15034507 0.0014623334 0.43832344
0000c0 13 b8 42 3d e9 98 95 bd 58 5e ab 3c 87 1a 9b 3e
       0.047538828 -0.07304556 0.02091901 0.30293676
0000d0 ee ec e5 bd a8 ef cb 3e a1 75 d9 3d 5a 05 51 bf
       -0.112268314 0.3983128 0.10618139 -0.8164879
0000e0 c4 53 f5 3c 1e 1e f7 be ef b9 fc be 48 30 89 bc
       0.02994717 -0.48265165 -0.49360606 -0.016746655
0000f0 58 67 08 be bf 52 62 be c5 13 73 3d ca c9 3f 3f
       -0.13320673 -0.22101878 0.059345026 0.7491728

N.layers.0.bias f4 [32]
000000 4c ed bd be 61 01 ee 3e a4 b9 23 bf d5 51 87 be
       -0.37095106 0.46485427 -0.6395514 -0.2642962
000010 7f 1f 3c 3f 0e 7d 4f 3d 93 32 77 bd 27 3f 26 3f
       0.7348556 0.05065637 -0.060350966 0.6494011
000020 a8 b1 89 3e 89 a1 5f bf 0b 98 e6 be fc 92 e7 be
       0.26893353 -0.8735586 -0.45037875 -0.45229328
000030 99 6d 50 bf 4c 8e de 3e b2 10 6e 3e e5 5f 9e 3e
       -0.8141723 0.4346794 0.23248556 0.30932537
000040 4b c3 01 3f 5f a8 db 3e 61 58 bf 3e 44 fa 36 bf
       0.5068862 0.42901894 0.37372115 -0.71475625
000050 74 3c 51 3f 84 fc 2c 3f 34 34 06 bf 71 a4 9c 3d
       0.8173287 0.6757281 -0.52423406 0.07648552
000060 d6 d6 1d 3f c6 01 d1 3e 08 96 80 be e9 a4 fb be
       0.6165594 0.40821666 -0.25114465 -0.49149254
000070 d3 49 38 bf 6d 89 d4 be 3d 33 03 3f eb 4e b5 be
       -0.71987647 -0.41511098 0.5125006 -0.35411772

N.layers.1.weight f4 [32, 32]
000000 bc a1 58 be aa 39 c2 3a 14 bd 52 be e7 7d a5 bd
       -0.21155447 0.0014818211 -0.2057994 -0.080806546
000010 18 90 8a be 46 ba b0 3c 8f a0 8b bd da 37 1b 3c
       -0.2706306 0.021573197 -0.068177335 0.009473765
000020 78 64 95 3d 37 cf 71 be a5 f7 e3 bd 62 2c ca bd
       0.072945535 -0.23614202 -0.11131219 -0.098717466
000030 49 5d 1d be f8 cb 39 3d 23 bf 05 3c 57 d8 3d be
       -0.15367617 0.045360535 0.008163246 -0.18539558
000040 88 f4 56 be 9a af 83 be 83 b9 01 bd f5 29 4e bd
       -0.20991719 -0.2571991 -0.03167106 -0.050332982
000050 b4 27 21 be 1e 5d 0f 3d d7 08 5a be b1 83 b1 bc
       -0.15737802 0.035000913 -0.21292435 -0.02166924
000060 7f 61 d9 3c e8 0b 17 bd ab fa c4 bd 2a 5f 33 3c
       0.026535748 -0.03687659 -0.096181236 0.010947982
000070 aa 67 ce 3c d3 6b 9b 3c 84 b4 83 be e7 fe 6f be
       0.025195915 0.018972313 -0.2572366 -0.23437081
000080 ff 7a f4 3c 05 c6 bb 3c 83 51 58 be 41 61 0d be
       0.029843805 0.022921572 -0.21124844 -0.1380663
000090 25 96 88 be 6c 36 c4 bc 13 fb 9a be 17 a1 5c be
       -0.2667705 -0.023951732 -0.3026968 -0.21545826
0000a0 2b cc 4c 3d d1 b4 83 be 5d 57 62 bc 37 36 dc bd
       0.049999397 -0.2572389 -0.013814774 -0.10752528
0000b0 c7 c2 30 be 40 6d be 3c 32 d5 4b be 75 f7 40 be
       -0.17261802 0.023245454 -0.19905546 -0.18844397
0000c0 8b 12 c6 bc 30 a3 f8 bd 5b 77 57 be 9f 01 cb bb
       -0.024178764 -0.121405005 -0.21041624 -0.0061952616
0000d0 d0 b4 6a 3d 48 de 90 be d4 15 22 3c d6 6c 02 be
       0.057301342 -0.28294587 0.0098929 -0.1273683
0000e0 bc 45 7d be 13 57 5c be c9 31 22 be 5a c0 7f bd
       -0.24733633 -0.21517591 -0.15839304 -0.0624393
0000f0 ad 92 65 be 26 6d 0d 3d 8c be 34 be d5 c8 96 be
       -0.22419234 0.03452792 -0.17650813 -0.29450098
000100 ec fb 90 bb 5a 99 56 be 86 f8 53 be 78 4b c8 bd
       -0.0044245627 -0.20956936 -0.20700273 -0.097800195
000110 2a 60 6c bd 4b 0a c1 3d 0e ee 16 be fe 0a 2c bd
       -0.057708897 0.09425791 -0.14739248 -0.04200267
000120 e2 f6 b6 bd c8 13 90 bd 01 c1 6d bd af 43 d5 bd
       -0.08933808 -0.07035023 -0.05804539 -0.104133
000130 c1 ce 30 bc 35 c0 06 be 8e fe 8d 3d 38 38 70 be
       -0.0107914815 -0.13159259 0.06933318 -0.23458946
000140 d3 e2 5f bd 99 aa 9b 3d fb 56 7e bd 92 bb 3f 3d
       -0.054659676 0.07600898 -0.06209467 0.04680974
000150 d1 eb e2 3c 0c cd 54 3d ba b6 48 be 5a e6 ef 3c
       0.027700337 0.05195336 -0.19600955 0.029284645
000160 d7 7d e8 bd 54 71 9a bd 76 cb 24 be 4c 4f 68 be
       -0.11352127 -0.07541147 -0.16093239 -0.226865
000170 6b 56 eb bd ea bd bf bd f6 7a 94 bd 91 7c 83 3c
       -0.11491092 -0.09362395 -0.072500154 0.016050609
000180 c9 50 52 be bd e3 38 be 14 a9 41 be 6a be 57 bd
       -0.2053863 -0.18055625 -0.18912154 -0.052671827
000190 da 72 e5 bd d8 e6 7e bd bb 0e c0 bd db a6 a4 bc
       -0.11203547 -0.06223187 -0.093778096 -0.020099094
0001a0 b1 57 22 be d9 bb 8f be 50 4b 86 be 44 56 1b bd
       -0.15853764 -0.28073004 -0.26229334 -0.037924066
0001b0 4e 5f d2 bc 56 4f ef 3c d1 91 0a be 7b a8 b5 bd
       -0.02568021 0.029212635 -0.13532187 -0.08870026
0001c0 78 bb 5e bd 73 2e 1d be 39 2e da ba bb f0 3a 3b
       -0.054378003 -0.1534975 -0.0016645856 0.0028524834
0001d0 ce 2d 78 bd 88 a6 47 be 0f d0 13 3d 83 27 df bd
       -0.060590558 -0.1949712 0.036087092 -0.10896208
0001e0 57 eb 4c be d0 d7 a9 bd db d1 ba 3c 5b ef 3c be
       -0.2001165 -0.08293116 0.022805145 -0.18450682
0001f0 fe d2 67 be 21 d5 ba 3c d4 b1 a3 3c 04 25 19 be
       -0.22639081 0.022806706 0.019982256 -0.14955527
000200 66 65 d7 3d d0 f0 27 3e 15 9b de 3d e3 52 03 bd
       0.10517387 0.16400456 0.10869423 -0.03206147
000210 76 3d ba 3d 6b 4d 10 3e 8e 5b 1d 3e e1 13 27 3d
       0.09093754 0.14092033 0.15366957 0.040790442
000220 5a 88 71 3e 67 1d b9 3d 2a e0 08 bd 2a c1 b7 bc
       0.2358717 0.09038811 -0.033416905 -0.022430975
000230 af 2d 64 bd 28 25 49 3d da 7b 27 3c d7 74 e8 3c
       -0.05570763 0.0491077 0.0102224 0.028376026
000240 f4 0d 87 bd 4a 88 e3 3c 6f c3 74 3d d2 b3 6f 3e
       -0.06594458 0.027774949 0.059756692 0.2340844
000250 d5 15 ff bb 29 c1 3b 3e db f8 0d 3e cd ee 88 3e
       -0.007784585 0.18335404 0.13864462 0.2674469
000260 08 6e 36 3e 74 eb 8c 3e 39 60 d4 3d 68 24 26 3d
       0.17815411 0.27523386 0.103699155 0.040562063
000270 49 30 27 3d d7 d0 3e 3e 81 d1 24 3e ee 85 99 bc
       0.040817533 0.18634354 0.16095544 -0.01874062
000280 a5 df 82 3d 71 d3 f3 3d 9c e9 69 3c 2a 62 14 be
       0.06390313 0.119055636 0.014276888 -0.14490572
000290 9f 0f a9 bd 92 c0 29 3e 90 7c d0 bd ca e8 6f 3d
       -0.082549326 0.16577366 -0.101800084 0.058571614
0002a0 cf a3 55 be cc 2d 55 3e 8a c8 b8 3d 8d e3 17 be
       -0.2086327 0.20818251 0.09022625 -0.14832897
0002b0 b0 a6 5c be 49 97 9e bd 48 93 3c be 42 2f b8 3d
       -0.21547961 -0.07743699 -0.18415558 0.08993389
0002c0 de 8b d7 3d 6e 93 4c bd 8a d5 d8 3d fa 6e 8c 3e
       0.105247244 -0.049945287 0.10587604 0.27428418
0002d0 af 8f 59 bc 45 48 8d 3d d6 47 da 3d 32 4f 2c be
       -0.013278886 0.0689855 0.10658233 -0.16827086
0002e0 2f 3f c7 3d c2 0d 2e be ad e1 c9 bd 74 e0 69 3e
       0.09728848 -0.16997436 -0.09857497 0.22839528
0002f0 44 20 ac 3e 54 1c 4c bd 6c d0 19 3c 4f 1f 9a 3d
       0.33618367 -0.049831703 0.009388071 0.07525503
000300 44 30 07 bc 91 2f 8a bd 55 0f 7d 3d 5d 1c 26 be
       -0.0082512535 -0.06747354 0.0617822 -0.16221757
000310 da 56 c9 ba d5 02 58 bc 09 51 5c bd 04 1c 78 be
       -0.0015360967 -0.013184269 -0.05378822 -0.24229437
000320 b7 cb 28 be a6 de 90 be 65 1f eb bd 3b 6f 8c 3b
       -0.16483961 -0.28294867 -0.114805974 0.0042857206
000330 c6 7b bf bd 1d 5e af bd 3b 23 61 be c9 e6 cd bd
       -0.0934978 -0.085628726 -0.21986096 -0.100537844
000340 69 65 9f be 89 eb d6 bd 07 07 20 be 8e 6f e2 bd
       -0.31132057 -0.104941435 -0.1562768 -0.110564336
000350 46 51 95 bd cd a6 6a be fd 35 70 bd 76 7a 0a be
       -0.07290892 -0.22915192 -0.058645237 -0.13523278
000360 ca 23 db bd 60 58 67 be 52 3e d6 bd 89 dc 81 be
       -0.107001856 -0.22592306 -0.104611054 -0.25363567
000370 69 40 0d be 04 36 75 bc 6a 68 21 be 9d f1 de bd
       -0.13794102 -0.014966492 -0.15762487 -0.10885928
000380 6b d5 22 3e f2 78 93 bc 5d fe 3d bc d9 41 e2 3d
       0.15901725 -0.018002007 -0.011596289 0.11047716
000390 ce 29 87 bd 0c 35 7b 3e 47 5d 2b 3e 25 ea 3f 3e
       -0.065997705 0.24531955 0.16734801 0.18741663
0003a0 ff 91 62 bd eb 0f 35 bd 65 37 ac 3d d5 69 d4 bc
       -0.055315014 -0.044204634 0.08409003 -0.02592937
0003b0 5c 89 5b 3e b3 3c a1 3d 85 d3 83 3e c1 ef 3e bd
       0.21439117 0.078729056 0.25747314 -0.046615366
0003c0 32 ee cd 3c 9b 3f 73 3e 3c ee a5 3d 1a a5 26 3e
       0.025137994 0.23754732 0.0810208 0.16273919
0003d0 71 b6 91 3d d3 de 2c 3e 09 41 12 3e 8b 4f fc 3d
       0.07114876 0.16881876 0.14282621 0.12319859
0003e0 0b 84 da 3d b3 ef 16 bd 58 ed 13 3c 8f b7 87 3e
       0.106697164 -0.03684969 0.009028755 0.26507232
0003f0 8b ed b2 bc 76 f9 6d 3e e4 90 92 3e 43 bf a9 3d
       -0.021841785 0.23239693 0.28626168 0.082884334

N.layers.1.bias f4 [32]
000000 80 c0 5b bd 95 82 91 bc 8f e7 01 3d 76 ce f9 bd
       -0.05365038 -0.017762462 0.031714972 -0.121975824
000010 70 98 fe 3b 84 30 a7 3e 90 bb b3 bc 4b de 19 3d
       0.007769637 0.32654202 -0.021940023 0.03756551
000020 c5 e4 96 3e 9e 65 06 be 08 a1 12 3e e0 ec 52 3e
       0.29471412 -0.13124701 0.14319241 0.20598173
000030 c7 ca ec bc fb 25 d9 3d b4 89 f2 bd 98 d1 4e be
       -0.028905286 0.10602947 -0.11842671 -0.20197141
000040 25 42 e3 3d a8 32 90 3e 31 43 a6 3e 31 ed 9a be
       0.110966004 0.28163648 0.32473138 -0.30259088
000050 fd d7 82 bd 9d 0b 5a 3e 0a c4 5f be 0f a5 d3 3d
       -0.06388853 0.21293493 -0.21852127 0.10334217
000060 b3 4f 0f bc 75 75 a0 3e d7 7d 4f 3e 22 1b 8a 3e
       -0.008747029 0.31339613 0.20262848 0.26973826
000070 ab af 92 3e 3e 9e 80 be e8 65 3d be 5f 2a 8a be
       0.2864965 -0.2512073 -0.18495905 -0.26985452
