Birth-Death-0.1--1d/experiments/cnf/toy/2020_10_20_00_37_25_8gaussians_alph100_0_m32_checkpt.pth (torch, 8199 bytes, 7 tensors)

A f4 [2, 2]
0	0x3cb236e2	0.021754686
1	0x3f19cbc9	0.60076576
2	0xbef5dbae	-0.48019165
3	0xbd449bdd	-0.048000205

c.weight f4 [1, 2]
0	0xbddae96d	-0.10689054
1	0xbf681c19	-0.90667874

w.weight f4 [1, 32]
0	0x3bcf386b	0.006323864
1	0xbe14eaa6	-0.14542636
2	0x3ce2e760	0.027698219
3	0xbd3dbb5e	-0.046321265
4	0x3d80fae4	0.062978536
5	0x3ca92bdc	0.020650797
6	0x3c055e47	0.008140153
7	0xbda6eb23	-0.081503175
8	0x3ecdbf84	0.40185177
9	0x3d12708d	0.035751868
10	0x3d20da75	0.039270837
11	0x3ce35200	0.027749062
12	0xbb5750d4	-0.0032854574
13	0x3b5d56a7	0.0033773573
14	0xbe3f1d61	-0.18663551
15	0xbd1308c8	-0.035897046
16	0x3ce7763c	0.02825462
17	0xbd1100c6	-0.03540113
18	0x3b4181bb	0.0029526788
19	0x3dcc2297	0.09967535
20	0x3d250155	0.040284473
21	0x3c5ff757	0.01366981
22	0xbdc047d9	-0.09388704
23	0x3e05e4bf	0.13075541
24	0x3d979d2f	0.07403027
25	0x3e048c79	0.12944211
26	0x3d333c94	0.043758944
27	0x3b8757c5	0.004130336
28	0xbc86f3c1	-0.016473653
29	0xbd179885	-0.03701069
30	0xbf32d2de	-0.6985301
31	0xbe0abe30	-0.13549113

N.layers.0.weight f4 [32, 2]
0	0x3eaed29f	0.34145066
1	0xbfbb7c7c	-1.4647365
2	0xbe36c9e6	-0.17850456
3	0x3f18ef75	0.5974038
4	0xbd595628	-0.05306068
5	0xbe646027	-0.22302304
6	0x3cb92492	0.022600446
7	0xbd4c45b2	-0.049871154
8	0xbcaecb57	-0.021337194
9	0xbcd8a351	-0.026445063
10	0x3b966bc4	0.0045904834
11	0xbed6891f	-0.4190149
12	0xbf0a64e2	-0.54060185
13	0xbf23f589	-0.6404653
14	0x3ea050d4	0.31311667
15	0x3f874ef9	1.0570976
16	0x3ff7187a	1.9304345
17	0x3dcd4143	0.10022213
18	0xbf01951b	-0.5061814
19	0xbf0fe7c3	-0.56213015
20	0x3ee94385	0.45559326
21	0x3fd5a99b	1.6692384
22	0xbf0305ef	-0.5118093
23	0xbf98e2f5	-1.1944262
24	0x3f7506c3	0.9571344
25	0x3ec0a032	0.3762222
26	0xbf2b17a4	-0.6683295
27	0x3e1dd85a	0.15414563
28	0x3b084235	0.0020791416
29	0x3f380e1e	0.7189654
30	0x3eee1dcf	0.46507117
31	0xbfc6c40c	-1.5528579
32	0xbec62574	-0.3870045
33	0x3f8f6cfc	1.1205134
34	0x3c892f89	0.0167463
35	0x3e2361ad	0.15955229
36	0x3ea7dd8f	0.32786223
37	0x3fd80e7c	1.687942
38	0xbbbfad01	-0.005849481
39	0xbf12f891	-0.5741053
40	0xbefe7689	-0.4969981
41	0xbea86380	-0.32888412
42	0x3ef2b804	0.47406018
43	0xbe1a9bfb	-0.15098564
44	0xbd0c9b87	-0.03432801
45	0xbe11c090	-0.14233613
46	0xbb97b851	-0.0046301265
47	0x3f3f3ca7	0.74701923
48	0x3c8ea7f5	0.017414073
49	0xbed3ad06	-0.41342944
50	0xbd05a2da	-0.03262601
51	0xbd86e301	-0.06586266
52	0x3ecbdc9c	0.3981675
53	0x3faa2357	1.3292035
54	0xbc49cb0d	-0.0123164775
55	0x3e9f7a68	0.31148076
56	0x3c869dd8	0.016432688
57	0xbeb6986c	-0.35663164
58	0xbd0ece9c	-0.034865007
59	0xbf5808bd	-0.84388334
60	0xbaba4efc	-0.0014214213
61	0xbec1e3e4	-0.3786918
62	0x3ee0fb7f	0.43941876
63	0x3f5afa74	0.8553841

N.layers.0.bias f4 [32]
0	0xbf687609	-0.9080511
1	0x3faf86e6	1.3713043
2	0x3f81b3ac	1.0132957
3	0x3ec9c2f1	0.3940654
4	0xbf565d88	-0.8373647
5	0x3e605112	0.21905926
6	0xbf62085a	-0.88293993
7	0x3fcef157	1.6167401
8	0xbccc0485	-0.024904499
9	0xbf4c36c3	-0.7977106
10	0x3f8095ec	1.0045753
11	0xbf92b84a	-1.146249
12	0xbe3acb9a	-0.1824173
13	0xbec6da2a	-0.3883832
14	0x3f5d6f5d	0.8649805
15	0xbf8c2a06	-1.0950325
16	0x3fc9070c	1.5705276
17	0x3f21d1a2	0.632105
18	0x3f14a7ba	0.5806843
19	0xbf80bb7b	-1.0057214
20	0xbfc0c131	-1.5058957
21	0xbfb37bf3	-1.4022201
22	0x3cf1b2bd	0.029504174
23	0xbf16845e	-0.58795726
24	0x3f6530e7	0.89527744
25	0xbf135ab8	-0.575603
26	0x3fdf2714	1.7433801
27	0x3f618748	0.8809705
28	0x3e540fb0	0.2070911
29	0x3eed6cf6	0.46372193
30	0x3f10d928	0.56581354
31	0xbe4f4f89	-0.20245184

N.layers.1.weight f4 [32, 32]
0	0xbe0bf30b	-0.13666932
1	0x3e1d7852	0.1537793
2	0x3e45e115	0.19324143
3	0x3ea33d50	0.31882715
4	0x3e448a80	0.19193459
5	0x3eabc636	0.3354966
6	0xbe60a661	-0.21938469
7	0x3e22c75a	0.15896359
8	0x3e96cc5c	0.2945279
9	0xbd968d72	-0.07351197
10	0xbe48804f	-0.19580196
11	0xbe2ed7dd	-0.17074533
12	0x3e61c1ec	0.22046632
13	0x3da816a3	0.082074426
14	0x3eb05366	0.34438628
15	0xbbfd9e48	-0.007739816
16	0x3ce8598d	0.028363014
17	0x3ec0ff46	0.37694758
18	0xbc8239db	-0.015896728
19	0x3ec5bdbf	0.38621327
20	0x3dc23fb5	0.094848074
21	0xbba24910	-0.0049525574
22	0x3f07412a	0.5283381
23	0x3efebc96	0.49753255
24	0x3e9b9b80	0.30392075
25	0x3eb393f5	0.3507382
26	0xbd175186	-0.03694298
27	0x3e9d4461	0.3071623
28	0x3f004457	0.5010428
29	0x3ec191a6	0.37806433
30	0x3e693d93	0.22777395
31	0x3e580dff	0.21099089
32	0x3d429e39	0.047514174
33	0xbe9b3d97	-0.30320427
34	0xbed28264	-0.41115105
35	0xbea1914f	-0.31556174
36	0xbf1db797	-0.6160826
37	0xbee5ba21	-0.44868568
38	0x3e852814	0.2600714
39	0xbea5be0c	-0.32371557
40	0xbd37477b	-0.044745903
41	0x3de2769f	0.110577814
42	0xbd4b4a1a	-0.049631216
43	0x3dbc1f02	0.09185602
44	0xbe8e6548	-0.27811646
45	0xbe192283	-0.14954571
46	0xbed3c024	-0.4135753
47	0x3c230d60	0.009951919
48	0x3dd7a73e	0.10529946
49	0xbf132836	-0.5748323
50	0x3e08446c	0.13307351
51	0xbf0fbdce	-0.56148994
52	0x3df42573	0.11921205
53	0x3e35046b	0.17677467
54	0xbf153e4c	-0.5829818
55	0xbec52b36	-0.3850953
56	0xbe9efcab	-0.31052145
57	0xbf05a44a	-0.5220381
58	0xbd2d8070	-0.042358816
59	0xbed17086	-0.4090616
60	0xbef05363	-0.4693862
61	0xbf0d22d1	-0.5513125
62	0xbf19b502	-0.6004182
63	0xbe096c04	-0.13420111
64	0x3e862a1c	0.26204002
65	0xbea6300a	-0.32458526
66	0xbec215da	-0.37907296
67	0xbf179656	-0.5921377
68	0xbf1b1b74	-0.60588765
69	0xbf2a7edb	-0.66599816
70	0x3e475273	0.19465046
71	0xbe234827	-0.15945493
72	0xbea7ec7c	-0.3279761
73	0xbccd07f2	-0.025028203
74	0xbdcda743	-0.10041668
75	0x3e2036f8	0.15645969
76	0xbd96d09f	-0.0736401
77	0xbe608f5b	-0.21929686
78	0xbeb8c348	-0.36086488
79	0x3e08e363	0.13367991
80	0xbe824bc7	-0.2544844
81	0xbebe7b3b	-0.37203392
82	0x3e976f39	0.29577044
83	0xbe9bf00b	-0.30456576
84	0xbde9d92b	-0.11418375
85	0xba821439	-0.000992424
86	0xbeb43430	-0.35196066
87	0xbeb92e82	-0.36168295
88	0xbe9dbf95	-0.30810228
89	0xbf063942	-0.5243112
90	0xbc81c9e8	-0.015843347
91	0xbf002067	-0.5004944
92	0xbf1a56c3	-0.6028864
93	0xbebe8071	-0.37207368
94	0xbea701d6	-0.32618588
95	0xbcbcce6c	-0.023047648
96	0xbd63ed35	-0.05564614
97	0xbe892876	-0.26788682
98	0xbeb252de	-0.34828848
99	0xbe44ba39	-0.19211663
100	0xbe694db8	-0.22783554
101	0xbdb843da	-0.08997317
102	0x3e2ba9b1	0.16763951
103	0xbe65ef1e	-0.22454497
104	0x3cd65af2	0.026166413
105	0x3d0b54c5	0.03401639
106	0x3db036ef	0.08604228
107	0x3d88bf07	0.066770606
108	0xbe387014	-0.18011504
109	0xbd60ec48	-0.054912835
110	0xbe040d00	-0.12895584
111	0x3b411111	0.0029459635
112	0xbd3ceb03	-0.046122562
113	0xbe200c6d	-0.1562974
114	0x3cf1a9f1	0.02949998
115	0x3c6579fc	0.014006134
116	0x3b98c1b5	0.0046617636
117	0xbe271284	-0.16315657
118	0xbe381865	-0.17978056
119	0xbe2c589f	-0.16830681
120	0xbe8f5d50	-0.2800088
121	0xbe49e39a	-0.1971573
122	0xbd3f519c	-0.04670869
123	0xbeae90e5	-0.3409492
124	0xbec70667	-0.38872072
125	0xbf033769	-0.51256424
126	0xbe1e6f66	-0.15472183
127	0xbc9ae87f	-0.01890969
128	0xbe9a0341	-0.30080608
129	0x3e833fdf	0.25634667
130	0x3f079511	0.5296183
131	0x3eecfbc8	0.46285844
132	0x3f226ddf	0.634489
133	0x3ef8cf5b	0.485957
134	0xbe8ff610	-0.28117418
135	0x3d829955	0.06376902
136	0x3eea368b	0.45744738
137	0xbe9e61e2	-0.30934054
138	0xbd6dd204	-0.058061615
139	0xbbda0ba9	-0.006654222
140	0x3dc11d1e	0.09429382
141	0x3e321df0	0.17394233
142	0x3efddc95	0.49582353
143	0xbdbf2e11	-0.09334958
144	0x3de7a7c1	0.113112934
145	0x3f253e0f	0.6454782
146	0xbed33c1c	-0.41256797
147	0x3efa00aa	0.48828632
148	0xbbd2d814	-0.00643445
149	0x3dde3c6f	0.108513705
150	0x3f033e6f	0.5126714
151	0x3f3360a3	0.7006933
152	0x3edd6030	0.43237448
153	0x3e962dc5	0.29331794
154	0x3e329690	0.17440248
155	0x3eb2dde4	0.34934914
156	0x3edddcc0	0.4333248
157	0x3f269c9f	0.65082735
158	0x3f00599a	0.5013672
159	0x3dff2900	0.12458992
160	0x3c7eefc3	0.015560093
161	0x3e935a6f	0.28779933
162	0x3eebe983	0.46076593
163	0x3e9c01df	0.30470178
164	0x3da7559e	0.08170627
165	0x3e99dfed	0.30053654
166	0xbd82f647	-0.0639463
167	0xbc74217a	-0.01490056
168	0x3e1416af	0.14461778
169	0xbe20faec	-0.15720719
170	0xbd441fea	-0.047881998
171	0xbd9cfdc7	-0.07665592
172	0xbd880183	-0.06640913
173	0x3e22092a	0.15823808
174	0x3ea56c4d	0.3230919
175	0x3d11cd8e	0.035596423
176	0x3dc7f0d1	0.09762729
177	0x3ea709cf	0.3262467
178	0x3c84c4dc	0.016207151
179	0x3eb64cca	0.3560546
180	0x3ddc4bd5	0.10756651
181	0xbd5caeed	-0.05387776
182	0x3ecda0d3	0.40161762
183	0x3ec3c53e	0.3823642
184	0x3e560b87	0.20902835
185	0x3ea598f5	0.3234326
186	0x3e180780	0.14846611
187	0x3e63b62a	0.22237459
188	0x3e6a4ace	0.22880098
189	0x3ee01eef	0.437736
190	0x3e9bb59c	0.30411994
191	0x3ce17aa3	0.027524298
192	0xbf0a2f05	-0.53977996
193	0x3e84de7a	0.25950986
194	0x3e969a7b	0.29414734
195	0x3eb7631b	0.358178
196	0x3f01b301	0.50663763
197	0x3f35be47	0.70993465
198	0xbee83e2d	-0.45359936
199	0x3db4b3db	0.08823367
200	0x3f08526b	0.5325076
201	0xbf232484	-0.63727593
202	0xbe30840e	-0.17237875
203	0xbec99258	-0.39369464
204	0x3ea072de	0.31337637
205	0xbe583985	-0.21115692
206	0x3f03d273	0.51492995
207	0xbe6b9fcc	-0.23010176
208	0xbe112cac	-0.14177197
209	0x3ec8cc5d	0.39218417
210	0xbf0d81e3	-0.55276316
211	0x3f0a4ecc	0.54026484
212	0xbef303e1	-0.47463897
213	0xbed54f57	-0.41662094
214	0x3eca0f20	0.39464664
215	0x3f143e79	0.57907826
216	0x3efacfba	0.48986608
217	0x3f03343d	0.51251584
218	0x3cdf859f	0.027285395
219	0x3ece8990	0.40339327
220	0x3f1d3e08	0.6142278
221	0x3f23e449	0.6402021
222	0x3f278982	0.65444195
223	0x3d165f47	0.036711957
224	0x3ec114e2	0.37711245
225	0xbe6c0ff2	-0.23052958
226	0xbe7226b8	-0.23647583
227	0xbf117449	-0.5681806
228	0xbf0577d7	-0.52135986
229	0xbeaa7968	-0.3329575
230	0x3e95a5dd	0.29228106
231	0x3d027f1e	0.03185951
232	0xbdc38725	-0.09547261
233	0x3e434a28	0.19071257
234	0x3e9f0ff3	0.31066856
235	0x3e2c0ef0	0.16802573
236	0xbebc40f9	-0.3676832
237	0xbe085933	-0.13315277
238	0xbef2915a	-0.4737652
239	0x3e6f0a4d	0.23343773
240	0x3da48bfd	0.08034513
241	0xbec417a8	-0.38299298
242	0x3eb458a8	0.3522389
243	0xbef9245e	-0.48660558
244	0x3e6da8d5	0.23208936
245	0x3ea66865	0.32501522
246	0xbe6a1fba	-0.22863665
247	0xbf2647d3	-0.64953345
248	0xbe8248f7	-0.25446293
249	0xbee4fdc0	-0.44724846
250	0x3e4de79f	0.20107888
251	0xbed9b134	-0.42518008
252	0xbef3f98f	-0.47651336
253	0xbf29991e	-0.66249263
254	0xbf133834	-0.57507634
255	0x3d127b09	0.035761867

N.layers.1.bias f4 [32]
0	0x3f05cb51	0.5226336
1	0xbf2449f1	-0.64175326
2	0xbf3028ee	-0.68812454
3	0xbea88e4e	-0.3292107
4	0x3f29e00c	0.66357493
5	0x3eaa836c	0.33303392
6	0x3f162a9a	0.58658755
7	0xbf046219	-0.51712185
8	0xbeee9d0a	-0.46604186
9	0x3f13c0a7	0.5771584
10	0xbf274838	-0.6534457
11	0x3f2fe9ff	0.68716425
12	0xbf097bd2	-0.5370456
13	0xbf670cbb	-0.902538
14	0xbf741936	-0.9535097
15	0x3f3b19eb	0.7308642
16	0x3e936fc2	0.28796202
17	0xbf0bdce4	-0.5463393
18	0x3ea8f653	0.3300043
19	0x3ecfabeb	0.4056085
20	0x3eeb5854	0.45965827
21	0x3f1fb198	0.6238036
22	0x3e8aa675	0.27080122
23	0x3f0e9350	0.5569353
24	0x3e9eedc8	0.31040788
25	0xbf4fb9a3	-0.81142634
26	0x3eb826ef	0.35967204
27	0xbec47566	-0.38370818
28	0x3ee2f36f	0.4432635
29	0xbf14c72c	-0.5811641
30	0xbf2dc18a	-0.6787344
31	0x3ecc625e	0.39918798
