Birth-Death-0.1--1d/experiments/cnf/toy/2020_10_20_02_20_27_8gaussians_alph100_0_m32_checkpt.pth (torch, 8199 bytes, 7 tensors)

A f4 [2, 2]
000000 26 94 db 3e a2 c2 7e 3f b6 41 76 be b7 c6 6b 3f
       0.42886466 0.99515736 -0.24048504 0.9210009

c.weight f4 [1, 2]
000000 f7 42 8b bc dd db d2 3f
       -0.016999705 1.6473347

w.weight f4 [1, 32]
000000 d5 79 96 be 93 78 ba bd c1 8c bc 3c a3 a4 8d bd
       -0.29389825 -0.09105029 0.023016335 -0.069161676
000010 fa be b4 bd 6e 82 78 bc 39 f1 19 be d7 0b 9a 3e
       -0.088254884 -0.015167816 -0.15033425 0.30087158
000020 40 aa 63 3e 9d 29 ca 3c b4 4e 44 3e ae d0 bc 3c
       0.22232914 0.024678046 0.19170648 0.023048725
000030 6c d9 06 bc ab 6b 10 be 7c f6 e0 bd 80 9a ba 3b
       -0.008230548 -0.14103572 -0.10984513 0.0056946874
000040 37 0e 82 bc e9 39 18 3d 0f dd 0d 3d 61 7b 89 3d
       -0.015875919 0.037164602 0.034634646 0.06712986
000050 ca 62 f0 3c 77 a5 a0 bd 01 52 08 be 30 5a 47 bc
       0.029343981 -0.0784406 -0.13312532 -0.0121674985
000060 9c f3 20 be f0 a3 e4 3c 5f e5 a9 bd 5d ea 22 be
       -0.1571793 0.027910203 -0.08295702 -0.15909715
000070 65 e3 b5 3e ef 38 02 bd fb 24 00 be 4d c7 88 3e
       0.3552505 -0.031792577 -0.12514107 0.26714554

N.layers.0.weight f4 [32, 2]
000000 51 a8 00 3b b4 31 c5 be 4e 35 a3 be b8 5b 69 3f
       0.0019631574 -0.38514483 -0.31876606 0.91155577
000010 ff c8 b9 bd 04 bf 6f bf b6 ea 6e be f9 26 70 3f
       -0.0907154 -0.9365084 -0.23331723 0.9380947
000020 a2 a5 c3 be 4c 98 2a be 23 9c 66 be 23 98 97 bb
       -0.38212305 -0.16659659 -0.22520499 -0.0046262904
000030 e7 4a 0d 3e f2 55 94 3f 89 67 9a 3e ce 86 33 3f
       0.13798104 1.1588728 0.30157116 0.7012757
000040 a9 8d e6 3d 2e 17 e0 be d3 6e 07 3e e1 de 83 bf
       0.11257488 -0.43767685 0.1322587 -1.0302392
000050 79 36 a4 be 0e 7c f5 be c7 2f b1 be fd 41 da be
       -0.3207281 -0.4794621 -0.34606764 -0.4262847
000060 9a d1 50 be 15 7b ab be f0 ef a8 3c 57 f4 8f 3f
       -0.20392457 -0.33492342 0.020622224 1.1246442
000070 ce 2f 87 3e 3f 7b 9a bf 9b 89 93 3e 0e 0d 8e 3f
       0.2640366 -1.2068862 0.28815922 1.1097734
000080 dc 11 b5 3d 2f 67 62 be 89 da e9 3c e5 73 88 be
       0.08841297 -0.22109674 0.028546588 -0.2665092
000090 84 be 96 3e 89 bf b2 bf 08 f1 84 bd 3e 24 23 3f
       0.29442227 -1.3964702 -0.064912856 0.63727176
0000a0 00 5f b2 3e 0f d9 95 3f 3e dd bb be e2 4e cc bf
       0.34838104 1.1706866 -0.36692232 -1.5961573
0000b0 2f 92 1e 3e 58 3b 7f 3f c4 bc 2d be 60 21 5c bf
       0.15485452 0.99699926 -0.1696654 -0.85988426
0000c0 c8 80 dc 3d af d2 b3 bf d1 96 0e be 19 f3 81 bf
       0.107667506 -1.404867 -0.1392472 -1.0152313
0000d0 0e ac 91 3e 52 97 6a 3e 75 f4 9f 3e a0 23 82 3f
       0.2845158 0.22909287 0.31241193 1.0167122
0000e0 05 70 12 be 63 da 0a be 68 ff 79 3c 3a f9 29 bf
       -0.14300545 -0.1355987 0.0152586475 -0.66395915
0000f0 08 b2 7d be d6 4f ae 3f b7 cb dc 3f 62 d0 5f bd
       -0.24774945 1.3618114 1.7249669 -0.05464209

N.layers.0.bias f4 [32]
000000 31 1c 3f bd 85 81 b6 3f 44 c7 76 bf 97 b0 89 3f
       -0.046657745 1.4258276 -0.96397805 1.0757016
000010 36 2b b5 3c c1 f4 b2 bf a7 fb b9 3f d2 47 b4 3e
       0.022115331 -1.3980943 1.4529923 0.35211045
000020 80 e8 3c bf 25 9b 7e bf fc 03 3b bf 51 bb ad bf
       -0.73792267 -0.9945548 -0.73052955 -1.357279
000030 a6 55 51 bf 6c dd 9b 3f 75 1a 8d bf 9a 53 b1 3f
       -0.81771314 1.2176948 -1.1023699 1.3853638
000040 cc 4a 38 bf 02 7c 76 3e 59 55 04 bf 0a 9b 84 3d
       -0.7198913 0.24070743 -0.5169273 0.06474884
000050 0b 92 b8 3f 63 cd b8 be 4a 9a b8 3f 36 02 98 bf
       1.4419569 -0.36094198 1.4422085 -1.1875675
000060 d9 93 d5 bf bf 61 8e bf 4b 47 9d 3f 6f e5 70 3f
       -1.6685745 -1.112358 1.2287382 0.9410009
000070 27 f0 55 3f a1 8e ba be 3b 98 a6 3f b7 ef b0 3b
       0.8356957 -0.36436942 1.3015207 0.00539967

N.layers.1.weight f4 [32, 32]
000000 19 63 ed be a7 db 1b be e8 fd 30 bf e4 e8 a2 be
       -0.46364668 -0.1522051 -0.6913743 -0.31818306
000010 5e e3 f0 be 53 8d c5 bd 96 ba ef be d0 2c 47 be
       -0.47048467 -0.09646096 -0.4682204 -0.19450688
000020 60 0e 08 bf 68 9a d8 be c7 11 16 3d 6a 3d d2 3d
       -0.53146935 -0.42305303 0.036638048 0.1026562
000030 56 37 c8 be 9a 33 2c bf 6e 45 05 be 94 3b a7 bd
       -0.39104718 -0.6726624 -0.13014767 -0.081656605
000040 d9 b6 fe be 02 6b c6 be 3a 90 ba bd 04 2c c8 be
       -0.49748877 -0.38753515 -0.0910954 -0.3909608
000050 a4 77 5c 3c 58 13 56 bd 93 9e b4 be a9 b3 fa be
       0.013456259 -0.05226454 -0.35277233 -0.48965195
000060 05 2b 0c bf 30 17 fe be 75 17 88 3d c8 f6 af bd
       -0.5475314 -0.49627066 0.06645099 -0.08591992
000070 52 1c 27 bf e3 f2 23 bf 2f 57 a5 be a9 72 5f be
       -0.6527759 -0.6404249 -0.32293078 -0.21821083
000080 6b 1d f4 be 1d 72 47 3d c0 4b b4 be 2e 27 9c bd
       -0.47678694 0.04869281 -0.35214043 -0.076246604
000090 d8 eb 08 bf d8 16 48 3e bf 45 7f 3c 64 71 30 be
       -0.5348487 0.19539964 0.015580594 -0.17230755
0000a0 ac 40 e7 be 0b 9e 87 be ac 47 c8 3d 77 ed 67 3e
       -0.45166528 -0.26487765 0.09779295 0.2264918
0000b0 95 1c 5d 3d 77 e8 1b bf 3a 9a 42 3e f6 71 02 3e
       0.053982336 -0.6090159 0.19004145 0.12738785
0000c0 df e1 0f bf 58 54 da be e6 ae 97 3e 4a ae a6 be
       -0.56204027 -0.42642474 0.29625624 -0.32554847
0000d0 ba 5c 7a 3e 20 a7 5c 3e 50 e9 c1 bd cc 20 5b bd
       0.24449435 0.21548128 -0.09468329 -0.053498074
0000e0 06 60 ca be 81 53 4d be 21 e2 74 3e 2f 78 20 3e
       -0.39526385 -0.20051385 0.23914386 0.15670846
0000f0 88 e0 a7 be 33 a5 a8 be c4 a9 29 be c6 21 f2 be
       -0.3278849 -0.32938537 -0.16568667 -0.47291392
000100 04 94 11 3e 93 22 16 3e 22 fe 18 3e c5 55 33 3d
       0.1421662 0.14661627 0.14940694 0.043782968
000110 8a 11 4e be f7 45 a4 3e 6c c5 0e 3f c4 a4 b0 3e
       -0.20123878 0.3208463 0.5576999 0.34500706
000120 db 46 82 be c3 f9 22 be 13 ca 2e 3e 41 a0 bb 3e
       -0.25444683 -0.15915589 0.17069273 0.36645702
000130 ef 5c c7 3e 00 f3 ef 3e 4c c5 b2 bd bb ef 7e 3e
       0.3893809 0.46865082 -0.08729038 0.24896137
000140 ff b1 35 be 92 5d a0 3e 0c 10 4f 3e ef 57 13 3d
       -0.17743681 0.31321388 0.20220965 0.035972532
000150 46 5c 5c 3e 3c b8 02 3f 46 8d db 3e 33 6a 1c 3f
       0.21519575 0.5106237 0.4288122 0.6109955
000160 74 6e d2 bd 7e 84 d4 3e 3e 58 12 3f 68 20 4e 3e
       -0.102749735 0.41507334 0.57165897 0.2012955
000170 5d d5 7c be b1 b4 0d 3e fc e0 35 3d 8a 8f c6 bc
       -0.24690767 0.1383846 0.044404015 -0.024238367
000180 cb 12 4a 3f 8c 11 2b bd 77 83 d3 bc f9 6e 96 3d
       0.78934926 -0.04176478 -0.025819523 0.07345385
000190 41 b0 3b 3c 12 b8 56 3e 17 40 a4 3e e9 a5 ac bc
       0.011455596 0.20968655 0.32080147 -0.021075206
0001a0 ec 1b 0d 3e 04 37 35 3e 84 68 80 3e 41 7e b9 3c
       0.13780183 0.17696768 0.2507974 0.02264321
0001b0 af b6 80 3e 56 76 74 3d 07 93 fd 3d 64 fa a5 3d
       0.25139377 0.059683166 0.12381559 0.08104399
0001c0 ae 5b 50 3e 40 30 9f 3e 43 10 5e bd 9d 14 b1 3e
       0.20347473 0.310915 -0.054214727 0.3458604
0001d0 19 5a 4c 3e 77 b2 c9 3e 52 56 8a 3e 5d 88 23 3e
       0.19956245 0.3939397 0.27018982 0.15969987
0001e0 b6 64 85 3e 1b 1f 2c 3e 1b 89 9a 3e e0 d7 17 3e
       0.260534 0.16808741 0.30182728 0.14828444
0001f0 0b 24 4c bc 53 0e b2 3e 2b a1 8a 3e 1f c6 76 3e
       -0.012459765 0.34776554 0.27076086 0.24099015
000200 ec f9 fd bc f7 e1 1f be da 5b 59 be d4 65 f9 bc
       -0.031002961 -0.15613542 -0.21226445 -0.030444063
000210 18 8d 9e be 97 17 57 be 98 5f 0c bb 08 cd 1a be
       -0.3096702 -0.21005093 -0.0021419283 -0.15117276
000220 81 ec b0 be 3d c4 49 be d1 80 65 bd d6 20 61 bc
       -0.34555438 -0.19703765 -0.056031052 -0.013740739
000230 a4 92 5b be 61 72 54 bd 2a a4 85 be c5 49 5d be
       -0.21442658 -0.051866893 -0.2610181 -0.21610172
000240 b4 11 af ba 0b b7 7b be 16 80 07 be e6 a5 a6 bd
       -0.0013356716 -0.24581544 -0.13232455 -0.08137111
000250 32 73 6a 3d fa 04 49 bd 79 0a 3d be 76 9f 67 be
       0.057238765 -0.04907701 -0.18461026 -0.22619423
000260 54 0a 6b be 8c c1 72 be b2 ec 00 bc b2 04 e8 bc
       -0.22953159 -0.23706645 -0.007868933 -0.028322551
000270 d1 2b 7a bd 42 d9 3a be 80 f8 69 bd 87 4a 4b be
       -0.061076943 -0.1824694 -0.057121754 -0.19852649
000280 ef 01 e6 3e 30 d2 cd 3d 63 17 eb 3e 66 7f 19 3e
       0.4492335 0.10049856 0.4591628 0.14990005
000290 60 68 b3 3e 43 55 ed 3c 26 ff 1f bc ba 71 b6 3e
       0.3504057 0.02897132 -0.009765422 0.3563364
0002a0 7e 2b dc 3e 6e 68 b9 3e fd 51 95 3e f3 46 0d 3e
       0.43001932 0.36212486 0.29164115 0.13796596
0002b0 d3 58 e0 3d a1 16 88 3e 3e 4a a6 3d a5 2d 7b bb
       0.10954442 0.26579764 0.08119629 -0.0038326767
0002c0 7c eb 5b 3e 6c cd 8d 3e f3 08 03 3e 07 58 dc 3e
       0.21476549 0.27695787 0.12796383 0.4303591
0002d0 de e9 df 3d 6a 6c df 3c 87 48 94 3e ec bf a3 3e
       0.109332785 0.027273376 0.28961584 0.31982362
0002e0 63 22 98 3e 1d 2e 1b 3e 26 b3 6b 3c b1 e2 ff bc
       0.29713735 0.1515431 0.014385974 -0.031236025
0002f0 83 3b dc 3e b1 be 13 3f 19 2b 9a 3e 06 a1 63 3e
       0.43014154 0.57712847 0.30111006 0.22229394
000300 a2 03 0f bf 66 71 1f 3d 62 df e2 be 1d 99 aa 3d
       -0.5586492 0.038926505 -0.44311053 0.08329985
000310 d5 d3 b2 be 03 c6 85 3d 20 9e 19 be 4c 01 9d be
       -0.3492724 0.06531908 -0.15001726 -0.30665052
000320 48 e6 d1 be f4 5d b5 be 81 e3 66 3e c6 34 33 3e
       -0.40996003 -0.35423243 0.22547723 0.175006
000330 e8 c6 6d be 8e 98 0e bf d7 53 7e 3e db 02 d4 bb
       -0.23220408 -0.5570153 0.2483667 -0.006470067
000340 d2 ab 0f bf 6e 88 ca be 07 68 87 3e 55 b6 fa be
       -0.5612155 -0.39557213 0.26446554 -0.48967233
000350 b5 26 02 be 17 67 3a 3e e5 6e 33 be 1b d7 96 be
       -0.12710078 0.18203388 -0.17522772 -0.29460987
000360 0e 6d 3b bc 57 eb c8 be a7 2f a4 3d 86 d1 16 3d
       -0.011439575 -0.3924205 0.080169015 0.03682091
000370 a5 17 eb be 17 ae 14 bf 6a 6f 03 bd 9b 81 c1 be
       -0.45916477 -0.5807814 -0.032088675 -0.37794194
000380 48 cf 2a 3f 76 31 9a be 77 6c fe 3e 5c 23 bc bb
       0.66722536 -0.3011586 0.49692127 -0.00574152
000390 fe 42 d9 3e 0e 5b a1 be 4f e4 a9 3e 15 c9 18 3f
       0.42433923 -0.31514782 0.33181998 0.59681827
0003a0 81 b1 32 3f a8 cf 2b 3f cf 45 e4 be 7b 95 ea be
       0.698021 0.67113733 -0.4458451 -0.4581717
0003b0 03 bb 26 3e bb 9d 68 3f 0b c3 56 be 21 c0 b7 be
       0.16282277 0.9086568 -0.2097284 -0.3588877
0003c0 65 70 55 3f 4b 3b 51 3f 5b 06 20 bf 0e 6d 17 3f
       0.83374625 0.817311 -0.625097 0.5915078
0003d0 27 d9 05 bf ba ce 1e bf fc 79 2a 3f 1e 5c 16 3f
       -0.52284473 -0.6203419 0.66592383 0.5873431
0003e0 e3 72 3f 3f 0a d1 18 3f 0a 25 1a be c9 97 ee be
       0.7478468 0.5969397 -0.15053192 -0.46600178
0003f0 34 cf 19 3f 39 90 57 3f cc 5d ee 3e 64 db 91 3f
       0.6008179 0.8420444 0.46555936 1.1395078

N.layers.1.bias f4 [32]
000000 db 44 e0 be 6e 58 2a bf c6 2c 98 be b6 e6 d1 3d
       -0.43802533 -0.66541183 -0.2972166 0.10249083
000010 7e 8e 66 be bb 32 0b 3f 18 6e 2c bf 5f d1 8c 3f
       -0.22515294 0.54374284 -0.6735549 1.1001395
000020 2a 0c 5c bf d4 6a bd 3e ff 67 b3 3d bd 35 e0 3e
       -0.8595606 0.36995566 0.0876007 0.43791
000030 77 a6 d4 be b4 ef 09 3f 61 97 f1 3e 24 39 31 3e
       -0.41533253 0.5388138 0.47185805 0.17306954
000040 1b 17 54 3e 90 70 9e 3e 47 4a 3b 3e 2a b6 7c be
       0.20711939 0.30945253 0.18290053 -0.24678865
000050 4b 3a 59 3f b4 a3 7a 3f b8 d0 12 3f 96 1d 38 3e
       0.84854573 0.9790604 0.5734973 0.17980036
000060 3b 2e 1f bf 71 66 6d be 00 6f ed be 5e 69 21 bf
       -0.6217992 -0.2318361 -0.4637375 -0.630514
000070 e6 6a 8f 3f cf 57 de be c6 0c 06 3f a8 55 10 3f
       1.1204498 -0.43426368 0.5236324 0.563807
