Birth-Death-0.1--1d/experiments/cnf/toy/2020_10_20_13_32_07_8gaussians_alph100_0_m32_checkpt.pth (torch, 8199 bytes, 7 tensors)

A f4 [2, 2]
000000 52 cb e6 3d 50 87 47 bd 06 09 2f 3e 72 34 9e bf
       0.11269249 -0.04871303 0.17093286 -1.2359755

c.weight f4 [1, 2]
000000 38 57 68 be 1a 99 00 c0
       -0.22689521 -2.0093446

w.weight f4 [1, 32]
000000 67 af 45 3b c5 39 b1 3c c0 c3 a6 3e d7 46 7c 3e
       0.0030164362 0.021633992 0.3257122 0.24636398
000010 f4 9b 10 3d c1 6a 82 bc f3 c3 8f bd db 47 78 3c
       0.03530498 -0.015920045 -0.07019796 0.01515385
000020 d1 f4 f5 3d 52 ea 62 3d d5 9a 82 3d 34 8f 24 bd
       0.12009586 0.055399247 0.06377188 -0.04017563
000030 3c 4d 41 bc 7e 44 aa 3d 40 a5 c7 3d e6 56 88 3d
       -0.011798199 0.08313845 0.09748316 0.066571996
000040 9d ea 0c 3d a2 f1 a1 3c 0f 2c ac bc 3a 7c 23 bd
       0.034403432 0.01976854 -0.021017103 -0.039913394
000050 a7 2f 90 bd fa 49 3f 3d 3b 57 05 3d 37 16 ff 3d
       -0.07040339 0.04670141 0.032553893 0.12455409
000060 1d 72 89 3c 7f 4e 9c bc 96 23 a0 3e 02 83 8b 3b
       0.016778046 -0.019080399 0.3127715 0.0042575607
000070 87 84 11 3d 8e 61 23 3e 93 b3 c8 3d 5a 17 e8 bd
       0.03552678 0.15955183 0.09799876 -0.11332579

N.layers.0.weight f4 [32, 2]
000000 f2 6f 87 3d f3 9b 1c bf b7 89 e7 be 04 5a be be
       0.06613149 -0.6117546 -0.45222256 -0.3717805
000010 92 d4 16 3e 77 a5 a0 3d e6 88 3f 3e 13 05 2f 3f
       0.14729527 0.0784406 0.18704566 0.6836712
000020 ed 3d 9a be d7 28 a7 bf 2b 63 d2 3e 19 b0 8b bf
       -0.3012537 -1.3059338 0.41091284 -1.0913116
000030 c8 05 4e be ab 7c 9b be f9 81 a2 3e 16 b6 90 3e
       -0.20119393 -0.30368552 0.31739786 0.2826392
000040 2f 6a 8f 3e 2b 41 b3 3f 7b 84 29 3f 7a 84 7a 3e
       0.280107 1.4004263 0.66217774 0.24464598
000050 4b e0 91 3e 66 19 83 3f ed be ae be 8d 88 5d bf
       0.28491434 1.0242126 -0.3413004 -0.86536485
000060 4a eb 6e 3e 95 79 15 3f d0 bb 28 bf 42 2d ef 3d
       0.23331943 0.58388644 -0.6591158 0.11678554
000070 0e 49 73 3e 35 30 14 3f 57 5e 91 3e bb c2 0e bf
       0.23758337 0.5788606 0.28392288 -0.55765885
000080 4a 50 ca be 1e bf 92 3f 91 92 b1 be af c5 74 3f
       -0.3951438 1.1464574 -0.34682134 0.9561414
000090 10 35 d3 3d 4f 0f 28 bf 51 4a a0 be c1 7a 26 3f
       0.10312855 -0.6564836 -0.313067 0.6503106
0000a0 a0 33 98 be cb a0 54 3f f9 c4 50 3e 61 fd 26 3f
       -0.29726887 0.8305785 0.20387639 0.65230376
0000b0 d7 82 b8 ba bd a2 f3 be 32 32 18 3c 65 c5 bb bd
       -0.0014077079 -0.47585097 0.009289311 -0.091685094
0000c0 d1 7d 8b be 90 1f 84 3f 10 34 3d 3b f1 83 86 be
       -0.27244428 1.0322132 0.0028870143 -0.26272538
0000d0 30 06 f2 bb 0a 67 b3 3e d6 6d fa bd 08 62 b6 3d
       -0.0073859915 0.3503955 -0.12227981 0.08905417
0000e0 ee 96 a1 be 89 e6 62 3f 0b 2e 68 3f 52 f6 1a 3e
       -0.31560463 0.8863302 0.90695256 0.15133026
0000f0 30 83 0e 3e 0a b4 9d 3f dd 81 7a 3e 33 69 02 bf
       0.13917232 1.2320569 0.24463601 -0.5094177

N.layers.0.bias f4 [32]
000000 ef e0 30 bf 67 ff a0 3f 87 ac 27 bf c4 ff 93 3f
       -0.6909322 1.2577943 -0.6549763 1.1562428
000010 2a 3e 03 bf 43 5d 9d bf b7 9d 28 bf 59 ee 9f 3e
       -0.5126673 -1.2294086 -0.65865654 0.31236532
000020 30 7b 9d 3f ef 68 17 bf 99 4a 12 3f 73 0d bb be
       1.2303219 -0.5914449 0.57145077 -0.36533698
000030 d6 6d cb 3f ca db 1a 3e 16 75 99 3f 3e fe 15 3f
       1.5892894 0.15122905 1.1988857 0.5859107
000040 96 a6 33 3f d0 3c 88 3e 3c bd c3 3d de 58 a6 3f
       0.70176065 0.26608896 0.09557578 1.299587
000050 6d c3 ad 3f c7 f7 89 3f 75 0c c3 3e f5 cd ae be
       1.3575264 1.0778741 0.3809544 -0.34141508
000060 e9 ed bf 3f 91 d1 b5 3e 49 dc 40 be b7 f6 67 bf
       1.499448 0.3551145 -0.18834032 -0.9061083
000070 a9 4d b2 3f 28 8f 6f 3d 1f 36 cc 3f a8 18 ba bf
       1.392995 0.058486134 1.5954016 -1.4538774

N.layers.1.weight f4 [32, 32]
000000 a7 be 75 3d ee c2 13 bd e3 cc 93 be 31 54 27 3e
       0.059996273 -0.03607457 -0.28867254 0.1634071
000010 93 5e 95 3e 74 e8 3b 3d 8c ed bb 3e b5 b7 10 3e
       0.29173717 0.04587598 0.3670467 0.14132579
000020 a1 9a 6c 3e 19 64 95 3e 8b f2 15 3e 5c c0 11 3e
       0.23105861 0.2917793 0.14643304 0.14233536
000030 c4 fc 9d 3e d1 a3 e1 3d 71 ee 14 3e 01 5a 31 bd
       0.30856907 0.110175736 0.14544083 -0.043298725
000040 ba 6f 15 3e 51 59 19 bc 9c 6f 91 bd df 71 b4 bc
       0.14593402 -0.009359674 -0.07101366 -0.022026954
000050 a2 ca a6 bc ff 6d cf 3d f9 b7 08 3e c1 65 2e 3e
       -0.020360295 0.10128402 0.1335143 0.17031004
000060 c9 85 92 3d 2a 0c 90 3c 7f a3 be 3d 77 2f 05 3e
       0.07154424 0.017583925 0.09308528 0.13006388
000070 df 78 8e 3e b4 d4 53 3e 4d f0 9f 3e 78 46 70 3d
       0.27826592 0.20686609 0.31238022 0.058660954
000080 29 68 a5 3e 7c 93 1c be aa 41 9a 3e 48 9e 0a 3f
       0.3230603 -0.15290636 0.30128223 0.5414777
000090 9c 24 81 3d 86 68 51 3e ab 21 af 3e 93 fe 87 3e
       0.06305811 0.20450029 0.34205374 0.26561412
0000a0 0f d5 8d 3e 96 cd 9b 3e b7 ae bb 3d 99 bb 42 3e
       0.27701613 0.30430287 0.091641836 0.19016875
0000b0 99 10 11 3e c4 fa 27 3e 07 bd ce bd e1 bf 7a 3e
       0.14166488 0.16404253 -0.10094648 0.24487258
0000c0 74 57 92 3e 31 91 3d be 97 61 05 3f c3 68 32 3d
       0.28582346 -0.18512417 0.52102035 0.04355694
0000d0 57 7d 17 3e 30 13 d7 3e 8d 02 09 3f 9b 2b 06 3f
       0.14793907 0.42006826 0.5351952 0.52410287
0000e0 93 09 63 be f7 d3 db 3e 49 65 98 3e 7e 35 cc 3e
       -0.22171621 0.42935154 0.29764774 0.3988456
0000f0 7b c9 96 bd 69 bb fc 3e 64 fc 87 3e d8 a9 44 3e
       -0.07362648 0.49361733 0.26559746 0.19205415
000100 ec 31 31 bf 89 48 3d be 54 7b 0f bf e7 44 f1 be
       -0.692168 -0.18484701 -0.5604756 -0.4712288
000110 87 bc 94 be 0b 3f b5 bc 6d e4 fb be ee 3c 92 be
       -0.29050085 -0.022124788 -0.49197713 -0.2856211
000120 b2 e1 58 be 9a 6d c7 be e1 18 db bd f4 ba 7b be
       -0.21179846 -0.38950807 -0.10698105 -0.24583036
000130 6a e7 99 be ad 08 aa be cd db ad be d7 e9 c7 be
       -0.30059367 -0.33209744 -0.33956757 -0.39045593
000140 ba e9 79 bd 4a c0 b6 be 2a 24 45 bf 9f c2 55 bd
       -0.061013915 -0.3569358 -0.77008307 -0.05218756
000150 c4 55 99 be f9 b1 9c be 74 a9 03 bf d8 a6 3b bf
       -0.29948246 -0.30604532 -0.5143044 -0.7330146
000160 79 22 9b bd 06 e1 38 bf 9d 21 4c bf 17 c1 1b bf
       -0.075749345 -0.7221836 -0.7973879 -0.60841507
000170 02 7e 74 be 9c 34 2a bf 45 5c df be 44 79 87 be
       -0.23876193 -0.66486526 -0.43625084 -0.26459706
000180 da f9 3a bf 29 d7 02 be 2f ac 2d bf 1a 73 02 bf
       -0.73037493 -0.1277739 -0.67840856 -0.5095688
000190 be 3f 80 be 15 96 ac be a1 83 96 be 65 fc 43 be
       -0.2504863 -0.33708254 -0.293973 -0.1913925
0001a0 fd 01 b9 be 91 56 ee be 49 cb 3e bd ce ed 9d be
       -0.3613433 -0.4655042 -0.046580587 -0.30845493
0001b0 ee 88 62 be 08 6c f7 be 2b bb f3 bd 96 8e 19 bf
       -0.22122547 -0.4832461 -0.11900934 -0.59983194
0001c0 bd bf bd be 0a 3c ba bd e4 67 50 bf 90 8d 1d be
       -0.37060347 -0.09093483 -0.81408525 -0.15386033
0001d0 eb eb 6f be 39 e8 07 bf 8e f9 05 bf ff ab 00 bf
       -0.2342984 -0.5308872 -0.52333915 -0.50262445
0001e0 22 72 db bd d2 63 2a bf 0c b8 48 bf d4 3b 11 bf
       -0.107151285 -0.66558564 -0.78405833 -0.56731915
0001f0 67 b5 1f be 5d a7 44 bf 9b b2 b5 be 29 f8 3c bf
       -0.15596543 -0.76817876 -0.35487828 -0.7381616
000200 95 3a f2 be 30 e8 ac bd cc b9 6b be 5b cf a6 be
       -0.4731032 -0.08442724 -0.23020095 -0.32580075
000210 34 02 75 be 65 9e 34 3d f0 4c 5c be c5 76 da be
       -0.23926622 0.04409637 -0.21513724 -0.4266874
000220 aa 30 1b bd 68 85 43 be c5 5e 0a 3e cd a6 90 be
       -0.037888207 -0.19093859 0.13512714 -0.2825226
000230 a1 1c 55 bc a1 35 44 be 63 67 21 bc 51 7e 8f be
       -0.013007314 -0.19161083 -0.0098513095 -0.2802606
000240 63 77 7c be cd fc 9b 3d e3 cb ba be 3c 51 fc 3d
       -0.24654917 0.07616577 -0.36483678 0.12320182
000250 eb 41 3a 3e be 9c e1 be a3 47 19 bf 7c f6 01 bf
       0.18189208 -0.44064897 -0.59874934 -0.5076673
000260 94 f6 4d 3e 44 f9 ca be 6b bf f0 be f3 7c 15 bf
       0.20113593 -0.396433 -0.4702104 -0.5839378
000270 81 ec bc 3d 14 06 db be 35 51 25 be 69 48 87 be
       0.09224797 -0.42778075 -0.1614426 -0.26422432
000280 c7 e7 8f be 94 d7 8a 3e e5 0c 80 bd b6 4e a6 be
       -0.2810652 0.27117598 -0.062524594 -0.32481927
000290 1d 02 4c be f5 b9 b4 3c 67 a9 b5 be d5 7f c7 bd
       -0.19922681 0.022061327 -0.35480806 -0.09741179
0002a0 07 1c 86 be 13 73 ff bd 79 28 af bc c4 3d 9b be
       -0.26193258 -0.124731205 -0.021381604 -0.3032056
0002b0 32 0f c2 bd 2f 15 99 be a7 d5 03 3e 20 bc f6 bd
       -0.094755545 -0.29898974 0.1287447 -0.12047601
0002c0 c1 8c 6e 3d 1d 84 b5 3d f1 ad 83 be 35 e1 94 3d
       0.058239702 0.08863089 -0.25718644 0.07269517
0002d0 eb 72 9f 3d 0d ed 86 be c2 c4 86 be cb c3 02 bf
       0.07785591 -0.2635273 -0.2632199 -0.51080006
0002e0 55 94 51 3d cc 7d a3 be 61 08 ef be 47 3d da be
       0.05116685 -0.31931913 -0.4668608 -0.42624876
0002f0 45 55 3a 3c 60 12 b9 be e9 78 9b be 3e ce aa 3d
       0.011372869 -0.36146832 -0.30365685 0.08340119
000300 24 e9 e2 bd e4 aa ff 3e 2d 84 01 3f a8 26 02 3f
       -0.11079624 0.49935067 0.5059231 0.50840235
000310 d4 2a 01 3f 78 4a fb 3e 10 42 aa 3d d1 2e a6 3d
       0.50455976 0.49080253 0.08313382 0.08114398
000320 f7 49 bc 3e fd da c4 3e 70 38 99 3e a9 ff 3b 3e
       0.3677518 0.38448325 0.2992587 0.18359245
000330 85 15 6f 3e 58 d8 a7 3e 48 93 c8 3e 9d 63 90 bd
       0.23348053 0.32782245 0.39174867 -0.0705025
000340 2e c1 bd 3e 58 16 9b 3e 1c de 72 3e 69 f1 e0 3e
       0.37061447 0.30290484 0.2371754 0.4393418
000350 52 90 db 3e e5 ed 52 3e 78 4f 14 3f 1c 25 c1 3e
       0.42883545 0.20598562 0.5793376 0.37723625
000360 c2 6d 92 3e 27 d7 ef 3e 69 8a ea 3e 5f ff 49 3e
       0.28599364 0.46843836 0.45808724 0.19726323
000370 06 bc e1 3e 92 19 37 3e 5a 1c b2 3e 08 f3 c0 3e
       0.44088763 0.17880848 0.34787256 0.37685418
000380 21 bf 0e 3f 36 1f e0 bc 98 a0 45 3e ad 68 d6 3e
       0.5576039 -0.027358633 0.19299543 0.41876736
000390 5a 0c 93 bd 7e 9b 8a be db b4 7c 3e 9c 9d a7 3e
       -0.0718009 -0.27071756 0.24678366 0.32737434
0003a0 51 b3 42 3d 69 0a 9a 3b 9f 03 2c be c6 1e a8 3e
       0.04753429 0.004700948 -0.16798256 0.32835978
0003b0 3e c5 62 3e 6b 60 87 3e b9 c6 9c bc 17 99 22 3e
       0.22145554 0.2644075 -0.019137727 0.15878712
0003c0 aa a9 88 bd 40 b8 86 be 52 a6 13 3f 83 eb 9f bd
       -0.06672986 -0.26312447 0.5767566 -0.07808592
0003d0 c6 9f c2 b9 4d 54 97 3e 9f 03 ff 3e 9b 4f 0d 3f
       -0.00037121604 0.29556504 0.4980745 0.55199593
0003e0 7c f5 a4 be 89 fd b8 3e 99 ec c9 3e 61 58 1b 3f
       -0.3221854 0.36130932 0.39438322 0.6068173
0003f0 8f 8f 4a bd f0 82 89 3e dd dc 8b 3e 82 9c 8b 3e
       -0.049453314 0.2685771 0.27316943 0.27267843

N.layers.1.bias f4 [32]
000000 ea c4 ac 3e 2f f5 3a 3f 6d f0 6c bf 97 75 63 bf
       0.33743984 0.7303037 -0.9255436 -0.888513
000010 9e 37 28 bf a0 04 c3 be 31 e0 51 3e 7e ad ec 3e
       -0.65709865 -0.38089466 0.20495678 0.46226114
000020 43 4e 3d 3f 74 77 c8 be 87 aa a8 3e da 4f 0a bf
       0.7394754 -0.39153636 0.32942602 -0.54028094
000030 29 16 8d 3d 61 d2 2d 3f 60 86 cf be b7 e1 fa 3e
       0.06888992 0.6789914 -0.40532207 0.49000332
000040 5c e1 19 3f 24 34 63 3e 08 0a e8 be fe a4 3b 3f
       0.60109496 0.22187859 -0.45320153 0.73298633
000050 01 f3 04 3f 93 cb 19 be 76 29 29 bf 76 51 3d bf
       0.51933295 -0.15019064 -0.6607889 -0.73952425
000060 8d f0 33 3f 93 63 30 bf 8d 73 ed be cb c4 17 bf
       0.70288926 -0.6890194 -0.4637722 -0.5928466
000070 96 81 f5 3e f6 70 02 bf 60 49 fe 3e 0e b0 0d bf
       0.4795043 -0.50953615 0.49665356 -0.55346763
