Birth-Death-0.1--1d/experiments/cnf/toy/2020_10_20_13_47_09_8gaussians_alph100_0_m32_checkpt.pth (torch, 8199 bytes, 7 tensors)

A f4 [2, 2]
0	0xbf1453d5	-0.5794042
1	0xbef574ad	-0.4794058
2	0xbf67d92e	-0.90565765
3	0x3ef425de	0.4768514

c.weight f4 [1, 2]
0	0xbe47aa08	-0.19498456
1	0xbc559313	-0.0130355535

w.weight f4 [1, 32]
0	0x3f507d14	0.81440854
1	0x3f4e0290	0.8047266
2	0x3f4d1d78	0.8012309
3	0x3f51f7f8	0.82018995
4	0x3f4cd0e3	0.80006236
5	0x3f4d2007	0.80126995
6	0x3f4d2120	0.8012867
7	0x3f4d77c5	0.8026088
8	0x3f5dc80a	0.8663336
9	0x3f4da007	0.8032231
10	0x3f533dca	0.8251616
11	0x3f4cc424	0.79986787
12	0x3f4f33ee	0.80938613
13	0x3f4f9c4b	0.8109786
14	0x3f4cdb00	0.8002167
15	0x3f4ee5fb	0.8081967
16	0x3f50fbc9	0.81634194
17	0x3f4cf32e	0.8005856
18	0x3f4e13eb	0.8049914
19	0x3f4ea6f2	0.8072349
20	0x3f4cc3ff	0.79986566
21	0x3f4d6460	0.80231285
22	0x3f4cdbae	0.80022705
23	0x3f4d57c9	0.80212075
24	0x3f4e36e0	0.8055248
25	0x3f4de1d3	0.80422705
26	0x3f4ccafc	0.7999723
27	0x3f4dd725	0.8040641
28	0x3f4dacea	0.8034197
29	0x3f4e799a	0.806543
30	0x3f4e28ad	0.80530816
31	0x3f4cca30	0.79996014

N.layers.0.weight f4 [32, 2]
0	0x3b8981f2	0.004196399
1	0x3f126c21	0.5719624
2	0xbe9cb5a4	-0.3060733
3	0xbe5d366f	-0.21602796
4	0x3eba6468	0.3640473
5	0xbf3a3be3	-0.7274763
6	0x3b9d4df4	0.0048005525
7	0xb78a2fe0	-1.6473175e-05
8	0xbeb03da4	-0.34422028
9	0xbea33a6d	-0.31880513
10	0xbcb94d37	-0.022619827
11	0x3e8d3aa2	0.27583796
12	0x3ee42a30	0.44563437
13	0x3ee2771e	0.44231504
14	0x3e6170be	0.22015664
15	0x3eb24351	0.34816983
16	0x3e80df10	0.25170183
17	0xbf2d88af	-0.6778669
18	0xbe17a87a	-0.14810362
19	0x3f664842	0.89954007
20	0x3c3918ea	0.011297444
21	0x3f29ec90	0.6637659
22	0xbec42f0e	-0.3831715
23	0x3e94d13a	0.29065877
24	0x3ce20e2e	0.027594652
25	0xbf4cde88	-0.80027056
26	0x3e8b9003	0.2725831
27	0x3f1b0256	0.6055044
28	0xbed8375c	-0.42229736
29	0xbd26ebca	-0.04075221
30	0xbcc3c74e	-0.023898747
31	0x3f43cefe	0.7648772
32	0xbc017a79	-0.007902735
33	0x3f4aecba	0.79267466
34	0x3eaeb1d9	0.34120062
35	0x3b0e2445	0.0021689099
36	0x3e13e382	0.14442256
37	0xbf06cfdb	-0.5266091
38	0xbd481259	-0.048845623
39	0x3e38225a	0.17981854
40	0xbe50f880	-0.20407295
41	0xbe6167fe	-0.22012326
42	0x3b379088	0.0028009731
43	0x3ef9a106	0.48755664
44	0x3e94d5c0	0.29069328
45	0x3f0f3b7e	0.5595015
46	0xbe9938ac	-0.2992605
47	0xbf38e1fc	-0.72219825
48	0x3eb37a5f	0.350543
49	0x3e3d55c9	0.18489756
50	0x3e8e95cd	0.27848664
51	0x3f3fe50a	0.7495886
52	0xbe92caa1	-0.2867022
53	0x3e78a621	0.24282123
54	0x3e2416e5	0.16024359
55	0xbe2860c3	-0.16443162
56	0x3e54ee33	0.20793991
57	0xbf3815aa	-0.71908057
58	0x3d563b58	0.05230269
59	0xbf547e1d	-0.83004934
60	0x3e0c3867	0.13693391
61	0x3f1ba766	0.60802305
62	0xbda2b515	-0.07944695
63	0xbf2cf9ae	-0.6756848

N.layers.0.bias f4 [32]
0	0x3f173174	0.59059834
1	0x3f51d02e	0.8195828
2	0xbead595d	-0.3385724
3	0xbefe6543	-0.49686632
4	0xbf32dfd9	-0.69872814
5	0x3f499dfe	0.787567
6	0x3f5ee5a8	0.8706918
7	0xbf60866a	-0.877051
8	0xbf096a7c	-0.5367811
9	0x3ed10940	0.4082737
10	0xbf1912e0	-0.59794426
11	0xbf641fcd	-0.89111024
12	0xbe9879ea	-0.29780513
13	0x3f3f4273	0.7471077
14	0x3f53e0e0	0.82765007
15	0x3e5f3cae	0.21800491
16	0x3f25e421	0.6480122
17	0x3f10f297	0.5662016
18	0xbf3fec91	-0.74970347
19	0x3f34953d	0.7054022
20	0xbf2784ca	-0.65436995
21	0xbf61d991	-0.88222605
22	0x3e1921f5	0.1495436
23	0xbf3ccea4	-0.7375281
24	0x3f10fc69	0.5663515
25	0xbd4a1ae3	-0.049342047
26	0x3eb55bf9	0.35421732
27	0x3f04db73	0.5189735
28	0xbee3d251	-0.44496396
29	0xbe84df6e	-0.25951713
30	0x3f1642d4	0.5869572
31	0xbe9da047	-0.30786344

N.layers.1.weight f4 [32, 32]
0	0x3df3f537	0.119120054
1	0x3d90a359	0.07062406
2	0x3e4ca2e2	0.1998401
3	0x3ea6eaa8	0.32600904
4	0xbc8a5df1	-0.016890498
5	0x3cf50452	0.029909287
6	0x39597d3d	0.00020741388
7	0x3ce50f14	0.027961291
8	0x3e35f5cc	0.17769545
9	0x3e92f294	0.28700697
10	0x3e27234c	0.16322058
11	0x3d779b7c	0.060451016
12	0x3e981281	0.29701617
13	0x3d825a4b	0.06364878
14	0xbd9094d4	-0.07059637
15	0x3e2777f8	0.16354358
16	0x3d083130	0.033250034
17	0x3d7c4e75	0.06159826
18	0x3e58b160	0.21161413
19	0x3db465ef	0.08808505
20	0x3e7c810f	0.24658607
21	0x3e2126b0	0.15737414
22	0xbd9e3cb1	-0.0772642
23	0x3e3ac823	0.18240409
24	0x3d646fcf	0.05577069
25	0x3e6f5182	0.23370937
26	0x3dcbfb4e	0.09960042
27	0x3e2dcd52	0.16972855
28	0x3dcc5b97	0.09978407
29	0x3d844442	0.06458332
30	0x3e28fc2d	0.16502447
31	0x3d867526	0.06565313
32	0xbe9a58ef	-0.30145976
33	0x3d07ff5b	0.03320251
34	0x3e64b3e8	0.22334254
35	0xbdd33242	-0.1031232
36	0x3e289263	0.16462092
37	0xbe6b9a1a	-0.23008004
38	0x3d82a926	0.06379919
39	0x3d9b119f	0.0757172
40	0x3d03c893	0.032173704
41	0xbdf363fa	-0.118843034
42	0xbe305c0e	-0.17222616
43	0x3e5313e8	0.20613062
44	0xbda3d428	-0.0799945
45	0xbe8bb7bf	-0.27288625
46	0x3cf4be13	0.02987579
47	0xbe99b973	-0.300243
48	0xbe9657f7	-0.29363987
49	0x3c96529d	0.01834994
50	0x3daa8025	0.08325223
51	0xbe91bcde	-0.28464407
52	0xbdadd826	-0.08488493
53	0xbda7dd9c	-0.081965655
54	0x3de8a564	0.11359671
55	0xbd76ffb3	-0.060302448
56	0x3e0ecd24	0.13945442
57	0x3d976df8	0.07394022
58	0xbd8723e0	-0.065986395
59	0xbdf73231	-0.1207012
60	0xbe0030b9	-0.12518586
61	0x3ddd674f	0.1081072
62	0xbea0ff4f	-0.31444785
63	0xbe36fa03	-0.1786881
64	0x3d761501	0.060078625
65	0xbce14ad4	-0.027501501
66	0x3deac71f	0.114637606
67	0xbd7a493a	-0.06110499
68	0x3d016ea0	0.03159964
69	0xbd273f70	-0.040831983
70	0x3d5af9e1	0.05346096
71	0xbc3c86a8	-0.011506714
72	0x3db294d1	0.08719791
73	0xbd0f0323	-0.0349151
74	0x3df7267f	0.120678894
75	0x3dcdd06a	0.100495175
76	0xbd0efa52	-0.034906693
77	0x3e3c67ec	0.18399018
78	0x3e0b1e54	0.13585788
79	0x3da4e267	0.08050995
80	0x3d854342	0.06506969
81	0x3d8c72bc	0.06857821
82	0xbcb177b9	-0.021663534
83	0x3e578e33	0.21050338
84	0x3db3cb94	0.08779064
85	0x3e1b6f7b	0.15179245
86	0x3de3d40c	0.11124429
87	0x3e235467	0.15950166
88	0x3e7cb4aa	0.24678293
89	0xbcb0fb91	-0.021604331
90	0x3db4a1cb	0.08819922
91	0x3e12221f	0.14270829
92	0x3e3f45c3	0.18678956
93	0x3dc1db4f	0.09465658
94	0xbd2820d2	-0.041046925
95	0x3e2c247d	0.16810794
96	0x3c34c805	0.0110340165
97	0xbd30142f	-0.042988
98	0x3e02876c	0.12746972
99	0x3e961cce	0.2931885
100	0x3e41085c	0.18850845
101	0x3e085515	0.13313706
102	0xbd9b754f	-0.07590734
103	0x3e79e536	0.24403843
104	0x3e28486b	0.16433875
105	0xbdb63ba2	-0.08898093
106	0x3e3368c1	0.17520429
107	0xbcdcf99f	-0.026974497
108	0xbce1172a	-0.027476866
109	0x3d9f9f4d	0.07794056
110	0x3e22df44	0.15905482
111	0x3b7ba1d8	0.0038396027
112	0x3e07e00e	0.13269064
113	0x3d45329c	0.048143968
114	0x3db29ea2	0.08721663
115	0x3e136d9a	0.14397278
116	0x3e8ae8b3	0.2713066
117	0xbc651134	-0.013981152
118	0xbdb5357c	-0.08848092
119	0xb9880008	-0.00025939965
120	0x3e86410b	0.262215
121	0x3d143500	0.036183357
122	0x3daf14bc	0.08548877
123	0x3de9d109	0.114168234
124	0x3dda0c88	0.106469214
125	0xbb5bdc6e	-0.0033548134
126	0x3dd582dd	0.10425351
127	0x3e439b0c	0.19102114
128	0xbda04997	-0.07826536
129	0xbd39ec31	-0.045391265
130	0x3ce23f81	0.027618172
131	0xbe7def45	-0.24798305
132	0xbe4a85d2	-0.19777611
133	0xbe0a9f95	-0.13537438
134	0xbc7037d7	-0.014661751
135	0xbe971da0	-0.2951479
136	0xbe82528d	-0.25453606
137	0xbe9fdf36	-0.31224984
138	0xbddefbaa	-0.10887845
139	0x3c1c220c	0.009529602
140	0xbd9f47bc	-0.07777354
141	0xbd98a32a	-0.07452996
142	0xbb6284fa	-0.0034564123
143	0xbe4984a7	-0.19679509
144	0xbe95afb3	-0.2923561
145	0xbe04365c	-0.12911361
146	0xbe117ca5	-0.14207704
147	0xbd216d7e	-0.03941106
148	0xbe13c9d7	-0.14432465
149	0xbe4fe0db	-0.2030062
150	0x3d065049	0.03279141
151	0xbe853726	-0.26018637
152	0xbd4ffe1c	-0.050779447
153	0xbe3b9f04	-0.18322378
154	0x3d6e57c0	0.058189154
155	0xbbcb3ee9	-0.006202568
156	0xbe49ea63	-0.19718318
157	0x3a8fedd5	0.0010980914
158	0xbe371c04	-0.17881781
159	0xbd901a15	-0.07036225
160	0x3d0509cf	0.032480057
161	0xbdb7f4d1	-0.08982242
162	0xbe1380e3	-0.14404635
163	0xbe1a23ab	-0.15052669
164	0x3b9d73e4	0.004805075
165	0xbe86eebe	-0.2635402
166	0xbe1f8ac5	-0.1558028
167	0x3c756778	0.014978282
168	0x3b3a187e	0.0028395946
169	0xbe25b2cb	-0.16181485
170	0x3d28b089	0.041183982
171	0xbdc9f514	-0.09861198
172	0x3c5fc5cb	0.013657997
173	0xbd707baa	-0.058711685
174	0xbc1ed3fe	-0.009694098
175	0x3d4021ff	0.04690742
176	0xbc236206	-0.009972101
177	0xbe8d4be1	-0.27596954
178	0xbdbcebce	-0.09224664
179	0xbbab4883	-0.00522715
180	0xbe61ef28	-0.22063887
181	0xbc395d2c	-0.011313718
182	0x3c7d3bd5	0.01545616
183	0x3d20f89e	0.0392996
184	0xbd0569c4	-0.03257157
185	0x3c7df5b8	0.015500478
186	0xbe0e7a92	-0.13913944
187	0xbe5aac2d	-0.21354742
188	0xbd8d44da	-0.06897898
189	0xbe8244eb	-0.25443205
190	0xbcda086a	-0.02661534
191	0xbd9e2a62	-0.07722928
192	0xbe1872e6	-0.1488758
193	0xbc4ff047	-0.012691564
194	0xbe8cde0e	-0.27513164
195	0xbe8fe703	-0.28105935
196	0x3d4167e5	0.047218222
197	0xbe42011b	-0.18945734
198	0x3d3b21c7	0.04568651
199	0xbe0abb13	-0.13547926
200	0xbe671316	-0.22565874
201	0xbd01bf99	-0.031676862
202	0xbdd02488	-0.10163218
203	0xbe952ce1	-0.29135802
204	0xbe949d46	-0.2902624
205	0x3bfcfc59	0.007720512
206	0x3d1cf818	0.03832254
207	0xbd9057c1	-0.07047988
208	0xbd806436	-0.06269114
209	0x3d1e5c82	0.03866244
210	0xbe8fb6b8	-0.2806909
211	0xbe9b9be6	-0.3039238
212	0xbe0629dc	-0.13101906
213	0xbe7f6d79	-0.24944104
214	0xbde85752	-0.1134478
215	0xbd70ca8d	-0.058786917
216	0xbe3f9372	-0.1870859
217	0xbe02c213	-0.12769346
218	0xbd7c08de	-0.061531894
219	0xbd0cdbcb	-0.0343893
220	0x3a867f91	0.0010261406
221	0xbe0b9435	-0.13630755
222	0xbd35859e	-0.04431688
223	0xbc87f710	-0.0165973
224	0xbe057442	-0.1303263
225	0xbb4741d1	-0.003040422
226	0xbdd4eb24	-0.10396412
227	0xbe93dac6	-0.28877848
228	0xbd190bff	-0.037364956
229	0xbe9f8f28	-0.31163907
230	0x3d747bb0	0.05968827
231	0x3b581c4d	0.0032975853
232	0x3da95d7b	0.08269783
233	0xbdecdfeb	-0.115661465
234	0xbe415d11	-0.18883158
235	0xbdca8441	-0.09888507
236	0xbe03271a	-0.12807885
237	0xbdc5043c	-0.09619948
238	0x3bf8999f	0.0075866724
239	0xbd95957a	-0.07303901
240	0xbd3ac1ad	-0.04559486
241	0x3e060c0f	0.13090537
242	0xbe95ba1e	-0.2924356
243	0xbea346e4	-0.31890023
244	0xbe3dd0d9	-0.185367
245	0xbe1e295f	-0.1544547
246	0xbca92f21	-0.020652356
247	0xbce07b77	-0.027402623
248	0xbdc865de	-0.097850546
249	0xbdd503e3	-0.10401132
250	0x3d8f6145	0.070009746
251	0xbe116af8	-0.14200962
252	0xbdc34eba	-0.095365
253	0xbe9209d8	-0.28523135
254	0x3d9a2925	0.07527379
255	0xbe443284	-0.19159895

N.layers.1.bias f4 [32]
0	0x3d97da28	0.07414657
1	0xbe89ae82	-0.2689095
2	0xbd2f29d7	-0.04276451
3	0x3e314022	0.17309621
4	0xbd124e4d	-0.035719205
5	0xbe56dd75	-0.20982917
6	0xbdb140e2	-0.086549535
7	0xbe3f4f86	-0.1868268
8	0xbe042c7c	-0.12907594
9	0x3ea52962	0.32258135
10	0xbe97c89b	-0.29645237
11	0xbdd685da	-0.10474749
12	0x3d597807	0.053092983
13	0x3e8a5906	0.27021044
14	0x3e3cc475	0.18434317
15	0x3e052a31	0.13004376
16	0xbe65f1da	-0.2245554
17	0xbd32fac4	-0.04369618
18	0xbe9e7bc0	-0.3095379
19	0x3e90207b	0.2814978
20	0x3da315df	0.07963156
21	0xbda05571	-0.07828797
22	0x3c0948a1	0.0083791325
23	0x3bfbfae0	0.0076898187
24	0xbe9f8ebf	-0.31163594
25	0xbe4561f4	-0.19275647
26	0xbe494201	-0.19654085
27	0x3df1f870	0.11814964
28	0x3dfa8738	0.12232822
29	0x3bd39353	0.0064567714
30	0x3e0693e2	0.1314235
31	0xbd8b0f39	-0.06790013
