Birth-Death-0.1--1d/experiments/cnf/toy/2020_10_20_22_43_43_8gaussians_alph100_0_m32_checkpt.pth (torch_old, 6649 bytes, 7 tensors)

A f4 [2, 2]
0.5148234 -0.78712225 -0.29645807 0.8181666
00000000: 77cb 033f d880 49bf 5ac9 97be 5e73 513f

c.weight f4 [1, 2]
0.09485511 -0.0020046434
00000000: 6543 c23d 5660 03bb

w.weight f4 [1, 32]
0.8113809 0.80072427 0.8090045 1.1792817 0.8039841 0.8057797 0.8011705 0.8010725
0.800261 0.8000984 0.8007991 0.8247402 0.8083154 0.8226509 0.7999612 0.80880386
0.79991984 0.8097706 0.800054 0.8029496 0.80231506 0.79990864 0.8003959 0.8055887
0.83196884 0.8045655 0.8014928 0.8000747 0.8152334 0.80208087 0.81463116 0.80440146
00000000: a9b6 4f3f 44fc 4c3f eb1a 4f3f b4f2 963f
00000010: e7d1 4d3f 9447 4e3f 8319 4d3f 1613 4d3f
00000020: e8dd 4c3f 40d3 4c3f 2b01 4d3f 2c22 533f
00000030: c2ed 4e3f 4099 523f 42ca 4c3f c50d 4f3f
00000040: 8cc7 4c3f 204d 4f3f 57d0 4c3f 1b8e 4d3f
00000050: 8564 4d3f d0c6 4c3f bfe6 4c3f 103b 4e3f
00000060: e9fb 543f 01f8 4d3f a22e 4d3f b2d1 4c3f
00000070: 23b3 503f 2c55 4d3f ab8b 503f 41ed 4d3f

N.layers.0.weight f4 [32, 2]
0.13703479 -0.017413644 0.41357303 0.060557283 0.018654676 0.28691858 -0.019840833 -0.47560447
-0.3695124 -0.47172186 0.21509084 -0.86818564 0.46732467 0.12689975 -0.4014321 -0.53030914
0.5043926 0.46287364 -0.5016628 0.7868878 -0.3128351 -0.5081601 -0.017150376 -0.22579002
0.15225387 0.26126838 0.06323729 -0.5472689 -0.15487994 -0.84952724 -0.005380479 0.26247123
0.4620946 -0.5950659 -0.04822849 0.7082082 0.43001083 -0.8493701 0.373776 0.8762971
0.29636157 -0.04547614 -0.46752125 -0.06949861 -0.32998273 -0.8049246 -0.17802688 0.4443439
0.27960318 -0.3249072 0.22149411 -0.13616486 0.24817328 -0.22517231 -0.21051736 -0.28160015
-0.062524386 -0.78576946 0.43753877 0.49995166 0.015352247 0.31807613 0.027761154 -0.7275193
00000000: d952 0c3e 0fa7 8ebc d8bf d33e ea0a 783d
00000010: b1d1 983c fee6 923e 3e89 a2bc 6e82 f3be
00000020: bb30 bdbe 8785 f1be c640 5c3e 6a41 5ebf
00000030: 2e45 ef3e 02f2 013e 8288 cdbe 57c2 07bf
00000040: e01f 013f c6fd ec3e f96c 00bf 7b71 493f
00000050: ec2b a0be c816 02bf f27e 8cbc 8035 67be
00000060: 70e8 1b3e f8c4 853e 8d82 813d d119 0cbf
00000070: d998 1ebe 9e7a 59bf bb4e b0bb a162 863e
00000080: aa97 ec3e 3d56 18bf 3d8b 45bd 224d 353f
00000090: 612a dc3e 5270 59bf 915f bf3e 0255 603f
000000a0: b4bc 973e 3045 3abd f25e efbe 4a55 8ebd
000000b0: 7ff3 a8be 8a0f 4ebf ae4c 36be 0b81 e33e
000000c0: 2628 8f3e 3d5a a6be 5acf 623e cd6e 0bbe
000000d0: 2321 7e3e 9293 66be dd91 57be e52d 90be
000000e0: c90c 80bd 3028 49bf 1505 e03e aaf9 ff3e
000000f0: fe87 7b3c e0da a23e 5c6b e33c b43e 3abf

N.layers.0.bias f4 [32]
0.3298612 -0.8166345 0.08077443 -0.774633 -0.6077887 0.32326093 0.47207576 0.64976853
-0.4389942 0.48063728 0.007456051 0.21262164 0.53502655 0.13253552 -0.7298434 -0.60394406
-0.19844823 0.81744653 -0.38871118 -0.27313262 0.6874651 -0.13641897 -0.6404787 -0.8741351
0.7440585 -0.6450065 -0.6083193 0.70401424 -0.17871386 0.51253664 -0.039131828 -0.76453346
00000000: 91e3 a83e f50e 51bf 106d a53d 594e 46bf
00000010: 0a98 1bbf 7582 a53e eab3 f13e 3b57 263f
00000020: d9c3 e0be 1716 f63e e451 f43b 7db9 593e
00000030: 80f7 083f 64b7 073e 04d7 3abf 149c 1abf
00000040: 0336 4bbe 2d44 513f 2705 c7be 0ad8 8bbe
00000050: b6fd 2f3f 6ab1 0bbe 69f6 23bf 51c7 5fbf
00000060: 9e7a 3e3f 251f 25bf d0ba 1bbf 473a 343f
00000070: c400 37be 9a35 033f b248 20bd 77b8 43bf

N.layers.1.weight f4 [32, 32]
0.11093361 0.15044574 -0.20522211 -0.2015617 -0.35662892 0.036588117 0.09639584 -0.072444834
0.07640805 0.118059 -0.08630941 -0.31060535 -0.11074818 -0.31638724 -0.17252177 -0.27684897
0.045487307 -0.19335657 0.05037826 0.14326838 -0.08631227 0.017600976 -0.045754388 -0.07351384
0.07861875 -0.12870443 0.0071309097 -0.032330386 -0.0698859 0.038962487 -0.31768745 -0.21327655
-0.048993465 -0.05808648 -0.33835748 -0.03506149 -0.043854773 -0.1102204 0.16173767 -0.022007715
0.2204729 0.19603336 0.02841112 -0.17753792 -0.11004506 -0.27879667 -0.1225403 -0.2154131
0.17142315 -0.22216803 0.16783082 0.002182745 0.010834463 -0.026687915 0.08657198 0.018277787
0.06551335 -0.33550245 -0.010169692 -0.122677505 -0.33969086 0.08389517 -0.1800677 -0.09239755
-0.050748684 -0.20601976 -0.18393634 -0.29082143 -0.19894616 0.021838631 -0.16616498 0.024846395
0.013672229 -0.17871533 0.032374743 -0.10891842 -0.15912156 -0.15256746 -0.2149757 -0.1976666
-0.21224795 -0.06771328 0.035806533 -0.263077 -0.03010176 -0.014990349 0.002105275 -0.24130063
-0.00015563495 -0.0815682 -0.08387307 0.023396876 -0.0032297433 -0.16119204 -0.20692082 0.011970793
-0.104811154 0.05711794 -0.28585365 -0.06031917 -0.13322738 0.010586624 0.33254132 0.1331254
0.23200089 -0.10186526 -0.08478872 -0.16498023 -0.12373071 -0.26049036 0.022859722 -0.25401062
0.3203073 -0.32042158 -0.17705956 0.2836195 -0.16782834 0.2992943 -0.10627266 -0.18513086
0.07339295 0.10400509 -0.23001787 0.07633154 -0.10344333 0.055853713 -0.20178661 -0.23796009
-0.033805355 -0.0066198437 0.009284063 0.2177495 -0.030089555 0.0017819048 0.07405116 -0.055074245
0.27726388 0.22405055 -0.039673652 0.15943068 0.09621365 0.03710004 0.064972356 0.17848055
0.017103028 0.2984772 -0.008197116 -0.023348186 0.25454694 0.015991569 -0.007437945 0.22628734
0.12627313 0.002736371 0.25264648 -0.03698369 0.25906482 0.09099228 0.1141986 0.3195046
-0.020683773 0.07167747 -0.26863527 -0.13224328 0.15325479 -0.06324973 0.09441355 0.07173142
0.18080863 0.17763697 -0.051133547 -0.21188149 0.08215981 0.062563725 0.20098004 -0.3369692
0.03468986 -0.071577534 0.14552253 -0.08490996 -0.012585391 0.2509627 0.14096008 0.17172664
-0.0842002 -0.040957503 0.07128867 0.13213007 -0.11183399 -0.040344168 -0.3531571 -0.048398886
-0.15935966 -0.22032812 0.0828339 0.090352565 0.009762542 0.049905814 -0.07392268 -0.09670313
-0.010469838 -0.019632623 -0.17682628 0.019951724 0.013271066 0.3518364 0.08019836 0.28895068
-0.20000458 0.11016053 0.06462937 0.066069625 -0.14241095 -0.20035265 -0.10937283 0.095913224
-0.12922359 0.06251701 -0.028390307 0.00433436 0.010167321 -0.09593177 0.27262795 -0.066495486
-0.058860064 -0.12903717 -0.09855515 -0.093818165 0.02633859 0.034790497 -0.19637725 -0.11994648
-0.027830523 -0.11514847 -0.011852742 -0.0067143636 -0.15929192 -0.24582346 -0.02779595 -0.13077672
0.028203562 -0.03019298 0.01747623 -0.27190733 -0.01943997 -0.0008866781 -0.20959881 -0.26669782
-0.22491124 -0.29876384 -0.005231721 -0.062679246 -0.31669348 0.050697103 0.012323207 -0.2631658
00000000: 2931 e33d 730e 1a3e bf25 52be 3166 4ebe
00000010: 1198 b6be 6cdd 153d 2f6b c53d f55d 94bd
00000020: d37b 9c3d ebc8 f13d fdc2 b0bd aa07 9fbe
00000030: f1cf e2bd 82fd a1be 8ca9 30be 26bf 8dbe
00000040: e650 3a3d 44ff 45be 6f59 4e3d f2b4 123e
00000050: 7dc4 b0bd ec2f 903c f468 3bbd 6d8e 96bd
00000060: de02 a13d 18cb 03be 68aa e93b de6c 04bd
00000070: 5720 8fbd 2197 1f3d eea7 a2be 2b65 5abe
00000080: 5fad 48bd 17ec 6dbd 313d adbe a39c 0fbd
00000090: 10a1 33bd 3cbb e1bd 8f9e 253e 8649 b4bc
000000a0: a6c3 613e f8bc 483e 70be e83c 80cc 35be
000000b0: 4e5f e1bd 70be 8ebe 69f6 fabd 4095 5cbe
000000c0: 8d89 2f3e 0480 63be d8db 2b3e 620c 0f3b
000000d0: 0883 313c 9da0 dabc a64c b13d 4cbb 953c
000000e0: dd2b 863d fac6 abbe c89e 26bc 583e fbbd
000000f0: f6eb adbe 3bd1 ab3d ab63 38be ed3a bdbd
00000100: dadd 4fbd d8f6 52be cf59 3cbe 8ce6 94be
00000110: 8bb8 4bbe eee6 b23c 2727 2abe ab8a cb3c
00000120: 7c01 603c 2701 37be 619b 043d 9f10 dfbd
00000130: c3f0 22be a53a 1cbe 9722 5cbe 1d69 4abe
00000140: 8757 59be 43ad 8abd dfa9 123d 07b2 86be
00000150: f797 f6bc 159a 75bc a7f8 093b 8317 77be
00000160: f031 23b9 3a0d a7bd a5c5 abbd ceaa bf3c
00000170: 1aaa 53bb 870f 25be 0de3 53be 2521 443c
00000180: 3ba7 d6bd 80f4 693d 695b 92be 3c11 77bd
00000190: c26c 08be 8573 2d3c db42 aa3e 0652 083e
000001a0: a491 6d3e bc9e d0bd b5a5 adbd 94f0 28be
000001b0: 8766 fdbd fe5e 85be 5044 bb3c ae0d 82be
000001c0: 52ff a33e 4c0e a4be 1a4f 35be 9336 913e
000001d0: 31db 2bbe 1a3d 993e 7ba5 d9bd f292 3dbe
000001e0: 0b4f 963d 9f00 d53d ce89 6bbe b653 9c3d
000001f0: 19da d3bd ddc6 643d 26a1 4ebe cfab 73be
00000200: 7c77 0abd 46eb d8bb 2f1c 183c baf9 5e3e
00000210: 5f7e f6bc ce8e e93a 22a8 973d 8895 61bd
00000220: 88f5 8d3e 826d 653e d780 22bd cc41 233e
00000230: aa0b c53d 36f6 173d 3a10 853d 9bc3 363e
00000240: a61b 8c3c 01d2 983e 324d 06bc b244 bfbc
00000250: fa53 823e c000 833c 01ba f3bb deb7 673e
00000260: be4d 013e b054 333b e15a 813e 367c 17bd
00000270: 25a4 843e 295a ba3d f5e0 e93d 1b96 a33e
00000280: 0471 a9bc a3cb 923d 908a 89be c86a 07be
00000290: d3ee 1c3e 1389 81bd e45b c13d ece7 923d
000002a0: e625 393e 77e6 353e 6971 51bd 76f7 58be
000002b0: 6743 a83d 6921 803d b6cd 4d3e 3a87 acbe
000002c0: f416 0e3d 3e97 92bd dc03 153e 46e5 adbd
000002d0: f532 4ebc 2f7e 803e d757 103e 1cd9 2f3e
000002e0: 2871 acbd 0ec3 27bd cbff 913d 1b4d 073e
000002f0: 3809 e5bd ed3f 25bd 02d1 b4be e93d 46bd
00000300: 2e2f 23be b29d 61be d2a4 a93d c40a b93d
00000310: 12f3 1f3c 0a6a 4c3d c664 97bd 4a0c c6bd
00000320: af89 2bbc 98d4 a0bc f311 35be cc71 a33c
00000330: e36e 593c e723 b43e 0a3f a43d 58f1 933e
00000340: 00ce 4cbe d89b e13d 675c 843d 834f 873d
00000350: 2dd4 11be 3f29 4dbe ddfe dfbd 276e c43d
00000360: 3053 04be eb08 803d ca92 e8bc 3f07 8e3b
00000370: d694 263c e077 c4bd e495 8b3e c92e 88bd
00000380: 4017 71bd 5222 04be 48d7 c9bd bd23 c0bd
00000390: 07c4 d73c 7b80 0e3d 1e17 49be 80a6 f5bd
000003a0: d6fc e3bc f6d2 ebbd 0132 42bc 2a04 dcbb
000003b0: 6c1d 23be 25b9 7bbe 55b4 e3bc 55ea 05be
000003c0: 280b e73c 4557 f7bc 502a 8f3c 7037 8bbe
000003d0: 9240 9fbc f66f 68ba 12a1 56be 9e8c 88be
000003e0: 224f 66be 93f7 98be db6e abbb fa5d 80bd
000003f0: a625 a2be c4a7 4f3d 47e7 493c abbd 86be

N.layers.1.bias f4 [32]
-0.2259641 -0.14982104 -0.12581453 -0.28646895 0.20320754 -0.1441194 0.29262716 -0.17109522
0.27132678 0.13798234 -0.23540922 0.25012442 0.15422048 -0.11710207 0.020966293 0.02620082
0.008995869 0.17979331 -0.11969264 0.17740501 0.18756656 0.16231161 -0.3073761 -0.16673468
0.29801768 -0.32279775 -0.17007263 -0.079051174 -0.13429517 -0.20260638 -0.014896005 -0.017948464
00000000: 2263 67be b06a 19be 86d5 00be 0fac 92be
00000010: a315 503e 0994 13be 3ad3 953e 9633 2fbe
00000020: 58eb 8a3e 3e4b 0d3e 1d0f 71be 4f10 803e
00000030: f9eb 1d3e 36d3 efbd 81c1 ab3c 1aa3 d63c
00000040: 6963 133c bd1b 383e 6a21 f5bd a9a9 353e
00000050: 7311 403e 0435 263e 6660 9dbe 7fbc 2abe
00000060: c695 983e bf45 a5be 8527 2ebe 95e5 a1bd
00000070: ac84 09be 0c78 4fbe 600e 74bc a808 93bc
