Birth-Death-0.1--1d/experiments/cnf/toy/2020_10_20_13_47_24_8gaussians_alph100_0_m32_checkpt.pth (torch, 8201 bytes, 7 tensors)

A f4 [2, 2]
00000000: 50a0 c5bd e392 eb3e e5ca 2fbd 4713 28bf
-0.09649718 0.46010503 -0.042918105 -0.65654415

c.weight f4 [1, 2]
00000000: 9395 ecbd cd12 f73d
-0.115519665 0.12064133

w.weight f4 [1, 32]
00000000: 91ff 4c3f fe81 513f 76db 4c3f 0e5d 4d3f
00000010: 4c48 4d3f 7a0b 4e3f 7d29 4d3f 55bd 4d3f
00000020: 61c4 4c3f 515a 4d3f 507b 4f3f 5f14 4d3f
00000030: 3e7e 4d3f 5deb 4c3f 7748 4d3f f6c3 4c3f
00000040: fcff 4c3f f818 4d3f 54bb 4e3f 1d93 4d3f
00000050: 14c4 4c3f a4a7 523f 40de 4c3f 00c6 4c3f
00000060: 78ed 4e3f a8c8 4c3f 8433 4d3f c287 4d3f
00000070: a2d9 4e3f dbca 503f 80c7 4d3f 639d 963f
0.80077463 0.8183898 0.8002237 0.80220115 0.8018844 0.8048626 0.8014143 0.8036702
0.7998715 0.80215937 0.81047535 0.8010921 0.80270755 0.80046636 0.801887 0.7998651
0.800781 0.80116224 0.8075459 0.803026 0.7998669 0.8228705 0.80026627 0.79989624
0.808311 0.7999368 0.8015673 0.80285275 0.8080083 0.8155953 0.8038254 1.1766781

N.layers.0.weight f4 [32, 2]
00000000: d9cc 943e da6c 94bd 68bb 443a 4ff4 903e
00000010: 040c 813e 049e 163f 433b c73e ba45 48bf
00000020: 537b 01bf 698f 36bf af37 4cbe c956 6fbd
00000030: 97a5 3c3d 42cd 043f b926 463d 295c 44bf
00000040: 435c 13bd 633f 533e 1c22 b43e a22d c5be
00000050: 785b 083e c45a 2cbf 7b8f e93e d3b7 92be
00000060: f518 7ebe a2c5 2ebf 2a08 2bbe 3c37 16bf
00000070: af08 aebe 5b5b e83c 6cde c53e 0e2c cfbe
00000080: 4c4d e73e effc 873e 4562 ef3e 84dc eebe
00000090: 86d0 70bd 1ab1 093e b2e1 d7be 561b d13e
000000a0: 76b5 eb3e 13a9 34bf 13ed 623d 1014 813e
000000b0: 600e f33e 5c32 c83e 5842 8d3e 6d11 04bf
000000c0: ae4f a23d 6085 4ebf 24cb 96be 2518 d6be
000000d0: e314 683e 2681 bb3e 97f7 be3e 9f01 a13e
000000e0: 9737 a53d 29a3 75bc 375b 193d 7d84 23bf
000000f0: f288 a43e 3b29 0d3f f8fb 3ebc 5968 16be
0.29062536 -0.07247324 0.00075047323 0.28311393 0.2520448 0.5883486 0.389124 -0.78231394
-0.505788 -0.71312577 -0.19943117 -0.058432374 0.046056356 0.518757 0.048376773 -0.76703125
-0.03597666 0.20629649 0.35182273 -0.38511378 0.13316143 -0.67326 0.4561728 -0.28655872
-0.24814208 -0.68270314 -0.16702333 -0.5867803 -0.33991 0.028363874 0.38646257 -0.404633
0.4517616 0.2656016 0.4675466 -0.46652615 -0.058792613 0.13446465 -0.4216438 0.40841168
0.4603688 -0.70570487 0.055401873 0.2521062 0.47471905 0.3910092 0.2758968 -0.5158909
0.07925354 -0.80672264 -0.2945186 -0.41815296 0.22664218 0.3662197 0.3729827 0.3144655
0.080672435 -0.014992514 0.037440505 -0.63874036 0.3213573 0.5514104 -0.011656754 -0.14688243

N.layers.0.bias f4 [32]
00000000: 36f6 e43e f524 413f 0387 313f 7b23 07bf
00000010: 0afb 0fbf 78a8 163f ce27 c33e 420e 02bf
00000020: 75f2 4d3f bfa0 d6bd 0214 57bf e5e2 abbe
00000030: 6114 4cbf 8a7d 55bf 5a55 5a3f a6fc 1dbe
00000040: fb37 793e 197f ea3e a2cc 793e 0d88 1d3f
00000050: 9a20 62bc 1c98 25bf 170f 3e3f 4132 e5be
00000060: af09 2abf fdc3 16bf a923 2a3f 45aa 2a3f
00000070: f18d 29bf 0085 f0be 701f 903e 5b1c 123f
0.44719094 0.75447017 0.69346637 -0.52788514 -0.5624243 0.5885081 0.38116306 -0.50803006
0.80448085 -0.10479879 -0.84014904 -0.33571544 -0.79718596 -0.8339468 0.85286486 -0.15428409
0.24337761 0.45800093 0.24394467 0.6153572 -0.013801718 -0.64685225 0.74241775 -0.44764903
-0.66421026 -0.58892804 0.66460663 0.6666606 -0.6623221 -0.4697647 0.28148985 0.57074517

N.layers.1.weight f4 [32, 32]
00000000: f85e 093e f956 78bd 8e31 8ebd 1ee0 263e
00000010: 56c9 d6bd 8e79 0bbc ca65 183e eb5a 0abd
00000020: 7629 b5be 9b97 3dbd 6ece b1be 0cad b5bb
00000030: 5bed b5bc 5d25 07be 8fe6 003e 9ea6 323e
00000040: 484f f3bd 394b 6b3e 74ca 24be 8795 2e3d
00000050: 32cd 8e3d c9fa 61be c694 4f3e 369d 943d
00000060: 8c65 a9be 24b3 d4bd fd0b 0cbc c933 3f3e
00000070: 7288 94be d2d0 02be 6997 b13d 85c2 42be
00000080: 5d9b 39be d07c c6bd c3aa 6cbe 937b a03c
00000090: a694 2d3d a924 a0bd 7205 2bbe 9eec 95be
000000a0: fced 6cbe 483c e4bd 6195 093d c97f 36bd
000000b0: 0c18 c1bd baac ce3b b8b1 a0bd eecb 23be
000000c0: caae 81bd 744d 76be ee06 6dbe 5625 90bd
000000d0: 74d0 85be e860 82bd 1398 28bb 1294 17bd
000000e0: b571 27bd 5804 18be fe05 3ebd a40b e1bd
000000f0: 5642 a7bd cda9 ddbb 711a 423c 8146 55bd
00000100: 6f5e 623e 9172 d13c 20b5 893e bb69 893c
00000110: 53f1 8838 8098 4b3e c1b8 9f3e 285c 1f3d
00000120: ea1e 9c3d 53f0 d13d 9889 2e3e f98d dbbc
00000130: 706b 013d 1fec f63c ac31 ae3d ffb8 40bd
00000140: 1acc 123d c414 7d3c fd14 683e 9697 e23d
00000150: c27c ea3d 6f4a 3b3e 90b4 f53d 54c5 c0bc
00000160: dd5b 493d 2d03 8f3e 529b 193e 8700 873e
00000170: 8cee 483e cfea da3d e981 7f3d d4f2 273c
00000180: 7eaf d8bc 8f73 20be 11d5 6ebd dd79 b1bb
00000190: 0aa5 ab3c c4c6 b93c ce78 96be 93a1 80be
000001a0: 2bd3 15bd 19cb 5ebc f2c0 8dbe 8816 813d
000001b0: 1cec 33be 332e 98be 7864 d9bc 7bcd 77bd
000001c0: abf7 98bb fb35 0a3e a742 83be 3a5d 63be
000001d0: dd33 343d 1961 9cbe aee7 d3bd eedc c1bd
000001e0: 8354 a1be 831d a0bc 4ac1 943c de1b 023d
000001f0: 9989 adbd 0c5a 64bd 5aac 0fbe b79d 4fbd
00000200: 1157 7d3e 7605 19bb 67fa 823c bd97 8a3e
00000210: e057 453e 8b7f aa3d f471 053e 875c 853e
00000220: 6c81 003e 9f57 0b3b 80af 473e 3163 55ba
00000230: 140f 7a3e d38a 133e 06ed ab3d ce55 f0ba
00000240: 757b 433d 22e5 073d 97ca 02bc ad92 263d
00000250: 9972 11bd 83c2 d3bc dc82 c73d a86a 6f3d
00000260: 4efc 223e b28d 813d c5cb 943e 367c af3d
00000270: 7784 fcbc 6e69 d33d c73a 753e 7402 8a3d
00000280: 6e36 513e 4efc f9bd 57b2 2a3e aa44 643d
00000290: 1607 3b3e 8a97 b43d e9aa d43c c441 2dbd
000002a0: e7b0 58bc 8ff3 723e d8f5 333d 9869 aa3d
000002b0: b0fd 00bd 1db4 2a3e f55f 743e 0267 883d
000002c0: 1530 353e a7e8 b0bd e96c 813e 88c3 083e
000002d0: 2feb 65bd 6b7f 8d3d 351b d63d e2d2 a23d
000002e0: 495c 27bd bd32 313e f272 9bbd 9692 2f3e
000002f0: a3ad c43d 34f5 623d b852 bd3c 77cf c5bc
00000300: 6770 88be ec94 8d3d aa52 6cbd 2b0f c2ba
00000310: 6a98 193d e74e 29bd 892d 85be bb6c 7bbe
00000320: 1a29 6dbd bf76 8f3b 7b7b abbb 3b22 f33c
00000330: d029 5cbe ddeb 5bbe 1858 59bc 60bc 91bc
00000340: a316 19be c03f 3ebe 55e8 d83c 60dd cebd
00000350: 7d71 84be af3b 963d 5d41 ee3c c04f 9dbd
00000360: 7c16 d43c 6718 913b abb7 243d c371 da3c
00000370: dbd9 90be 2db7 c93c 3acd 5cbe bc87 df3c
00000380: d12b a83c 246c 1bbe bd81 54be 41cc 36be
00000390: 6be2 d73c 1370 1abe b78a 04bc 3e5b 48be
000003a0: a1ff 06be 640d 3fbd 639b 2cbd ba95 0ebe
000003b0: 692a 00be 89ad bf3c 157a 55bd b485 9bbc
000003c0: ceee b1bd e865 14be fecc 7bbe d7d1 223d
000003d0: 4abd 6bbe 3828 aebd 3711 15bd c62d b23b
000003e0: dbbd b5bd cf89 c43c 649a 95bc 8dbd 9c3c
000003f0: e29f 96bd 587f e2bd 7728 04be aece 1abe
0.13415134 -0.06062982 -0.069430456 0.16296431 -0.104876205 -0.008512868 0.1488258 -0.033778112
-0.35383195 -0.04628716 -0.34727806 -0.0055443104 -0.022207906 -0.13197847 0.12587951 0.17446372
-0.11880356 0.22977914 -0.16092855 0.04262307 0.06972732 -0.22068323 0.20271596 0.07256548
-0.33085287 -0.10385731 -0.00854778 0.18672098 -0.2901035 -0.12774971 0.08671457 -0.19019516
-0.18125673 -0.09691775 -0.23112015 0.019590175 0.04237809 -0.07819492 -0.16701296 -0.29282087
-0.23137659 -0.1114431 0.033589724 -0.04455546 -0.09428415 0.0063072117 -0.07846397 -0.15995762
-0.063321665 -0.24052984 -0.23147175 -0.07038371 -0.261356 -0.0636614 -0.002572541 -0.037006445
-0.040879924 -0.14845407 -0.046392433 -0.109885484 -0.081669495 -0.0067646266 0.011847124 -0.05206919
0.22106336 0.025567325 0.26896 0.016774049 6.5299355e-05 0.19882393 0.31195644 0.038906246
0.07623084 0.10250916 0.17044675 -0.026801096 0.0315966 0.030141888 0.08505568 -0.047051426
0.035839178 0.015446845 0.22664256 0.11064069 0.11449577 0.18290113 0.1199733 -0.023531593
0.049159873 0.2793211 0.15000656 0.2636759 0.19622248 0.106893174 0.06237975 0.010250766
-0.026450869 -0.15669082 -0.058308665 -0.0054161386 0.02095272 0.022677787 -0.29389042 -0.2512327
-0.03657834 -0.013598227 -0.27686268 0.063031256 -0.17570537 -0.29722747 -0.026537165 -0.060498696
-0.004668196 0.13497154 -0.2563679 -0.22203532 0.043994773 -0.3054283 -0.10346924 -0.09465967
-0.3150979 -0.019545322 0.018158574 0.031764857 -0.0847351 -0.055749938 -0.1403059 -0.050687518
0.24740244 -0.0023349202 0.015988542 0.27068892 0.19271803 0.08325108 0.13031751 0.26047155
0.1254937 0.0021261943 0.19500542 -0.0008140086 0.24419814 0.14408426 0.08394818 -0.0018336119
0.04772516 0.033177502 -0.0079828715 0.040667225 -0.03550968 -0.025849586 0.09741756 0.058451325
0.15916559 0.06325854 0.29061714 0.08568613 -0.030824883 0.103228435 0.23948203 0.06738749
0.2043092 -0.122063264 0.16669594 0.055729546 0.18264422 0.08817966 0.025960403 -0.042299047
-0.013225771 0.23725723 0.043935627 0.08320922 -0.031491935 0.1667027 0.2386473 0.06660272
0.17694123 -0.08638125 0.25278404 0.13355839 -0.05613249 0.06909069 0.10454408 0.07950379
-0.040859494 0.17304511 -0.075902835 0.17145762 0.09603431 0.055409625 0.023110732 -0.024146779
-0.26648256 0.0691317 -0.057696022 -0.0014805546 0.03749887 -0.041335013 -0.26011303 -0.24553196
-0.057900526 0.0043781693 -0.005233226 0.029679408 -0.21500325 -0.21476693 -0.013265632 -0.01779002
-0.14950041 -0.18579006 0.026477972 -0.10100818 -0.25867835 0.073356025 0.029083902 -0.07681227
0.025889628 0.004427958 0.040214222 0.026665574 -0.2829121 0.024623478 -0.21562663 0.027286403
0.020528706 -0.15177971 -0.20752616 -0.17851354 0.026353082 -0.15081815 -0.008089713 -0.19566056
-0.13183452 -0.04664363 -0.042140376 -0.13924304 -0.12516178 0.023398178 -0.05211838 -0.018984653
-0.086881265 -0.14491999 -0.24589917 0.0397509 -0.23021427 -0.08503765 -0.03639337 0.0054375855
-0.08874103 0.023991494 -0.018262096 0.019133354 -0.07354714 -0.11059445 -0.12906061 -0.15117905

N.layers.1.bias f4 [32]
00000000: 4bba 79be b2c5 88be 19fa b53d 4329 a0be
00000010: 0887 973c 1cb0 f63d 641c 82bd 4bd8 61be
00000020: a33e 463e 4fce 8abe 799b 2dbe 5790 903e
00000030: 8a0d f4bc d7e0 93bc a684 483e 87d4 0d3e
00000040: 6eb5 123c 189a 8bbe 50fe a4bb 32cd 463e
00000050: 2911 d8bc 67eb c0bd 741a 4d3e dd42 563e
00000060: 2e21 863c af5d a6be a735 70bd 0f15 503d
00000070: 0db0 12be 4558 3cbe 98f2 4cbe 3760 d2bd
-0.24387471 -0.2671333 0.08885593 -0.3128148 0.018497005 0.12045309 -0.06353071 -0.22055165
0.19359832 -0.27110526 -0.1695384 0.28235123 -0.029791612 -0.018051548 0.19581851 0.13850604
0.008954389 -0.27266002 -0.005035199 0.19414213 -0.02637537 -0.094198994 0.20029622 0.20923944
0.016373243 -0.3249335 -0.058644917 0.050801333 -0.1432497 -0.18393047 -0.20014417 -0.10272258
