Birth-Death-0.1--1d/experiments/cnf/toy/2020_10_20_02_41_50_8gaussians_alph100_0_m32_checkpt.pth (torch, 8199 bytes, 7 tensors)

A f4 [2, 2]
0.5322339 0.13196439 -0.08462446 0.9867729
00000000: 7b40 083f ac21 073e 974f adbd 269d 7c3f

c.weight f4 [1, 2]
-0.4099713 1.9291154
00000000: c2e7 d1be 41ed f63f

w.weight f4 [1, 32]
-0.02427523 0.30996943 -0.04947971 0.016162563 0.25563428 -0.018883003 0.03933395 -0.10167844
0.06300374 -0.089255564 0.085404485 0.029481588 0.018593209 0.02400798 0.041910063 -0.20721945
-0.09116606 -0.07085877 0.04871958 0.6477437 0.0008269264 -0.108807795 0.012039497 0.021988388
-0.06499855 0.27401388 -0.008920227 -0.0813986 -0.0352094 0.030224405 -0.033962075 -0.1255697
00000000: d9dc c6bc 50b4 9e3e 3dab 4abd 5a67 843c
00000010: 7fe2 823e 87b0 9abc a31c 213d c93c d0bd
00000020: 1b08 813d 9fcb b6bd 8ce8 ae3d 5f83 f13c
00000030: c950 983c 62ac c43c e3a9 2b3d 5631 54be
00000040: 45b5 babd 671e 91bd 2f8e 473d 88d2 253f
00000050: 17c6 583a 9fd6 debd 4f41 453c fe20 b43c
00000060: f61d 85bd 8c4b 8c3e 2526 12bc 4fb4 a6bd
00000070: bb37 10bd 2c99 f73c d11b 0bbd 5895 00be

N.layers.0.weight f4 [32, 2]
-0.28741953 1.4275801 0.47467422 0.7604124 0.12049578 -0.9190647 0.07579679 -0.96580684
0.68849736 -0.7743692 -0.42493835 -1.48053 0.49369577 1.4550226 -0.41630176 1.1462015
-0.33499524 -1.7112055 -0.43129572 -1.2303061 -0.39451665 0.25916404 0.08955239 -0.8698475
0.47130594 0.32084674 -0.30665427 0.4188533 0.011036983 0.8338853 0.2323461 0.29605561
-0.4747016 -1.1077923 0.39204386 -1.5069884 0.4184729 1.3027275 -0.11361646 -0.2038772
0.12953119 -1.2581983 0.32007754 -1.5898246 0.067735106 0.9077443 0.46270373 1.2914412
0.46207163 -1.7528341 -0.67185646 -0.4588762 0.3436732 1.4334118 0.35099718 -1.3866673
-0.109323196 -0.2341604 -0.06802068 0.7400721 -0.12790419 1.4383756 0.44299853 -1.4752645
00000000: a728 93be f2ba b63f 8008 f33e 63aa 423f
00000010: 7ec6 f63d d347 6bbf 593b 9b3d 1e3f 77bf
00000020: 5d41 303f 0f3d 46bf 8591 d9be 0282 bdbf
00000030: b1c5 fc3e 2e3e ba3f 8125 d5be bbb6 923f
00000040: 7f84 abbe c808 dbbf cbd2 dcbe ac7a 9dbf
00000050: 16fe c9be 26b1 843e 3e67 b73d 53ae 5ebf
00000060: 034f f13e 0646 a43e ca01 9dbe f173 d63e
00000070: 76d4 343c 8279 553f 23ec 6d3e 9a94 973e
00000080: 170c f3be 23cc 8dbf f9b9 c83e ffe4 c0bf
00000090: 1442 d63e c6bf a63f bfaf e8bd 2fc5 50be
000000a0: d3a3 043e a40c a1bf 34e1 a33e 5f7f cbbf
000000b0: b4b8 8a3d ee61 683f 81e7 ec3e f24d a53f
000000c0: a794 ec3e de5c e0bf c9fe 2bbf d2f1 eabe
000000d0: eff5 af3e 0a7a b73f e7b5 b33e 507e b1bf
000000e0: d7e4 dfbd bec7 6fbe 6d4e 8bbd 5d75 3d3f
000000f0: 51f9 02be b11c b83f b4d0 e23e 78d5 bcbf

N.layers.0.bias f4 [32]
0.99175066 1.4738686 -1.1532278 -0.58535695 0.3703913 -1.4528052 1.1100292 1.4729023
-1.593668 -1.3782375 -1.2234762 -1.0032554 1.414141 1.3608507 -0.12100335 0.5538836
-1.6573337 -1.3558306 1.2862614 0.6205287 -0.75525296 -0.8710958 -0.43494081 1.078431
-0.55905807 0.24459974 0.8595436 -1.6974777 -1.2565421 1.3310877 0.63845557 -1.8050344
00000000: 5fe3 7d3f baa7 bc3f f89c 93bf f4d9 15bf
00000010: eea3 bd3e 85f5 b9bf 7015 8e3f 1088 bc3f
00000020: 50fd cbbf 166a b0bf de9a 9cbf ac6a 80bf
00000030: 9302 b53f 5b30 ae3f 9bd0 f7bd 51cb 0d3f
00000040: 8323 d4bf db8b adbf 37a4 a43f f8da 1e3f
00000050: 4258 41bf 2200 5fbf 90b0 debe 070a 8a3f
00000060: 6e1e 0fbf 5b78 7a3e 0d0b 5c3f f346 d9bf
00000070: 5fd6 a0bf 1561 aa3f d371 233f 5e0b e7bf

N.layers.1.weight f4 [32, 32]
-0.18157993 0.08816985 0.35960877 0.540572 0.25417426 0.3536578 0.020409852 0.13346033
0.24566461 0.11472269 0.097420685 0.5776663 0.04512154 -0.09781437 0.535608 0.43340594
0.25529495 0.0627534 0.16603778 0.5526019 0.69999343 -0.10272316 0.578811 0.098120004
0.17909488 0.52167237 -0.22868022 0.30024588 0.36620054 0.54285 0.54564315 0.4191731
0.29280192 0.4584989 -0.65278286 -0.41631433 -0.2245489 0.48001364 0.55042523 -0.33030817
0.21710393 0.4292018 0.67403865 -0.38346007 0.6181584 0.089297585 -0.3611008 0.24165925
0.52119774 -0.10784989 0.33658332 -0.7504106 -0.6265685 0.10478888 -0.6468362 0.5971033
-0.88592935 -0.7387343 0.40618905 -0.13335226 0.12752277 -0.29060042 -0.6292514 -0.5358955
0.21172926 0.047560886 0.5406153 0.5471617 0.3672138 0.14661103 0.04938569 0.07015685
0.36574966 0.13900064 -0.06877871 0.5963249 0.09573448 -0.15029344 0.41411367 0.46737108
0.3726384 0.050045706 -0.0022713835 0.3175956 0.6214125 0.18346341 0.3933735 -0.13351615
0.4505254 0.09498791 -0.21316075 0.106491104 0.3504169 0.40800703 0.46831742 0.31750798
-0.067920364 0.15184888 0.34287992 0.43554842 0.29436097 0.46321943 0.038967095 0.029284636
0.16887727 0.070389524 0.070386544 0.36982375 0.15226464 -0.1513367 0.64925075 0.25475237
0.07417066 0.24829145 -0.026036201 0.6008021 0.6424402 0.07423726 0.39526075 0.1142797
0.2105574 0.28295282 -0.105644375 0.14315677 0.27926192 0.59715724 0.6726114 0.13516366
-0.037673637 0.043951653 -0.55368924 -0.70675623 -0.49806944 -0.17583121 0.03433889 -0.04191894
-0.19378398 0.055525154 -0.01642029 -0.393876 -0.087351084 0.08561774 -0.676152 -0.52308434
-0.37564403 0.06756928 0.012207648 -0.50477076 -0.4176163 0.13030913 -0.5731584 -0.06589113
-0.21374129 -0.34895182 0.13190314 -0.0014873814 -0.5096476 -0.32800576 -0.4223464 -0.35794103
0.19891857 0.080136746 -0.42771763 -0.24525963 -0.21200983 -0.117921 0.09168312 -0.014360114
-0.057681303 0.035413656 0.037665874 -0.42510426 0.09588486 0.08037728 -0.13986959 -0.25825912
-0.13673434 -0.11559116 -0.0305133 -0.30810273 -0.31866148 0.060792755 -0.33990568 -0.017043857
-0.21586803 -0.07691288 0.020649936 0.011782442 -0.1482665 -0.14701326 -0.19809784 0.020353748
-0.3549219 -0.0450059 0.51681167 0.6002585 0.15809505 0.30176035 -0.11740052 0.14279012
0.14647222 0.02272355 -0.21670765 0.49181446 0.14145058 -0.35025477 0.5206774 0.24233371
0.08322052 -0.007994765 -0.02482256 0.32542428 0.41695872 -0.12465844 0.61240673 -0.3131598
0.1766901 0.41426325 -0.18654077 -0.25611007 0.17947759 0.27085832 0.39995545 0.10647721
0.5047547 0.35074916 -0.114728555 -0.46382797 0.5427112 0.12181965 0.38731328 0.6023753
-0.02492488 0.2586394 0.47396109 -0.11685686 0.38093424 0.7571075 -0.3940709 -0.3079096
0.24075942 0.71231824 0.18893304 -0.4977817 -0.5387712 0.549689 -0.36940053 0.4996663
0.117140345 0.007308703 0.644449 0.8662292 -0.0928882 -0.23991303 -0.3837773 1.0486765
00000000: 17f0 39be 6592 b43d a41e b83e ed62 0a3f
00000010: 2123 823e a312 b53e 9032 a73c d3a9 083e
00000020: 818f 7b3e bbf3 ea3d 7f84 c73d f0e1 133f
00000030: 5dd1 383d e752 c8bd 9b1d 093f 62e7 dd3e
00000040: 05b6 823e db84 803d cf05 2a3e 5177 0d3f
00000050: c532 333f 8560 d2bd f52c 143f 24f3 c83d
00000060: a664 373e 528c 053f 262b 6abe d4b9 993e
00000070: a37e bb3e 38f8 0a3f 45af 0b3f db9d d63e
00000080: 22ea 953e 5ec0 ea3e c71c 27bf 2727 d5be
00000090: 26f0 65be 59c4 f53e abe8 0c3f 271e a9be
000000a0: 7e50 5e3e 57c0 db3e cc8d 2c3f e154 c4be
000000b0: a13f 1e3f a7e1 b63d 34e2 b8be 8675 773e
000000c0: 376d 053f 67e0 dcbd a654 ac3e e91a 40bf
000000d0: cb66 20bf 8d9b d63d 0f97 25bf c3db 183f
000000e0: 44cc 62bf b11d 3dbf 03f8 cf3e 7f8d 08be
000000f0: 5495 023e 94c9 94be 9f16 21bf 7330 09bf
00000100: 8ecf 583e 34cf 423d c465 0a3f ca12 0c3f
00000110: 7203 bc3e 3421 163e a648 4a3d 65ae 8f3d
00000120: 8a43 bb3e 2f56 0e3e dadb 8cbd c0a8 183f
00000130: 7010 c43d 86e6 19be b506 d43e 434b ef3e
00000140: 76ca be3e bafc 4c3d 7edb 14bb e49b a23e
00000150: e414 1f3f d5dd 3b3e 4068 c93e 75b8 08be
00000160: 44ab e63e 0589 c23d d046 5abe 0218 da3d
00000170: d869 b33e 4ce6 d03e 4dc7 ef3e 6890 a23e
00000180: d519 8bbd 467e 1b3e f58d af3e 3400 df3e
00000190: 7bb6 963e 192b ed3e f69b 1f3d 55e6 ef3c
000001a0: 2aee 2c3e 6228 903d d226 903d 8a59 bd3e
000001b0: 43eb 1b3e 02f8 1abe 4c35 263f e76e 823e
000001c0: c9e6 973d 1d40 7e3e df49 d5bc 2bce 193f
000001d0: f676 243f b409 983d 9e5f ca3e 7a0b ea3d
000001e0: 5c9c 573e 31df 903e 145c d8bd b097 123e
000001f0: 6bfb 8e3e 4cdf 183f 4330 2c3f 5868 0a3e
00000200: ac4f 1abd a606 343d 94be 0dbf faed 34bf
00000210: f502 ffbe 190d 34be f0a6 0c3d 32b3 2bbd
00000220: 4f6f 46be 586e 633d d883 86bc 1daa c9be
00000230: 20e5 b2bd 5b58 af3d 4c18 2dbf dbe8 05bf
00000240: 6a54 c0be c361 8a3d 9602 483c a838 01bf
00000250: ced1 d5be c26f 053e 82ba 12bf eef1 86bd
00000260: ffde 5abe d0a9 b2be 9e11 073e 3df4 c2ba
00000270: 4478 02bf 5ff0 a7be ca3d d8be 0c44 b7be
00000280: 4fb1 4b3e bc1e a43d cefd dabe 5725 7bbe
00000290: 1b19 59be 9180 f1bd 5cc4 bb3d af46 6bbc
000002a0: 3b43 6cbd e90d 113d 8847 1a3d 44a7 d9be
000002b0: 485f c43d d89c a43d f939 0fbe 8a3a 84be
000002c0: 1604 0cbe 0fbb ecbd 07f7 f9bc a4bf 9dbe
000002d0: 9927 a3be d301 793d 1e08 aebe 8f9f 8bbc
000002e0: 820c 5dbe 8084 9dbd 0e2a a93c 250b 413c
000002f0: 2cd3 17be a58a 16be 29da 4abe e7bc a63c
00000300: 53b8 b5be 1b58 38bd c54d 043f 8baa 193f
00000310: abe3 213e 5580 9a3e af6f f0bd 9337 123e
00000320: d0fc 153e bd26 ba3c 9ce8 5dbe 1bcf fb3e
00000330: 6cd8 103e 9854 b3be 1d4b 053f 5426 783e
00000340: 856f aa3d 7afc 02bc ae58 cbbc 039e a63e
00000350: 9d7b d53e ed4c ffbd b0c6 1c3f 7b56 a0be
00000360: 40ee 343e 501a d43e 8b04 3fbe dc20 83be
00000370: f9c8 373e f1ad 8a3e f6c6 cc3e b910 da3d
00000380: 9b37 013f 6595 b33e cef6 eabd dc7a edbe
00000390: 1fef 0a3f 957c f93d ed4d c63e 4535 1a3f
000003a0: 432f ccbc 626c 843e 07ab f23e a652 efbd
000003b0: d009 c33e ccd1 413f a9c3 c9be 54a6 9dbe
000003c0: a389 763e 7d5a 363f aa77 413e 3edd febe
000003d0: e9ec 09bf 6bb8 0c3f 1122 bdbe 43d4 ff3e
000003e0: 47e7 ef3d d87d ef3b 9cfa 243f 32c1 5d3f
000003f0: 2b3c bebd c3ab 75be 757e c4be 083b 863f

N.layers.1.bias f4 [32]
0.4315992 -0.45625836 0.4368091 0.46428153 -0.7132421 -0.2998377 0.37648657 -0.099967785
0.56819916 0.4554143 0.42571953 0.4537026 0.44499463 0.43599075 -0.07767338 -0.5596746
0.69007534 0.24558042 0.08749199 0.62409264 -0.43933582 -0.34927213 -0.5073427 0.3107447
0.5372438 0.42873377 0.41908225 -0.54730314 0.6319679 -0.8893992 -0.5775096 -0.55225277
00000000: 92fa dc3e b29a e9be 71a5 df3e 4fb6 ed3e
00000010: 0997 36bf 5484 99be d9c2 c03e e9bb ccbd
00000020: 8075 113f 102c e93e e9f7 d93e b54b e83e
00000030: 56d6 e33e 2e3a df3e 3913 9fbd d646 0fbf
00000040: c7a8 303f 6f79 7b3e 002f b33d 89c4 1f3f
00000050: a0f0 e0be ccd3 b2be 36e1 01bf ee19 9f3e
00000060: cf88 093f fe82 db3e f391 d63e 0f1c 0cbf
00000070: a6c8 213f aaaf 63bf abd7 13bf 7060 0dbf
