Birth-Death-0.1--1d/experiments/cnf/toy/2020_10_20_22_36_00_8gaussians_alph100_0_m32_checkpt.pth (torch_old, 6649 bytes, 7 tensors)

A f4 [2, 2]
-0.06924338 0.63044524 0.027105344 0.7593062
00000000: 79cf 8dbd dc64 213f 070c de3c e461 423f

c.weight f4 [1, 2]
-0.18594852 0.008420705
00000000: 4a69 3ebe fff6 093c

w.weight f4 [1, 32]
0.8053057 0.80157685 0.8013601 0.8186076 0.80466443 0.80078244 0.8001513 0.81599456
0.8004312 0.82311296 0.8006155 0.8166541 0.800721 0.80365545 0.81331915 0.8005906
0.81190175 0.8001201 0.80410993 0.8141605 0.8126804 0.80021137 0.8037867 0.8095985
0.80311394 1.026865 0.82116216 0.80086285 0.7998946 1.025645 0.80021685 0.8000023
00000000: 8428 4e3f 2434 4d3f ef25 4d3f 4590 513f
00000010: 7dfe 4d3f 1400 4d3f b7d6 4c3f 05e5 503f
00000020: 0fe9 4c3f 88b7 523f 23f5 4c3f 3e10 513f
00000030: 0dfc 4c3f 5dbc 4d3f af35 503f 81f3 4c3f
00000040: cbd8 4f3f acd4 4c3f 26da 4d3f d36c 503f
00000050: d30b 503f a7da 4c3f f7c4 4d3f d941 4f3f
00000060: e098 4d3f 5070 833f af37 523f 5905 4d3f
00000070: e4c5 4c3f 5648 833f 03db 4c3f f3cc 4c3f

N.layers.0.weight f4 [32, 2]
-0.1526679 -0.5981712 -0.38011444 0.6221512 0.41051507 0.6619483 0.021345181 -0.49172753
0.1028441 -0.4996106 -0.42207217 0.30855882 -0.04568067 -0.10453048 0.10484957 -0.83765894
0.39074036 0.08546707 0.05462213 0.5547066 0.43929455 -0.8534926 -0.0667662 0.33971527
-0.37911785 0.27805158 -0.25642985 0.7202565 -0.044508833 0.80740464 -0.32672256 -0.1435671
-0.061512448 -0.2001372 0.14185394 -0.2586625 -0.23970854 -0.68279994 0.058721 -0.88352406
0.012345638 -0.1474265 0.38034877 -0.085956275 0.18113582 0.59503174 -0.050524235 0.199008
-0.11648197 0.72806114 0.006352191 -0.5467645 -0.030834707 0.5798929 -0.38003898 -0.75990856
-0.49338335 -0.61243176 0.03640776 0.5389499 0.41021734 -0.63974875 -0.111558855 -0.8418172
00000000: f954 1cbe bf21 19bf 5c9e c2be 4d45 1f3f
00000010: 082f d23e 7275 293f 17dc ae3c b6c3 fbbe
00000020: ed9f d23d f6cc ffbe d819 d8be 6cfb 9d3e
00000030: a71b 3bbd 1414 d6bd 5fbb d63d d170 56bf
00000040: 1f0f c83e 5c09 af3d 74bb 5f3d 4001 0e3f
00000050: 37eb e03e 7e7e 5abf b8bc 88bd 29ef ad3e
00000060: bc1b c2be c75c 8e3e c64a 83be bb62 383f
00000070: e54e 36bd 12b2 4e3f 2e48 a7be 4103 13be
00000080: 7af4 7bbd c4f0 4cbe 2942 113e 696f 84be
00000090: 2876 75be facb 2ebf 6e85 703d a22e 62bf
000000a0: 5c45 4a3c f9f6 16be 13bd c23e d809 b0bd
000000b0: ab7b 393e 0054 183f 80f2 4ebd c1c8 4b3e
000000c0: 198e eebd 3762 3a3f 0a26 d03b c2f8 0bbf
000000d0: 1199 fcbc dc73 143f 7894 c2be 5e89 42bf
000000e0: be9c fcbe 54c8 1cbf 4e20 153d 9ff8 093f
000000f0: 0208 d23e 93c6 23bf f878 e4bd 5581 57bf

N.layers.0.bias f4 [32]
-0.76806515 0.06925742 0.7092011 -0.5017735 0.71241593 -0.042991538 0.18378568 -0.6610347
-0.4686348 0.8806338 0.014367507 0.18448386 0.039407067 0.49418724 0.46275938 0.30262756
-0.32338685 -0.29094285 -0.31522655 -0.24793755 0.26561633 0.84201306 0.70315474 0.49116454
-0.09962225 0.18814799 -0.21085858 -0.8654454 -0.6456292 0.50518775 0.25919062 -0.43675113
00000000: eb9f 44bf d6d6 8d3d 348e 353f 3a74 00bf
00000010: e460 363f e517 30bd 5032 3c3e 9239 29bf
00000020: e7f0 efbe 3771 613f b165 6b3c 56e9 3c3e
00000030: 4e69 213d 1c06 fd3e ccee ec3e 00f2 9a3e
00000040: f692 a5be 76f6 94be 6065 a1be 57e3 7dbe
00000050: ddfe 873e 2b8e 573f f301 343f eb79 fb3e
00000060: c006 ccbd dea9 403e 50eb 57be d48d 5dbf
00000070: f547 25bf fc53 013f a2b4 843e d89d dfbe

N.layers.1.weight f4 [32, 32]
0.16485338 0.05641109 -0.027897116 0.26080263 -0.043078158 0.061757352 -0.06852751 -0.019950874
-0.059353974 0.1003249 -0.013375929 0.3030719 0.105196744 0.06341679 0.0076660537 0.09436501
0.09412824 0.06982897 0.112021156 0.074525625 0.3017791 0.031429905 0.03754811 0.08080575
0.17780834 0.21339439 0.27082473 -0.14699955 -0.086010516 0.06322155 0.12889235 -0.045892686
0.21820468 -0.112387 -0.0324974 0.16400984 0.016607594 0.22309217 -0.019824045 0.09000071
-0.032653395 0.10539025 0.21748719 0.09107903 -0.06526241 0.013774687 0.28568232 0.23354484
0.046575796 0.10725064 0.2427382 0.25854412 0.24096385 -0.016459063 0.123877496 0.17094886
0.061870985 0.10638333 0.062286504 0.11424713 -0.046897665 0.02346033 0.10349676 0.008100653
0.12479724 0.16268682 0.24518901 0.06382446 0.30579445 0.001032896 0.16677669 0.129943
-0.03719288 0.21945897 0.12209837 0.057984848 -0.058301937 0.22716446 0.12399197 0.036089834
0.0142614525 -0.029135343 0.0486196 0.042015906 0.020957757 0.09384359 0.072535574 0.037431277
0.18378143 0.27487797 0.18276428 0.2128593 0.08663182 0.22725582 0.065712154 -0.022543512
-0.009775208 -0.12922674 -0.07756672 0.010463418 -0.14917824 0.012125894 -0.045182377 -0.037675492
-0.18109494 -0.029268645 -0.07914661 -0.08343314 -0.036089376 -0.09029128 -0.21836697 -0.12783174
-0.04832162 -0.23294637 -0.27722567 -0.060191512 0.011043827 0.0052297926 -0.17838979 -0.09796514
0.043707483 -0.037889667 -0.22748233 0.054572172 -0.14774688 -0.17478144 -0.1794154 -0.26808187
-0.2734725 -0.12556185 -0.121711306 -0.008196415 -0.0757897 -0.19530606 -0.29174316 -0.02290573
0.029438652 -0.20791759 -0.13014723 0.021967 0.0067024026 -0.20325273 -0.1181657 0.06130455
-0.06565143 0.010602405 0.009943073 0.033398494 -0.08278486 -0.11682147 -0.021161994 -0.28112897
-0.07435049 -0.0053474014 -0.26301515 -0.013436378 -0.24776387 0.0026611327 -0.17102586 -0.017735058
0.033971224 -0.003821643 0.07860873 0.21450196 -0.105163075 -0.055495866 -0.08381864 0.23286404
-0.08406178 0.15780605 0.045515046 0.22528465 0.17094657 -0.071510606 0.19225514 0.023600986
0.1497845 0.1550734 -0.018102268 0.033620324 0.18549658 0.1549685 -0.049455464 0.17697969
0.15228206 0.06323641 0.15063637 -0.04262147 0.18853024 0.1469407 0.06561071 -0.06172974
-0.164311 -0.058636967 -0.076134615 -0.21000321 0.00058784767 -0.18761376 -0.07619799 -0.08745055
-0.12555458 -0.23702277 -0.050453402 -0.19890474 -0.05655547 -0.23464434 -0.29547703 -0.012428834
-0.07911757 -0.040012512 -0.021283586 -0.020725671 -0.1814797 -0.17369317 -0.03716314 -0.16675366
-0.05179039 -0.022421697 -0.3042293 -0.08268444 -0.02612031 -0.07340042 -0.048638742 -0.29209098
-0.18760453 -0.09138596 0.052725773 -0.296012 -0.13716768 -0.08278793 -0.06679716 -0.09708153
-0.1938545 -0.064288996 -0.1024451 -0.30834007 0.103750244 -0.1874089 -0.012113339 -0.06761085
-0.19668491 -0.09419594 -0.084828205 -0.12437962 -0.08090674 -0.22468238 0.03950564 -0.18099372
0.01873773 -0.10536821 -0.1505856 -0.18240203 -0.09229666 -0.07415489 0.07285359 -0.15416789
00000000: 53cf 283e 510f 673d 7e88 e4bc ec87 853e
00000010: b972 30bd 47f5 7c3d 2758 8cbd 0470 a3bc
00000020: 271d 73bd 2477 cd3d b626 5bbc 3d2c 9b3e
00000030: 6471 d73d a9e0 813d 8533 fb3b 7142 c13d
00000040: 4fc6 c03d 7e02 8f3d 596b e53d e4a0 983d
00000050: ca82 9a3e a5bc 003d 0ccc 193d 7c7d a53d
00000060: 6413 363e 0f84 5a3e 8aa9 8a3e 0d87 16be
00000070: 4826 b0bd 4d7a 813d 5bfc 033e f8f9 3bbd
00000080: 0c71 5f3e 282b e6bd fe1b 05bd 32f2 273e
00000090: a60c 883c 4672 643e 0966 a2bc 4b52 b83d
000000a0: 91bf 05bd d8d6 d73d f6b4 5e3e a487 ba3d
000000b0: 4ca8 85bd 3aaf 613c f444 923e 6126 6f3e
000000c0: 43c6 3e3d 39a6 db3d 5d90 783e e55f 843e
000000d0: 3abf 763e 28d5 86bc 7cb3 fd3d 380d 2f3e
000000e0: 6e6c 7d3d 81df d93d 2220 7f3d 66fa e93d
000000f0: c417 40bd e12f c03c 1cf6 d33d 9ab8 043c
00000100: b295 ff3d 6097 263e d412 7b3e 66b6 823d
00000110: 1791 9c3e 3d62 873a 82c7 2a3e c70f 053e
00000120: 9057 18bd dab9 603e b60e fa3d 8581 6d3d
00000130: 03ce 6ebd cd9d 683e 81ef fd3d efd2 133d
00000140: dea8 693c 3ead eebc 5825 473d df18 2c3d
00000150: 9aaf ab3c 1131 c03d 888d 943d 8a51 193d
00000160: 3331 3c3e cebc 8c3e 8f26 3b3e caf7 593e
00000170: 066c b13d c0b5 683e 1894 863d 2cad b8bc
00000180: 3228 20bc 0454 04be 4ddb 9ebd c26e 2b3c
00000190: 2ec2 18be b0ab 463c 2811 39bd 9e51 1abd
000001a0: f470 39be ccc4 efbc 9e17 a2bd fede aabd
000001b0: 74d2 13bd a2ea b8bd 979b 5fbe 53e6 02be
000001c0: e4ec 45bd 7e89 6ebe 86f0 8dbe 608b 76bd
000001d0: 2bf1 343c ae5e ab3b d0ab 36be f3a1 c8bd
000001e0: 9e06 333d 3232 1bbd 21f1 68be 1287 5f3d
000001f0: f54a 17be e8f9 32be acb8 37be 0742 89be
00000200: 9604 8cbe 4993 00be c743 f9bd 424a 06bc
00000210: a137 9bbd 50fe 47be 5c5f 95be cca4 bbbc
00000220: 5429 f13c 59e8 54be 5145 05be 23f4 b33c
00000230: d49f db3b 7c21 50be dc00 f2bd 7b1a 7b3d
00000240: 4274 86bd b6b5 2d3c 45e8 223c dccc 083d
00000250: 1c8b a9bd 1840 efbd eb5b adbc 23f0 8fbe
00000260: 1245 98bd 4139 afbb eca9 86be 4124 5cbc
00000270: d0b5 7dbe 6666 2e3b 6721 2fbe 1d49 91bc
00000280: 6925 0b3d 8874 7abb 9dfd a03d 67a6 5b3e
00000290: bd5f d7bd a24f 63bd 1ba9 abbd e973 6e3e
000002a0: 9528 acbd e997 213e fc6d 3a3d 05b1 663e
000002b0: 9e0c 2f3e 2774 92bd 88de 443e db56 c13c
000002c0: 1c61 193e 90cb 1e3e 354b 94bc 77b5 093d
000002d0: d1f2 3d3e 10b0 1e3e d091 4abd 2a3a 353e
000002e0: d4ef 1b3e 1782 813d 6c40 1a3e da93 2ebd
000002f0: 120e 413e 9f77 163e e85e 863d 53d8 7cbd
00000300: 2541 28be 512d 70bd 77ec 9bbd 150b 57be
00000310: ca19 1a3a d21d 40be b10d 9cbd 4619 b3bd
00000320: 6191 00be 19b6 72be 3aa8 4ebd afad 4bbe
00000330: b5a6 67bd 9b46 70be c448 97be 4fa2 4bbc
00000340: 6408 a2bd 29e4 23bd ea5a aebc e2c8 a9bc
00000350: d1d5 39be 9fdc 31be 6038 18bd 79c1 2abe
00000360: 2922 54bd b5ad b7bc f1c3 9bbe 7656 a9bd
00000370: 43fa d5bc f652 96bd 6b39 47bd f38c 95be
00000380: 671b 40be 9028 bbbd fbf6 573d e38e 97be
00000390: af75 0cbe b88c a9bd f3cc 88bd aed2 c6bd
000003a0: cb81 46be f3a9 83bd bdce d1bd c0de 9dbe
000003b0: 027b d43d 1ee8 3fbe 0777 46bc 8f77 8abd
000003c0: c567 49be cde9 c0bd 69ba adbd beba febd
000003d0: 6fb2 a5bd 2313 66be aad0 213d 6b56 39be
000003e0: de7f 993c 4acb d7bd 1d33 1abe 99c7 3abe
000003f0: 0806 bdbd 85de 97bd 4334 953d 30de 1dbe

N.layers.1.bias f4 [32]
0.24663354 0.069461815 0.047700506 -0.26084197 -0.08453685 0.25629604 -0.2947915 0.0025518243
-0.1958265 -0.023089217 -0.28272983 0.09733897 0.0943041 -0.012103238 -0.041533727 0.046870764
-0.009878709 0.008820392 -0.14940257 -0.23599511 -0.16513133 -0.21493569 -0.282956 -0.011856839
0.31192565 -0.30814123 -0.17570949 -0.13932037 -0.11044642 0.24980533 -0.12697987 -0.13126974
00000000: 818d 7c3e ff41 8e3d 9b61 433d 148d 85be
00000010: a821 adbd 3c39 833e e9ee 96be 823c 273b
00000020: be86 48be 9925 bdbc f7c1 90be a759 c73d
00000030: 8222 c13d a94c 46bc 451f 2abd 8ffb 3f3d
00000040: 4fda 21bc 6883 103c fdfc 18be b4a8 71be
00000050: 3018 29be 1a18 5cbe 9cdf 90be 3043 42bc
00000060: b8b4 9f3e b0c4 9dbe 30ed 33be 00aa 0ebe
00000070: bc31 e2bd f8cc 7f3e 0307 02be 936b 06be
