Birth-Death-0.1--1d/experiments/cnf/toy/2020_10_20_11_30_57_8gaussians_alph100_5_m32_checkpt.pth (torch, 8135 bytes, 7 tensors)

A f4 [2, 2]
-0.36217234 0.27992022 -0.0052190386 -0.14626274
00000000: a76e b9be b451 8f3e 7804 abbb e6c5 15be

c.weight f4 [1, 2]
0.06428819 -0.042294756
00000000: 87a9 833d 443d 2dbd

w.weight f4 [1, 32]
-0.035308965 0.065668456 -0.034628116 0.0044248686 0.044706117 -0.106763825 0.16508797 -0.047431827
-0.017700389 -0.0045208833 0.056393914 0.2498026 -0.018888513 -0.07528329 -0.015795965 0.05572654
0.006082017 0.026399652 0.02834721 0.10860008 0.030458134 0.17573112 0.013175528 0.31656778
-0.041426826 -0.02284734 0.17015967 0.034097876 0.029831646 0.019050214 0.60306925 0.125238
00000000: 22a0 10bd 2f7d 863d 36d6 0dbd 7dfe 903b
00000010: c31d 373d fea6 dabd d20c 293e e047 42bd
00000020: 6800 91bc eb23 94bb 4efd 663d 41cc 7f3e
00000030: 15bc 9abc 202e 9abd 8a66 81bc 8341 643d
00000040: a84b c73b 1544 d83c 6838 e83c b869 de3d
00000050: 5683 f93c dcf2 333e 2bde 573c 2c15 a23e
00000060: 2daf 29bd 582a bbbc 563e 2e3e 37aa 0b3d
00000070: 7f61 f43c 320f 9c3c bf62 1a3f 643e 003e

N.layers.0.weight f4 [32, 2]
-0.14493334 -0.09101729 -0.22633177 0.103282176 0.23429021 -0.6487645 0.3661196 0.64600843
-0.41699514 -0.8019998 0.22361097 -0.2638786 0.058066353 0.10941297 0.5599324 -0.38670146
0.1960079 -0.19296888 0.49632138 -0.8894772 -0.352284 0.38797778 0.19948182 -0.3735563
0.03645065 0.0071006105 0.29798126 -0.37243074 -0.12960541 0.23642114 0.26964495 0.3208023
-0.03963776 0.13620615 -0.03023576 0.11359466 0.26955432 0.43072596 -0.32751992 -0.28535154
-0.4036469 0.76951176 -0.16627319 0.068293855 -0.4075443 -0.44111836 -0.077314906 -0.025474638
0.3733838 -0.8258147 0.30971003 0.4068859 -0.39018452 0.77135617 -0.1444876 -0.031574868
0.25197592 -0.5460755 0.34753278 0.7366824 0.21271417 -0.8829988 -0.018029243 0.082719445
00000000: 6869 14be 4667 babd 84c3 67be 9b85 d33d
00000010: c6e9 6f3e 6e15 26bf 0774 bb3e cf60 253f
00000020: 6380 d5be dc4f 4dbf 46fa 643e 191b 87be
00000030: fcd6 6d3d e813 e03d bb57 0f3f bcfd c5be
00000040: 4cb6 483e a299 45be d61d fe3e c7b4 63bf
00000050: 925e b4be 06a5 c63e f644 4c3e c542 bfbe
00000060: 474d 153d 3dac e83b 0091 983e 3eaf bebe
00000070: 48b7 04be 6218 723e e70e 8a3e 3340 a43e
00000080: 345b 22bd a079 0b3e fcb0 f7bc 51a4 e83d
00000090: 0603 8a3e 1d88 dc3e b1b0 a7be 9919 92be
000000a0: ceaa cebe b9fe 443f 8543 2abe a6dd 8b3d
000000b0: a6a9 d0be 44da e1be 4757 9ebd 30b0 d0bc
000000c0: 292c bf3e 9868 53bf 5092 9e3e 5953 d03e
000000d0: 44c6 c7be 9977 453f 8ff4 13be a654 01bd
000000e0: fd02 813e 9bcb 0bbf d1ef b13e 3897 3c3f
000000f0: bed1 593e 360c 62bf 10b2 93bc d068 a93d

N.layers.0.bias f4 [32]
-1.0202347 0.63355136 -0.74715906 1.2689731 -1.1255696 -1.5518028 -0.81053936 0.17202558
-0.87588036 0.050064545 1.5615404 -1.5393254 -0.5503862 -0.75106555 0.53188133 1.4245269
-1.0826306 -0.11536721 0.3103319 -1.2112317 1.7433527 0.424487 -1.4041121 1.2118477
-1.5303012 1.2056503 -0.22244455 1.7400119 -0.04828196 1.4069078 0.37455285 -0.28112853
00000000: 0d97 82bf 6c30 223f d145 3fbf b66d a23f
00000010: aa12 90bf 79a1 c6bf 827f 4fbf 7927 303e
00000020: b239 60bf 7b10 4d3d 8ee0 c73f 9d08 c5bf
00000030: 1ce6 0cbf d545 40bf 6029 083f e656 b63f
00000040: a493 8abf a545 ecbd d3e3 9e3e a409 9bbf
00000050: 2e26 df3f 5c56 d93e f2b9 b3bf d31d 9b3f
00000060: e9e0 c3bf c052 9a3f 81c8 63be b6b8 de3f
00000070: 4ec3 45bd 8e15 b43f 64c5 bf3e 14f0 8fbe

N.layers.1.weight f4 [32, 32]
-0.24130121 -0.32265237 -0.078905135 0.04348751 -0.1850252 -0.39151734 -0.48080534 -0.092790574
-0.41770166 0.014175917 -0.010355468 0.017683828 -0.19914016 -0.14595285 -0.054484315 -0.059133794
-0.39303368 -0.61716354 -0.28964546 -0.15691851 -0.24821527 -0.11378169 0.030391088 -0.2874744
-0.20149642 -0.062275983 -0.21452339 -0.2350667 -0.27805543 0.0039902227 -0.20894487 -0.36765906
0.19036308 -0.070626855 0.26603964 0.51092166 0.5660154 0.02800339 0.056327913 0.407269
-0.025649149 0.24888682 0.18221638 0.2913627 0.06460911 0.21290784 0.31941682 0.18862498
-0.18735038 0.038932104 0.0811192 0.3849283 0.21738438 0.18575801 0.4282933 -0.036319
0.37238583 0.22885409 -0.30945775 0.0334692 0.3352231 0.40404192 0.1535865 0.010423486
0.27110714 0.39131373 -0.03160551 -0.29214153 -0.064569324 0.13570328 0.24235553 0.09687031
0.28137144 -0.23870596 0.17714895 -0.17703836 0.41809803 0.17652349 0.15776151 0.012186049
0.14778538 0.5106327 0.09194703 0.019649688 0.39537266 0.2869006 -0.13011071 0.18841712
0.009434277 -0.026597248 0.5386431 0.27970257 0.5229799 -0.19369659 0.44531462 0.62844795
0.0692561 0.07416459 0.46142402 0.28936827 0.13651556 0.32877064 0.39201 0.413097
0.101760946 0.30430433 0.64724404 0.4172597 0.3112889 0.22170533 0.019119415 0.23534656
-0.10969683 0.24462149 0.23284188 0.013829557 0.55825853 0.47174138 0.25437903 0.14015467
0.40781564 0.29681966 -0.21250558 0.5954163 -0.21158203 0.36856472 -0.19898331 0.067865804
-0.21962222 -0.7445245 0.053274408 -0.16353299 -0.24894838 -0.44305772 -0.6491165 -0.3045458
-0.47343177 -0.15164296 -0.015267406 -0.24805227 -0.91214037 -0.52201486 -0.89729315 -0.29833543
-0.4667052 -0.57587487 -0.3704321 -0.28355825 -0.538629 -0.36150122 -0.08448898 -0.8191828
-0.14584032 -0.35691038 -0.8062788 -0.7807751 -0.90161204 -0.13688673 -0.9095187 -0.67437077
0.21485333 0.07422375 -0.29896405 -0.12472962 -0.08483891 -0.6114839 -0.1780128 0.086336575
0.00624161 -0.13069752 -0.2914151 -0.33965212 -0.070160456 -0.25767663 -0.035619095 -0.014107027
0.10124132 0.08909323 -0.012210201 -0.026459659 -0.37428752 -0.29404595 0.024953583 -0.04913265
-0.41515785 0.26105592 0.1504522 -0.7117445 0.21431763 -0.07605889 0.1607266 0.15169147
-0.32581967 0.18844402 -0.48069173 -0.7728422 -0.54720193 -0.5454847 -0.11334082 -0.66226923
-0.12081526 -0.40954518 -0.68639 -0.70564556 -0.09258726 -0.2749311 -0.16925228 -0.7032582
0.12912321 -0.13323705 -0.53836405 -0.68337786 -0.36555403 -0.18623582 -0.7774243 0.20543475
-0.74060047 -0.5858719 0.33713284 -0.46091276 -0.080026716 -0.5937719 -0.034415416 -0.26869774
-0.2706241 -0.25859284 0.22153312 -0.044881582 0.009076316 -0.26592058 -0.34494537 0.13885967
-0.33692744 0.17816804 -0.103248 0.021498727 -0.30744287 -0.102965236 -0.4111774 0.094351396
-0.370443 -0.49089763 -0.20440951 -0.13065797 -0.22963828 -0.30073145 0.18683617 -0.23587903
-0.118333735 0.1574001 -0.2914676 -0.37795272 -0.54427356 0.27090007 -0.4231576 -0.6513704
00000000: aa17 77be b132 a5be 0499 a1bd f61f 323d
00000010: 3f77 3dbe f674 c8be 1e2c f6be fc08 bebd
00000020: fedc d5be 1b42 683c fba9 29bc addd 903c
00000030: 66eb 4bbe aa74 15be f22a 5fbd 4736 72bd
00000040: b63b c9be 6efe 1dbf 694c 94be 3faf 20be
00000050: 252c 7ebe 6006 e9bd bbf6 f83c d82f 93be
00000060: 1455 4ebe 1a15 7fbd 05ac 5bbe 53b5 70be
00000070: 485d 8ebe 6ac0 823b a5f5 55be cf3d bcbe
00000080: 8aee 423e d0a4 90bd 5936 883e c3cb 023f
00000090: 63e6 103f 5e67 e53c 19b8 663d 9085 d03e
000000a0: 2a1e d2bc 30dc 7e3e ee96 3a3e 7e2d 953e
000000b0: c851 843d 8304 5a3e 9a8a a33e e826 413e
000000c0: c7d8 3fbe 4577 1f3d d321 a63d 5215 c53e
000000d0: 039a 5e3e 5937 3e3e 4249 db3e 3bc3 14bd
000000e0: 5ba9 be3e ba58 6a3e 3f71 9ebe 0017 093d
000000f0: 5da2 ab3e 95de ce3e c845 1d3e 45c7 2a3c
00000100: 8ece 8a3e 465a c83e c774 01bd 9393 95be
00000110: ec3c 84bd cdf5 0a3e 0c2c 783e f163 c63d
00000120: eb0f 903e 566f 74be 8966 353e 8b49 35be
00000130: f210 d63e 93c2 343e 3c8c 213e fea7 473c
00000140: 0d55 173e d3b8 023f b94e bc3d 62f8 a03c
00000150: 496e ca3e a3e4 923e be3b 05be 6bf0 403e
00000160: 3a92 1a3c 79e2 d9bc 84e4 093f 2d35 8f3e
00000170: 03e2 053f 6658 46be 4700 e43e f7e1 203f
00000180: 24d6 8d3d 9be3 973d c53f ec3e 1428 943e
00000190: bcca 0b3e a054 a83e 89b5 c83e 7381 d33e
000001a0: 0b68 d03d c7cd 9b3e c9b1 253f 10a3 d53e
000001b0: 4261 9f3e b906 633e 52a0 9c3c b0fe 703e
000001c0: bba8 e0bd 0e7e 7a3e 1a6e 6e3e 5e95 623c
000001d0: 08ea 0e3f 1688 f13e f83d 823e b584 0f3e
000001e0: 36cd d03e bff8 973e 109b 59be 346d 183f
000001f0: f6a8 58be 84b4 bc3e 48c2 4bbe 3afd 8a3d
00000200: a6e4 60be 2899 3ebf 4436 5a3d 3175 27be
00000210: 53ec 7ebe 76d8 e2be 802c 26bf 6ded 9bbe
00000220: a665 f2be 4b48 1bbe 2424 7abc 6a01 7ebe
00000230: 0882 69bf c4a2 05bf 01b5 65bf 6cbf 98be
00000240: fcf3 eebe 896c 13bf 47a9 bdbe 8c2e 91be
00000250: 97e3 09bf b016 b9be 8f08 adbd f7b5 51bf
00000260: 2a57 15be f5bc b6be 4a68 4ebf e1e0 47bf
00000270: 0cd0 66bf 092c 0cbe 38d6 68bf 90a3 2cbf
00000280: 8302 5c3e 9f02 983d d111 99be 3e72 ffbd
00000290: 06c0 adbd 358a 1cbf fd48 36be 3bd1 b03d
000002a0: 6b86 cc3b 92d5 05be 5c34 95be e2e6 adbe
000002b0: 49b0 8fbd 31ee 83be 54e5 11bd 2921 67bc
000002c0: 9c57 cf3d 8376 b63d 4b0d 48bc edc1 d8bc
000002d0: 9da2 bfbe 318d 96be 756b cc3c 513f 49bd
000002e0: 928f d4be 1fa9 853e 2410 1a3e e334 36bf
000002f0: 1576 5b3e c3c4 9bbd 8495 243e 0255 1b3e
00000300: d6d1 a6be 78f7 403e 3a1d f6be fdd8 45bf
00000310: 6d15 0cbf e3a4 0bbf 3b1f e8bd 7a8a 29bf
00000320: fe6d f7bd e8af d1be 41b7 2fbf 30a5 34bf
00000330: 649e bdbd c5c3 8cbe 7850 2dbe bb08 34bf
00000340: e038 043e 4b6f 08be 3ad2 09bf daf1 2ebf
00000350: e629 bbbe 9ab4 3ebe 4705 47bf 7d5d 523e
00000360: fe97 3dbf b3fb 15bf ad9c ac3e c2fc ebbe
00000370: 0ce5 a3bd 6f01 18bf 2ef7 0cbd c092 89be
00000380: 3e8f 8abe 4866 84be 94d9 623e c0d5 37bd
00000390: d4b4 143c be26 88be ae9c b0be 3b31 0e3e
000003a0: c181 acbe af71 363e b073 d3bd 191e b03c
000003b0: 2769 9dbe 70df d2bd d885 d2be 4e3b c13d
000003c0: b4aa bdbe ef56 fbbe ba50 51be 34cb 05be
000003d0: 4c26 6bbe 79f9 99be fb51 3f3e 468a 71be
000003e0: f558 f2bd 7e2d 213e 3e3b 95be 0583 c1be
000003f0: 8355 0bbf 6ab3 8a3e 1da8 d8be 36c0 26bf

N.layers.1.bias f4 [32]
-0.36743468 0.22381303 0.4574916 0.018926987 -0.98577935 0.20411484 0.17188278 -0.7069156
-0.7004503 0.29640138 1.1781484 1.035539 0.6211411 0.5497676 0.071410246 -0.12841395
0.52768284 0.51641005 -0.4782522 -0.19580635 0.35136688 -1.3864336 -0.38994074 0.7456129
0.94082385 -0.756032 0.21125449 -0.4711323 0.116816804 -0.862357 0.77304846 -0.5979943
00000000: 6620 bcbe 3e2f 653e 573c ea3e c50c 9b3c
00000010: 095c 7cbf 7b03 513e 0a02 303e 6cf8 34bf
00000020: b650 33bf ecc1 973e 91cd 963f 8b8c 843f
00000030: 1a03 1f3f 92bd 0c3f 893f 923d f27e 03be
00000040: 3916 073f 7333 043f 79dd f4be 7681 48be
00000050: 5ce6 b33e a876 b1bf 50a6 c7be 7de0 3e3f
00000060: d5d9 703f 508b 41bf 1953 583e 4138 f1be
00000070: a63d ef3d 6ec3 5cbf 81e6 453f 2816 19bf
