Birth-Death-0.1--1d/experiments/cnf/toy/2020_10_20_13_16_43_8gaussians_alph100_0_m32_checkpt.pth (torch, 8199 bytes, 7 tensors)

A f4 [2, 2]
0.36157763 0.69499177 0.0090790745 -0.24178432
00000000: b420 b93e fbea 313f 66c0 143c 4f96 77be

c.weight f4 [1, 2]
-0.08573846 0.75914615
00000000: a597 afbd 6757 423f

w.weight f4 [1, 32]
0.1152835 0.043615036 0.0048387116 0.091272116 0.054563917 0.06115157 0.029597146 0.16870576
0.052981503 0.06862028 0.017762747 -0.01697317 0.07672519 -0.026520558 -0.059914645 0.05298377
0.028952096 0.34503683 0.091228195 -0.010334694 0.026328655 -0.023310345 0.14350893 0.043585237
0.11974873 0.07395094 0.049165875 -0.0026324522 0.15742314 -0.10617108 -0.0039404985 0.08006521
00000000: c119 ec3d aea5 323d 0e8e 9e3b e0ec ba3d
00000010: 6a7e 5f3d 127a 7a3d b775 f23c 34c1 2c3e
00000020: 2203 593d ca88 8c3d 2e83 913c 510b 8bbc
00000030: 1922 9d3d a441 d9bc 0f69 75bd 8205 593d
00000040: f22c ed3c aba8 b03e d9d5 ba3d d952 29bc
00000050: 31af d73c 56f5 bebc 01f4 123e 6f86 323d
00000060: d23e f53d 9773 973d 2862 493d 3885 2cbb
00000070: 8833 213e 3970 d9bd 4c1f 81bb 3bf9 a33d

N.layers.0.weight f4 [32, 2]
-0.14897113 -0.5014023 0.007471513 0.98156947 -0.28654757 -0.3251369 0.08872694 0.37710884
-0.08436808 0.9369602 -0.15943226 -0.5118062 0.056880116 0.20699129 -0.081749566 -0.019896029
-0.2855553 -1.3988483 -0.11832167 0.5053885 -0.023935642 0.47862428 -0.025116354 -0.86310786
0.08562946 -0.83490974 -0.14134227 0.6448481 -0.0440716 -0.11173007 0.034578767 -0.80225766
-0.072339 -0.57823735 -1.6959354 -0.010638505 -0.090932906 -0.48763755 0.2697831 0.21557583
0.24718525 1.1898087 -0.013711138 0.05047986 -0.0734778 1.2092444 -0.022251265 -0.62010145
0.08896687 -1.2908543 -0.0013249341 0.5735945 -0.0032710882 -0.76523376 0.07351084 0.2729169
-0.28264335 0.9177692 0.09618456 0.29893383 -0.2652349 0.44585085 0.054847363 0.929795
00000000: e38b 18be e75b 00bf 98d3 f43b 2348 7b3f
00000010: 5db6 92be 5878 a6be 78b6 b53d 6914 c13e
00000020: 2cc9 acbd a0dc 6f3f 3642 23be bb05 03bf
00000030: 20fb 683d 86f5 533e 516c a7bd fffc a2bc
00000040: 4e34 92be 760d b3bf a252 f2bd 2461 013f
00000050: ae14 c4bc 3e0e f53e d0c0 cdbc a3f4 5cbf
00000060: 805e af3d a5bc 55bf 07bc 10be c414 253f
00000070: 6c84 34bd bcd2 e4bd 77a2 0d3d c260 4dbf
00000080: 7826 94bd 5d07 14bf 6914 d9bf 204d 2ebc
00000090: 083b babd a1ab f9be 0321 8a3e e9bf 5c3e
000000a0: 211e 7d3e a74b 983f aea4 60bc f8c3 4e3d
000000b0: 877b 96bd 85c8 9a3f 4948 b6bc f8be 1ebf
000000c0: 4334 b63d b73a a5bf 69a9 adba 17d7 123f
000000d0: c15f 56bb 5ce6 43bf da8c 963d c4bb 8b3e
000000e0: a1b6 90be ecf2 6a3f 69fc c43d db0d 993e
000000f0: decc 87be 9046 e43e a1a7 603d 0c07 6e3f

N.layers.0.bias f4 [32]
-0.9330383 1.252493 0.21654709 0.8576627 1.2034867 -1.0307908 0.7940242 -1.1745899
-1.2219931 1.255366 -0.84888226 -0.25983313 -0.8190141 0.8510689 0.066626064 -0.8993804
-0.12281047 0.05985642 -0.5330588 0.14221911 1.1610044 -0.2137544 0.7720694 -0.7369951
-0.94905573 0.15549742 0.55941296 -0.83492243 1.4388075 0.38245738 -0.086571045 0.8540698
00000000: 99db 6ebf b151 a03f 85be 5d3e c88f 5b3f
00000010: da0b 9a3f f4f0 83bf 2c45 4b3f f658 96bf
00000020: 456a 9cbf d5af a03f 5950 59bf d908 85be
00000030: e8aa 51bf a7df 593f 3f73 883d cb3d 66bf
00000040: 0e84 fbbd 012c 753d 8b76 08bf e3a1 113e
00000050: cb9b 943f 6fe2 5abe 57a6 453f b6ab 3cbf
00000060: 51f5 72bf b73a 1f3e b035 0f3f 7abd 55bf
00000070: d82a b83f 74d1 c33e 294c b1bd 52a4 5a3f

N.layers.1.weight f4 [32, 32]
-0.3265561 -0.22109303 -0.315696 -0.021974588 -0.1413296 -0.2132849 -0.13933398 -0.3108824
-0.039395582 -0.19228786 -0.18952444 -0.29100987 -0.09722164 -0.21842727 -0.23688251 -0.29015288
-0.041393816 -0.58382326 -0.14616111 0.00025647163 -0.2743727 -0.51276296 -0.4286267 -0.43918073
-0.07321783 -0.4546568 -0.25087383 -0.24609298 -0.23565647 -0.32254106 -0.24748398 -0.09828385
-0.11299749 0.1937867 0.03367583 0.17211738 0.34247693 0.110787466 0.2097198 -0.08004502
0.21343723 0.14722638 0.1883916 0.1903729 0.3503167 0.13796766 0.10218066 -0.008097018
-0.10145969 0.29487625 0.015796252 -0.024623474 0.058237094 0.115332685 0.12679787 -0.055650827
0.08433106 0.16484244 0.09603477 0.40296996 0.021310043 -0.1388477 0.19802915 -0.0091674635
-0.21182828 -0.36452994 -0.014261447 -0.19097817 0.17242168 0.0019411735 -0.37797803 -0.43845898
0.0050471146 -0.03595239 -0.22149813 -0.48139215 -0.039616324 0.14661273 -0.04189948 -0.2848891
0.011333619 0.018234568 -0.2453572 0.14766507 -0.039368138 -0.25686374 0.24760275 -0.3621008
-0.08667435 -0.31867805 -0.31009102 -0.016727608 -0.16219914 0.028386496 0.00296899 -0.035125244
-0.4285315 -0.74634105 -0.43683198 -0.43018302 -0.41812384 -0.27898636 -0.18960245 -0.33178592
-0.3661422 -0.23194534 -0.5836506 -0.5913365 -0.49929342 -0.32559192 -0.22693577 -0.68981117
-0.12871535 -0.50461525 -0.3802372 -0.11878105 -0.5910327 -0.6880414 -0.5355727 -0.65882444
-0.36343598 -0.61365885 -0.5078733 -0.43689048 -0.08467205 -0.2825321 -0.4315866 -0.4979965
-0.14121532 -0.17370705 -0.103641175 -0.13869867 -0.1638921 -0.27804416 -0.29913104 -0.1807322
-0.11624766 -0.40362042 -0.24430886 -0.3859834 -0.35438815 -0.3350296 -0.1413429 -0.0054773474
-0.065858565 -0.36809987 -0.4106309 -0.06006095 -0.35731682 -0.05558561 -0.18869828 -0.23155068
-0.18129185 -0.12674421 -0.18617381 -0.17849629 -0.20200303 -0.18905945 -0.05718467 -0.14548649
-0.1437239 -0.32699504 -0.5044044 -0.11433683 -0.5211577 -0.06425583 -0.42113543 -0.4192702
-0.34659672 -0.18893129 -0.41601342 -0.2582272 -0.5302492 -0.16466787 -0.278629 -0.7537015
-0.043098778 -0.47234583 -0.403012 -0.17146662 -0.44268277 -0.77245176 -0.38927883 -0.37003726
-0.1969457 -0.42457137 -0.4286902 -0.5149676 -0.0397367 -0.31233838 -0.45500392 -0.07496504
0.4243186 0.6956273 0.010684015 0.4200276 0.37203056 0.45043954 0.6740685 0.48992825
0.3141054 0.19323444 0.63388306 0.66558623 0.15808323 0.11875597 0.3317015 0.74699086
0.40380803 0.101776965 0.5053749 0.074391805 0.3558608 0.67028093 0.046726417 0.6780739
0.31307003 0.7364008 0.43073463 0.09250383 0.32020667 0.086813 0.066008255 0.54679793
0.17727244 -0.78718585 -0.55705845 -0.1404287 -0.6075251 -0.1349925 -0.5082965 -0.4997193
0.1492314 0.0044182534 -0.5231405 -0.5172964 -0.52471614 -0.07811666 -0.23420303 -0.72488654
-0.117689125 -0.82126164 -0.20200868 0.06602675 -0.027536113 -0.8622266 -0.40681913 -0.6349894
-0.11486959 -0.5695809 -0.77972627 -0.58573663 0.30024534 -0.51790446 -0.39325407 0.028596405
00000000: 5c32 a7be 3666 62be e8a2 a1be 0d04 b4bc
00000010: b5b8 10be 5b67 5abe 91ad 0ebe fa2b 9fbe
00000020: 435d 21bd 1ce7 44be b212 42be 3fff 94be
00000030: 241c c7bd 66ab 5fbe 5491 72be eb8e 94be
00000040: 908c 29bd 7175 15bf 42ab 15be 0a77 8639
00000050: 947a 8cbe 6f44 03bf f574 dbbe 4cdc e0be
00000060: 3bf3 95bd c7c8 e8be 8972 80be ccff 7bbe
00000070: ee4f 71be 1a24 a5be 716c 7dbe 0b49 c9bd
00000080: 3a6b e7bd 0570 463e abef 093d 8a3f 303e
00000090: 2359 af3e 8ae4 e23d cac0 563e a5ee a3bd
000000a0: 4a8f 5a3e 83c2 163e bae9 403e 1df1 423e
000000b0: b65c b33e 6547 0d3e 1844 d13d 5ba9 04bc
000000c0: 19ca cfbd 05fa 963e 2467 813c 2bb7 c9bc
000000d0: 058a 6e3d 8b33 ec3d 4dd7 013e 1ff2 63bd
000000e0: c3b5 ac3d 75cc 283e e1ad c43d 1452 ce3e
000000f0: 6692 ae3c 172e 0ebe 27c8 4a3e 2133 16bc
00000100: 83e9 58be aba3 babe d8a8 69bc c88f 43be
00000110: 4f8f 303e f96e fe3a 5686 c1be b27d e0be
00000120: 4462 a53b d042 13bd 68d0 62be 0879 f6be
00000130: ba44 22bd a621 163e ca9e 2bbd fcdc 91be
00000140: a5b0 393c a960 953c eb3e 7bbe 8335 173e
00000150: 7c40 21bd a583 83be 938b 7d3e 4765 b9be
00000160: 5282 b1bd c529 a3be 40c4 9ebe 5608 89bc
00000170: 8817 26be cc8a e83c 6393 423b 7ddf 0fbd
00000180: 7b68 dbbe 3510 3fbf 71a8 dfbe f340 dcbe
00000190: 5414 d6be 4dd7 8ebe 2527 42be d8df a9be
000001a0: fe76 bbbe 1483 6dbe 206a 15bf d461 17bf
000001b0: 63a3 ffbe fcb3 a6be da61 68be 7797 30bf
000001c0: f5cd 03be 772e 01bf 73ae c2be 7b43 f3bd
000001d0: eb4d 17bf 7b23 30bf 4b1b 09bf b8a8 28bf
000001e0: 4814 babe bf18 1dbf fc03 02bf 1cb0 dfbe
000001f0: 8a68 adbd 0ca8 90be ebf8 dcbe 66f9 febe
00000200: c09a 10be 43e0 31be d341 d4bd 0607 0ebe
00000210: 55d3 27be ce5b 8ebe b427 99be dd11 39be
00000220: 4113 eebd 56a7 cebe 1a2c 7abe 9e9f c5be
00000230: 5d72 b5be 0089 abbe 31bc 10be 527b b3bb
00000240: dbe0 86bd 9677 bcbe 373e d2be 7902 76bd
00000250: 3bf2 b6be bdad 63bd 1f3a 41be 9f1b 6dbe
00000260: 92a4 39be 3cc9 01be 59a4 3ebe bbc7 36be
00000270: e2d9 4ebe cd98 41be 793a 6abd 69fa 14be
00000280: 5c2c 13be e56b a7be a620 01bf 6e29 eabd
00000290: 976a 05bf 9098 83bd 109f d7be 95aa d6be
000002a0: 2075 b1be 3477 41be b6ff d4be 5b36 84be
000002b0: 69be 07bf b29e 28be 76a8 8ebe 95f2 40bf
000002c0: 5888 30bd 50d7 f1be 9757 cebe f294 2fbe
000002d0: 51a7 e2be 66bf 45bf 8e4f c7be 8675 bdbe
000002e0: 22ac 49be 6b61 d9be 487d dbbe ebd4 03bf
000002f0: f3c2 22bd d1ea 9fbe 46f6 e8be 4587 99bd
00000300: 4a40 d93e a114 323f 020c 2f3c dc0d d73e
00000310: ca7a be3e 03a0 e63e c18f 2c3f e0d7 fa3e
00000320: 6cd2 a03e 40df 453e 2946 223f dc63 2a3f
00000330: 92e0 213e 5436 f33d c7d4 a93e cb3a 3f3f
00000340: edbf ce3e 7170 d03d 4060 013f bb5a 983d
00000350: 6333 b63e 8897 2b3f 3364 3f3d 4096 2d3f
00000360: b74a a03e c384 3c3f 4089 dc3e a672 bd3d
00000370: 21f2 a33e 04cb b13d 562f 873d f3fa 0b3f
00000380: e886 353e 0385 49bf 629b 0ebf 8bcc 0fbe
00000390: c486 1bbf 793b 0abe b81f 02bf 35db ffbe
000003a0: 1ed0 183e ffc6 903b 89ec 05bf 896d 04bf
000003b0: cc53 06bf a1fb 9fbd ebd2 6fbe 2a92 39bf
000003c0: ff06 f1bd 343e 52bf 5ddb 4ebe 0839 873d
000003d0: 6a93 e1bc e2ba 5cbf 994a d0be aa8e 22bf
000003e0: bf40 ebbd 0ed0 11bf 249c 47bf d6f2 15bf
000003f0: c2b9 993e 6395 04bf 9958 c9be 0243 ea3c

N.layers.1.bias f4 [32]
-0.55277383 0.49044687 -0.6259987 -0.72789574 -0.49454328 -0.6249975 0.8174441 -0.8126904
0.5222284 -0.7484151 -0.15789793 -0.40879786 0.7624221 -0.6575328 0.83585805 -0.7400488
-0.709579 -0.4327324 -0.893618 0.43043417 0.72226584 -0.67304814 -1.0128059 0.731188
0.73101944 -0.73248357 0.6440798 -0.48228496 -0.5175138 -0.71525466 -0.22441049 -0.5294084
00000000: 9682 0dbf da1b fb3e 7341 20bf 6057 3abf
00000010: c734 fdbe d6ff 1fbf 0444 513f 7a0c 50bf
00000020: c3b0 053f 2298 3fbf ffaf 21be f44d d1be
00000030: 182e 433f 1254 28bf cbfa 553f d773 3dbf
00000040: f8a6 35bf 1a8f ddbe 26c4 64bf de61 dc3e
00000050: 6ae6 383f e24c 2cbf a0a3 81bf 232f 3b3f
00000060: 1724 3b3f 0b84 3bbf 6ae2 243f 0eee f6be
00000070: c97b 04bf ee1a 37bf ddcb 65be 4f87 07bf
