Birth-Death-0.1--1d/experiments/cnf/toy/2020_10_20_22_33_19_8gaussians_alph100_0_m32_checkpt.pth (torch_old, 6649 bytes, 7 tensors)

A f4 [2, 2]
000000 8d 97 4a bf ee c5 fe be 06 34 43 3f 44 b8 73 3f
       -0.791375 -0.49760383 0.76251256 0.9520304

c.weight f4 [1, 2]
000000 22 ca cb bd 8c 4f 71 3a
       -0.09950663 0.0009205274

w.weight f4 [1, 32]
000000 76 d3 4c 3f 81 6e 4d 3f 18 12 4f 3f de 26 4d 3f
       0.80010164 0.8024674 0.80886984 0.8013743
000010 5e de 5e 3f 03 d2 4c 3f 20 31 53 3f 6e c7 4c 3f
       0.87058055 0.8000795 0.82496834 0.79991806
000020 f5 5c 4e 3f c0 4d 4d 3f ee 7d 4d 3f f1 40 4e 3f
       0.8061059 0.8019676 0.8027028 0.8056784
000030 0e 26 52 3f 70 85 4d 3f 1f c6 4c 3f 87 0a 4d 3f
       0.82089317 0.80281734 0.7998981 0.8009419
000040 33 ec 4c 3f e0 41 4d 3f 53 c4 4c 3f 00 cd 83 3f
       0.8004791 0.8017864 0.79987067 1.0296936
000050 e0 6a 4e 3f d0 26 4d 3f 1f 1d 4f 3f 8a 0d 4d 3f
       0.8063183 0.8013735 0.8090381 0.80098784
000060 8d cc 4c 3f 9c f5 4c 3f 10 ac 52 3f 82 d6 4f 3f
       0.7999962 0.8006227 0.82293797 0.8118669
000070 45 f1 4c 3f 68 6d 4d 3f a7 0d 4d 3f ce 92 4e 3f
       0.8005565 0.80245066 0.80098957 0.80692756

N.layers.0.weight f4 [32, 2]
000000 73 1f 8d be b6 b3 13 3e f4 dd 92 be 86 f7 4a bf
       -0.27563056 0.14424023 -0.28684962 -0.7928394
000010 d5 38 17 3d dc fe b3 be 7b 61 63 3e eb 3b b8 3e
       0.036919434 -0.3515538 0.22205155 0.35983214
000020 35 da 2f 3e 5d 3a a5 3d 56 f9 be 3e b5 af 32 3e
       0.17173083 0.080677725 0.37299603 0.1744984
000030 92 41 e0 3b 67 51 62 bf b4 ad 05 be fd 31 0a be
       0.006843754 -0.8840546 -0.13054544 -0.13495632
000040 17 f3 b8 3d f8 20 bc 3e d1 ea 5b 3e 38 03 6d be
       0.09030741 0.36743903 0.21476294 -0.23145759
000050 d1 8d 01 3f 82 fe c6 3d b9 3a a1 bc 22 3e 04 bf
       0.5060702 0.09716512 -0.019681321 -0.5165731
000060 b6 51 9a bc f8 9b 9c bd f2 e4 66 3c 6c dc cb bd
       -0.018837791 -0.07646936 0.014092671 -0.099541515
000070 41 e4 b0 3e 5a d0 4d 3f 11 42 67 3e c0 56 94 be
       0.34549144 0.80396044 0.22583796 -0.28972435
000080 82 8e ac be fb 0f b7 3e d9 e1 56 3e 3e a3 b7 be
       -0.33702475 0.3575438 0.20984592 -0.3586673
000090 df 10 6b be a2 05 63 3f fc 44 40 3c 19 4a 1c 3f
       -0.22955655 0.8868047 0.011735197 0.61050564
0000a0 87 25 a9 bd aa f1 f1 be 2f cc 02 bc 56 45 13 bf
       -0.08259111 -0.47254688 -0.0079832515 -0.57527673
0000b0 79 6a cc 3c 4f 7a ac 3e ed 05 65 3e 2e 6a 67 bf
       0.024953114 0.33687064 0.22365542 -0.9039639
0000c0 b4 5b b6 be 6f 8a 88 3e 17 cb 42 3e b7 59 ff 3e
       -0.3561684 0.26668116 0.19022785 0.49873134
0000d0 bb 84 77 bb 91 3b fb 3e b8 9b 85 3b b0 b0 0c 3f
       -0.0037768323 0.49068883 0.004077401 0.54957104
0000e0 69 2d 65 be f0 0e 02 3f d3 2c 0c 3d 4f 6d 35 be
       -0.22380604 0.5080404 0.034222435 -0.17717479
0000f0 0e de 1d be 15 7f 30 3f b0 5b b1 bd 71 20 60 bf
       -0.15416738 0.6894391 -0.08660066 -0.875495

N.layers.0.bias f4 [32]
000000 2f 6e 8b 3e 6e 91 08 bf db 4e 62 bf 72 2d 40 bf
       0.272325 -0.5334691 -0.88401574 -0.75069344
000010 c3 e9 39 3f 68 e1 0e bf 7f b9 34 bf bd a9 1d 3f
       0.7262232 -0.5581269 -0.70595545 0.61587125
000020 7a c8 21 bf 66 12 56 3e 50 a3 2b 3f d7 a8 e5 3e
       -0.6319653 0.20905456 0.6704607 0.44855377
000030 16 4f 1a be 29 fb 16 bf 54 6c 60 3e 31 6c 57 bf
       -0.15069231 -0.5897699 0.21916324 -0.8414946
000040 eb 4d db 3d 13 8e 53 3f 9b be 64 3f b7 2f 16 3f
       0.10708221 0.82638663 0.8935334 0.5866656
000050 bc 6f 16 bf 06 3f 02 be 92 2a 47 bf aa 91 6f 3d
       -0.58764243 -0.12719354 -0.7779933 0.058488525
000060 97 21 59 3f 36 57 9c 3e 58 0f 03 bf f4 fc 2c be
       0.8481688 0.30535287 -0.5119529 -0.16893369
000070 5a ef c3 3e 4a ec ad bd 16 38 38 3f 1f 3c 85 be
       0.38268548 -0.08492334 0.7196058 -0.2602243

N.layers.1.weight f4 [32, 32]
000000 98 ee 07 3e 5b 80 3e bb 1d 3a 96 3e c1 ba ee 3d
       0.1327461 -0.0029068205 0.29341212 0.11656714
000010 6b 3e af 3d a8 60 ab bd 95 96 28 3e f6 05 79 3e
       0.08556827 -0.08368045 0.16463692 0.2431868
000020 22 e5 89 3e ec bc c8 3c 44 d3 88 bd b3 07 ad 3e
       0.26932627 0.024504147 -0.06680921 0.33794937
000030 2d 72 4b bc 04 fe a5 3e d5 69 89 3d 78 45 09 3e
       -0.012417358 0.3242036 0.06709639 0.13405406
000040 c6 cd 8f 3c 14 1d 35 3e b8 d0 40 3d 9d f8 bc 3d
       0.017554175 0.17686874 0.04707405 0.09227107
000050 42 c5 32 3e 1f fd f2 3c f7 b6 a2 bc 2a c0 d9 bd
       0.1745806 0.029661713 -0.019862635 -0.106323555
000060 42 f9 a6 3d 90 11 6c 3e 10 b7 fe 3c 5b 57 be bc
       0.08153011 0.23053575 0.03109315 -0.023235014
000070 13 9b 16 3e d5 56 84 3e 00 66 f3 3d a0 fb a8 3e
       0.14707594 0.25847498 0.11884689 0.33004475
000080 78 59 4b 3d 53 c0 18 bd cd 42 b7 bd 34 60 00 be
       0.04964587 -0.03729279 -0.08948288 -0.12536699
000090 e9 a1 5e be 6a 9c b5 bd 41 9c 89 be 12 27 c9 ba
       -0.21741451 -0.08867724 -0.26877025 -0.0015346727
0000a0 7e 52 27 be 1a f3 a8 bd 92 8a 38 bd 0c 0e 5f bd
       -0.16340062 -0.08249493 -0.045054026 -0.054456756
0000b0 a5 d3 92 bc b7 cd 84 be 11 5e 76 be 8e 8f 23 bc
       -0.017923186 -0.25938198 -0.24059321 -0.009982957
0000c0 c8 80 28 3d 72 aa 05 be cc 00 04 3d fa 8d ca bd
       0.04113844 -0.13053301 0.032227322 -0.09890361
0000d0 bc e4 e5 bd 09 e2 89 be 30 46 25 be 51 86 06 3c
       -0.11225268 -0.26930264 -0.16140056 0.008210734
0000e0 b3 8a 21 be 96 4a 88 be 89 d2 73 be de d5 7c be
       -0.15775566 -0.26619405 -0.23810782 -0.24690959
0000f0 11 f6 e3 bd 97 ed 07 bd fd 71 53 be 58 06 c8 bd
       -0.11130918 -0.033185568 -0.20648952 -0.09766835
000100 92 25 ea 3d 73 00 a4 3d ae 22 10 bb 53 7d 46 3d
       0.11432947 0.08007898 -0.0021993327 0.048459362
000110 7b 4b 0b 3d 77 93 cd bb d1 ee 03 ba fe 76 86 3e
       0.03400753 -0.0062736827 -0.000503284 0.2626266
000120 51 84 9b 3e c0 62 3e 3e ae 57 80 3c 7a 28 26 3d
       0.30374387 0.18592358 0.015666809 0.040565945
000130 8c e8 86 bd 07 42 96 3d 6d 73 1d 3e 70 ec 68 3d
       -0.065873235 0.073368125 0.15376063 0.05686611
000140 cf b7 48 3d d2 ae 3d bc 98 81 19 bd 30 16 c8 3d
       0.04900342 -0.011577325 -0.037477106 0.09769857
000150 91 34 01 3e 5c bd 2b 3e e3 56 8b 3e 7a 8f 89 3c
       0.12617709 0.16771454 0.27214727 0.016792048
000160 15 05 1f 3e 30 68 89 3c 5a c8 42 3d fa 59 91 3e
       0.15529282 0.016773313 0.04755435 0.2838896
000170 b9 53 58 3d 78 91 53 bc b4 53 f4 3b ac 05 13 3d
       0.05281422 -0.0129131 0.0074562673 0.03589408
000180 e0 90 c1 3c cd 33 9e 3d cb d2 9e be b5 16 04 3e
       0.023628652 0.07724724 -0.31020197 0.12899287
000190 57 08 7e bd 43 76 8d 3e 6c 3c a5 bc c2 77 ba bd
       -0.062019672 0.2762929 -0.020170413 -0.09104873
0001a0 0c 01 61 be 3b db ae 3d 39 5d 74 bd 55 6f 11 be
       -0.21973056 0.08537909 -0.059659217 -0.14202626
0001b0 55 fe 41 be 23 b2 98 be 9a bb e1 3d da 89 eb 3d
       -0.18944676 -0.29823408 0.1102211 0.115009025
0001c0 75 52 5b 3e c8 aa 5b bc 9e ca 6b be a2 f3 41 be
       0.21418174 -0.013407417 -0.23026511 -0.18940595
0001d0 c6 e6 77 be 80 d4 51 be d4 a7 9a be 2f 2d 25 be
       -0.24209127 -0.20491219 -0.30206168 -0.16130517
0001e0 8b 05 d7 3d 6f 71 41 be 1b 4c 0b be 83 e3 82 be
       0.10499104 -0.18890928 -0.1360325 -0.25564203
0001f0 7d ce 12 3e 2b 43 87 be dd 9e 06 bd 4f 22 15 bd
       0.14336582 -0.26418433 -0.032866348 -0.036409672
000200 58 b9 6e 3e aa 50 9d 3a a5 fd b3 be 63 29 12 3e
       0.2331289 0.0012002189 -0.35154453 0.142736
000210 cd 32 73 bd 91 a1 90 3e ac a0 b3 be bb d9 12 3e
       -0.05937462 0.28248265 -0.3508352 0.1434087
000220 91 9b 5e bd c2 9a 83 bd 5a 30 57 3d 27 a4 b7 be
       -0.05434758 -0.06426002 0.052536346 -0.35867426
000230 65 98 fa bd ce df 9e be 1b 26 6c 3e 2b a0 8e bd
       -0.12236098 -0.31030124 0.23061411 -0.06964143
000240 e5 5c 21 3e 7e 12 05 3e ac 8a 91 be 1c ee 7d be
       0.15758093 0.12995335 -0.2842611 -0.24797863
000250 8a d9 99 be 49 6e d7 bd f7 b2 b4 be c7 eb 0d bd
       -0.30048782 -0.10519082 -0.3529279 -0.034648683
000260 c3 74 3f 3e 25 09 40 3e 0d fe 25 be 57 00 b7 be
       0.18696885 0.18753488 -0.16210194 -0.35742447
000270 ca 20 73 3d 4b f6 dd bd a4 07 81 be d2 a7 fc bd
       0.059357442 -0.10837992 -0.25201142 -0.12336697
000280 1a f1 b2 3d 93 e6 20 3e 65 7b 6e be 24 73 7e 3d
       0.08737393 0.15712957 -0.23289259 0.062121525
000290 42 8c 35 3e 20 b6 1b bd 19 c4 3b be dd 86 f1 bd
       0.17729285 -0.038015485 -0.18336524 -0.11793301
0002a0 43 74 a6 bd 4b 97 a6 bd c8 4c 7c 3e b3 2c 01 bd
       -0.08127644 -0.081343256 0.24638665 -0.03153677
0002b0 6d a9 71 be 53 91 5d be ae 09 b0 3d e7 0a 5f 3c
       -0.23599787 -0.21637468 0.08595596 0.013613439
0002c0 4b 70 05 be 72 b2 58 3d bc a1 75 bd b4 17 1b be
       -0.13031118 0.052904554 -0.059968695 -0.15145761
0002d0 4a 17 8b be a0 f3 aa be 1b bd 5f be 2f 50 6f 3b
       -0.27166206 -0.33388996 -0.21849482 0.00365163
0002e0 dd d2 ad bd ef 53 14 3d 94 a9 d1 bc b2 e4 15 be
       -0.084874846 0.036212858 -0.025593556 -0.14638022
0002f0 76 9c ff bd 15 44 1e be e2 d7 32 3d 9d b7 8c bd
       -0.124810144 -0.15455659 0.043662913 -0.06870959
000300 87 39 b9 bd e9 38 ea bd d5 dd 34 3a 58 77 64 bd
       -0.090441756 -0.11436636 0.00068995106 -0.055777878
000310 0e 21 f1 bd a8 12 80 bc dc 66 74 3e ef 5d 6c bd
       -0.11773883 -0.015633896 0.23867363 -0.05770677
000320 c9 99 c6 bd 40 75 c5 bd cd a2 4b bd 30 2d 51 bc
       -0.09697301 -0.09641504 -0.049715806 -0.012767121
000330 fa e5 4a 3e a5 72 6c bd 6a 01 97 3d b8 95 88 3d
       0.19814292 -0.05772652 0.073733166 0.066691816
000340 d8 5a 59 be 22 ea f5 3d b5 47 a2 bd 64 42 88 3e
       -0.2122606 0.12007548 -0.07923833 0.26613152
000350 dc e7 4d be 7c bf a9 3d 0e ab 4c bd 7f 78 27 be
       -0.20107979 0.08288476 -0.049967818 -0.1635456
000360 53 7c 9f 3d f3 b3 cc bd b2 0a 1b 3e 33 45 8a bb
       0.07787385 -0.0999526 0.15140799 -0.004219675
000370 1d 20 2a bd ae eb c1 bd a2 56 e7 bd 8b e5 a6 bd
       -0.04153453 -0.094687805 -0.11295821 -0.081492506
000380 d7 f5 d3 b9 7f e2 ce 3c 5d 34 7e 3e 20 cb aa bc
       -0.0004042822 0.025254486 0.24824663 -0.02084881
000390 99 62 1c 3e 7c 94 db 3d cf 32 14 3e fb fb 40 3b
       0.15271987 0.107216805 0.14472507 0.0029447067
0003a0 fb 0c 0c bd 69 91 65 3e bd b9 b9 3d 9b 40 94 3e
       -0.034192067 0.22418751 0.0906863 0.2895554
0003b0 a4 de 13 3e 21 d5 0a 3e 7d 10 fc 3d c0 71 b7 bc
       0.144404 0.13557865 0.123078324 -0.022393107
0003c0 3a 42 a3 3c d3 1f 08 3e 0a c0 16 3e 05 78 93 3e
       0.01992904 0.1329339 0.14721695 0.28802505
0003d0 e8 55 0a 3e 06 fc 86 3e b6 27 a7 3e f2 d1 46 3b
       0.13509333 0.26364154 0.32647485 0.003033754
0003e0 7d 12 09 3c 07 30 24 3e f6 4d 23 3e 87 1e 2b 3e
       0.008366224 0.16033946 0.15947708 0.16710864
0003f0 31 ed 91 3e 23 6d 26 3e a7 8f 8c 3d 60 ce 82 3e
       0.28501275 0.1625257 0.06863337 0.25548077

N.layers.1.bias f4 [32]
000000 58 b6 7b 3b 28 d5 0e be 8d 02 4b bd d9 dc 4e be
       0.0038408246 -0.139485 -0.04956298 -0.20201434
000010 c3 61 55 be d5 c4 75 be b7 39 af 3e 39 2e dc bb
       -0.20838074 -0.24000867 0.3422372 -0.0067193774
000020 7e 10 a5 bd 9c b3 69 3e 2a 7a 5e bc 76 3e 2f 3e
       -0.08059786 0.22822422 -0.013578931 0.1711367
000030 ee 4f 07 3e fb 8a 83 be e1 84 ee bc 91 4f 92 be
       0.13214085 -0.2569197 -0.029116096 -0.2857633
000040 94 04 52 3c cd 6b 72 be 5c cf 01 3e 17 2a 85 3e
       0.012818474 -0.23673935 0.12676758 0.26008675
000050 fb 08 00 be 5f 2a cc 3d 98 1c 4f be 60 ca 44 3d
       -0.12503426 0.09969019 -0.20225751 0.048044562
000060 c5 88 18 3e d9 1b b1 3d 94 86 ed 3d 2f bb d0 bc
       0.14895923 0.0864789 0.11597934 -0.025479881
000070 8c 62 57 3d 94 11 08 be f3 3d 76 bc ec 9f 92 3d
       0.052584216 -0.13287956 -0.015029418 0.07159409
