Birth-Death-0.1--1d/experiments/cnf/toy/2020_10_20_13_13_03_8gaussians_alph100_0_m32_checkpt.pth (torch, 8201 bytes, 7 tensors)

A f4 [2, 2]
-0.31729499 0.76458526 0.20853053 -0.033942394
00000000: 7d74 a2be dcbb 433f 0789 553e 2e07 0bbd

c.weight f4 [1, 2]
0.32593048 0.053349607
00000000: 5ce0 a63e 1e85 5a3d

w.weight f4 [1, 32]
-0.060164902 -0.13933794 -0.09722804 -0.004322093 -0.022222513 0.02498661 0.035334866 -0.012137629
-0.010843043 0.102803126 -0.060657457 0.19156486 0.21983387 0.10648847 -0.008914605 -0.028571688
0.45724365 -0.017537128 0.54771054 -0.018422976 -0.28196952 0.037868477 0.038304247 -0.030052314
-0.09394704 0.08411597 0.14419627 -0.08115603 0.50636184 -0.012475928 0.0023880443 -0.05058539
00000000: 796f 76bd 9bae 0ebe 7f1f c7bd 58a0 8dbb
00000010: fd0b b6bc b8b0 cc3c 4bbb 103d e8dc 46bc
00000020: 05a7 31bc 728a d23d f473 78bd 9429 443e
00000030: 211c 613e a116 da3d 900e 12bc 2c0f eabc
00000040: d71b ea3e 06aa 8fbc c236 0c3f c8eb 96bc
00000050: 4f5e 90be fa1b 1b3d eae4 1c3d 4530 f6bc
00000060: 4e67 c0bd fe44 ac3d 30a8 133e 2235 a6bd
00000070: eea0 013f d667 4cbc bc80 1c3b a032 4fbd

N.layers.0.weight f4 [32, 2]
-0.21804523 0.6766937 -0.00091569236 -0.686967 -0.27496764 1.0904086 0.45434827 -1.028561
0.32968926 -1.0262425 -0.14516856 -0.8776878 0.25283226 0.19502018 0.009513435 -0.051137477
-0.31160867 0.31650892 -0.49777508 0.7084212 -0.24885626 -1.4539691 -0.020032097 -0.17253579
-0.32087553 0.24901496 0.19398236 0.2232632 -0.35454866 -0.83665913 0.26036215 0.752109
-0.20727651 -0.21174666 0.31563008 1.3037118 0.21250029 1.0297679 0.07092678 0.7151978
-0.049999483 0.6797058 -0.02504201 -0.17600015 0.27486935 1.029344 0.38425946 1.6931715
0.29587638 -1.0747849 -0.2621652 0.68127465 -0.654355 0.63316286 -0.2889058 -1.5359288
0.15348518 0.5207215 -0.47531465 1.248397 0.24236342 0.6515237 -0.32536304 1.7398711
00000000: 4047 5fbe cc3b 2d3f 130b 70ba 12dd 2fbf
00000010: 8fc8 8cbe 8292 8b3f 56a0 e83e e3a7 83bf
00000020: 08cd a83e ea5b 83bf 11a7 14be 26b0 60bf
00000030: 3b73 813e 5fb3 473e 3dde 1b3c 8875 51bd
00000040: 2c8b 9fbe 750d a23e 60dc febe 175b 353f
00000050: 2dd4 7ebe a91b babf 5a1a a4bc 39ad 30be
00000060: cc49 a4be c7fd 7e3e 50a3 463e 1c9f 643e
00000070: 6787 b5be 4b2f 56bf 304e 853e 378a 403f
00000080: 4b40 54be 1ed4 58be 449a a13e 07e0 a63f
00000090: ad99 593e 6fcf 833f 0f42 913d 3417 373f
000000a0: 42cc 4cbd 3301 2e3f e724 cdbc 6239 34be
000000b0: adbb 8c3e 8bc1 833f a8bd c43e d8b9 d83f
000000c0: 1c7d 973e 8d92 89bf 843a 86be 0468 2e3f
000000d0: cf83 27bf f616 223f 76eb 93be 5199 c4bf
000000e0: 382b 1d3e 014e 053f 715c f3be 79cb 9f3f
000000f0: 1e2e 783e 42ca 263f fc95 a6be 19b4 de3f

N.layers.0.bias f4 [32]
-0.95857745 0.050463118 1.690447 -1.1708753 -1.4458857 -0.7831317 0.32042012 -0.029782023
-0.67632324 -0.30749238 -1.3767482 0.07014398 0.07317807 -0.820943 -0.9238587 -0.42994475
-0.475604 1.1498836 0.9808859 0.26459584 0.7665067 0.18641903 1.5640061 0.8381107
-1.403459 1.6313992 -0.47337285 -0.8127995 -0.6114644 0.29943967 0.44445363 1.2126565
00000000: 5565 75bf 6ab2 4e3d 9160 d83f 3edf 95bf
00000010: c812 b9bf 527b 48bf 1b0e a43e 6ef9 f3bc
00000020: 8523 2dbf a46f 9dbe 4939 b0bf a6a7 8f3d
00000030: 62de 953d 5229 52bf 0182 6cbf b821 dcbe
00000040: 5e82 f3be 632f 933f 571b 7b3f 1b79 873e
00000050: c839 443f a1e4 3e3e 5a31 c83f 6c8e 563f
00000060: 8ba4 b3bf b0d1 d03f ed5d f2be a113 50bf
00000070: ee88 1cbf 2850 993e 6d8f e33e 5438 9b3f

N.layers.1.weight f4 [32, 32]
-0.435436 -0.0633019 0.18967216 0.35364625 0.2789668 -0.40611354 -0.363059 -0.1690723
-0.23566106 0.3418697 0.290496 -0.09919759 0.3634936 0.2522589 0.218197 0.09398265
-0.14852014 0.22902969 -0.029847728 -0.39129975 -0.15882139 -0.29333076 0.14101478 0.36144257
0.32704487 0.13618998 0.18015309 0.10643449 0.08994081 0.3464222 -0.27829525 0.23270363
-0.1504588 -0.15868182 -0.18772775 -0.04893458 -0.22518465 -0.13920312 -0.39134204 -0.28533173
-0.21864915 0.08483545 -0.26482353 -0.37103027 -0.058097422 -0.13653299 -0.18286252 -0.07521358
-0.11934756 -0.13238509 -0.28364983 -0.35370582 -0.16660838 -0.18546131 -0.23544288 -0.18666261
-0.35702178 -0.11241963 0.108241655 -0.10698779 -0.37818006 -0.03216004 -0.3796288 -0.044760637
0.5075908 0.47533512 -0.07716255 -0.22802135 0.06425906 0.30741143 0.50873834 0.45878345
0.12576033 -0.2523409 -0.033910315 0.4952523 -0.11180032 0.19118865 -0.18012829 0.041541204
0.5046893 -0.16614744 0.068924844 0.3002068 0.19091228 0.40517178 0.13629124 0.1577251
-0.14003667 0.05734667 -0.044286974 0.09631769 0.4386026 -0.13352631 0.19581063 -0.08975866
0.22114731 -0.95488876 -0.28653875 -0.1350682 -0.0870482 -0.59448653 -0.031126205 -0.9529978
-0.04625743 -0.066187404 -0.25038102 -0.76953477 -0.0676727 0.11880402 -0.10834045 -0.13207269
-0.4095806 -0.07075931 -0.5565367 -0.7930837 -0.25569773 -0.74789524 -0.14421459 -0.27510953
-0.28204644 -0.11253262 -0.3128639 -0.006838845 0.18744564 -0.062322184 -0.45384866 -0.2865353
0.4412632 0.46438077 0.27297702 -0.17166296 0.025708284 0.4760166 0.47268012 0.37033236
0.3684217 0.06225048 0.023921855 0.3590482 0.18220678 0.2822425 0.164592 0.38775402
0.54379797 0.0987926 0.2881108 0.37009558 0.60132915 0.5316271 0.28766963 0.27659732
0.04816216 -0.02245537 0.15242745 0.11961526 0.3757302 0.064833865 0.6045496 -0.04622767
-0.41909754 -0.82860655 -0.4834395 -0.38110223 -0.4892804 -0.46024516 -0.2151921 -0.763572
-0.6620819 -0.09213372 -0.17966942 -0.8533917 -0.051408235 -0.29570383 -0.3584996 -0.10421545
-0.37243336 -0.40191877 -0.16807167 -0.3920309 -0.4563887 -0.5899081 -0.45700583 -0.31530324
-0.35104877 -0.47308084 -0.41190997 -0.37034246 -0.26304683 -0.36654317 -0.46006373 -0.2987606
-0.04154157 -0.00485876 -0.012411264 -0.18730576 -0.16415474 -0.40053046 -0.06166562 -0.0866951
0.05712427 -0.063172 -0.11838514 -0.2062231 -0.09858919 -0.24018848 -0.07893286 -0.08896978
-0.101125255 -0.0051636067 -0.24449514 -0.046690278 -0.29215518 0.007630707 -0.16909614 -0.024264269
0.097553365 0.039320078 -0.21367894 -0.2837164 -0.14850755 0.06968096 -0.0658178 0.043129973
-0.4074354 -0.5047286 -0.0045062066 0.2623082 -0.02442797 -0.45931947 -0.4136189 -0.59349155
-0.31971273 0.19218032 0.16244096 -0.4517374 0.07190272 -0.30432844 0.19887328 -0.1140425
-0.5476573 -0.0006120614 -0.17109758 -0.26952815 -0.56002235 -0.6052152 -0.19487515 -0.05923276
-0.038824216 -0.13704929 -0.10431151 0.041965593 -0.41478586 0.27876163 -0.40918565 -0.16959767
00000000: 78f1 debe 6da4 81bd 6b39 423e 1f11 b53e
00000010: bdd4 8e3e 1dee cfbe dfe2 b9be 4a21 2dbe
00000020: 2251 71be 8c09 af3e e4bb 943e 1b28 cbbd
00000030: d51b ba3e 1428 813e 096f 5f3e fa79 c03d
00000040: aa15 18be c286 6a3e 3983 f4bc 7158 c8be
00000050: 13a2 22be 732f 96be 2e66 103e 000f b93e
00000060: 6d72 a73e 6375 0b3e 0d7a 383e 53fa d93d
00000070: e332 b83d 405e b13e b77c 8ebe dc49 6e3e
00000080: df11 1abe 7d7d 22be b43b 40be a06f 48bd
00000090: ce96 66be 438b 0ebe fc5d c8be 0017 92be
000000a0: 90e5 5fbe 35be ad3d f396 87be aef7 bdbe
000000b0: 90f7 6dbd 4ecf 0bbe 5040 3bbe 9409 9abd
000000c0: 7e6c f4bd f58f 07be 8d3a 91be ee18 b5be
000000d0: 639b 2abe 92e9 3dbe f017 71be 7c24 3fbe
000000e0: 8fcb b6be 433c e6bd cdad dd3d 6a1c dbbd
000000f0: d1a0 c1be 3fba 03bd b55e c2be ee56 37bd
00000100: 78f1 013f 205f f33e 6607 9ebd 6e7e 69be
00000110: 419a 833d 0865 9d3e ad3c 023f aae5 ea3e
00000120: 51c7 003e d432 81be 8be5 0abd b691 fd3e
00000130: 91f7 e4bd f5c6 433e 8d73 38be 1c27 2a3d
00000140: 5133 013f 8e22 2abe 7828 8d3d b5b4 993e
00000150: 827e 433e ad72 cf3e ee8f 0b3e b082 213e
00000160: c665 0fbe 58e4 6a3d 4266 35bd 3642 c53d
00000170: 8590 e03e 1fbb 08be 9582 483e 63d3 b7bd
00000180: 7174 623e 9773 74bf 35b5 92be 514f 0abe
00000190: 5446 b2bd 4530 18bf 62fc febc aaf7 73bf
000001a0: 6e78 3dbd 438d 87bd f131 80be 3b00 45bf
000001b0: fc97 8abd 864f f33d 99e1 ddbd 103e 07be
000001c0: 8cb4 d1be 42ea 90bd 3079 0ebf 8907 4bbf
000001d0: d0ea 82be 1076 3fbf fdac 13be 28db 8cbe
000001e0: 6468 90be 8177 e6bd b22f a0be 6418 e0bb
000001f0: c0f1 3f3e 8c45 7fbd da5e e8be c1b4 92be
00000200: 40ed e13e 51c3 ed3e a5c3 8b3e 6ac8 2fbe
00000210: 2e9a d23c 73b8 f33e 2103 f23e 349c bd3e
00000220: c5a1 bc3e 5cfa 7e3d c4f7 c33c 2ad5 b73e
00000230: 6a94 3a3e 1782 903e ce8a 283e b287 c63e
00000240: 5836 0b3f c653 ca3d 4283 933e 2b7d bd3e
00000250: b5f0 193f b718 083f 6f49 933e 2a9e 8d3e
00000260: af45 453d 53f4 b7bc f115 1c3e d8f8 f43d
00000270: b55f c03e 9ec7 843d c3c3 1a3f 3a59 3dbd
00000280: f493 d6be 8f1f 54bf 6285 f7be d51f c3be
00000290: f682 fabe 41a5 ebbe 515b 5cbe 7479 43bf
000002a0: 337e 29bf 9bb0 bcbd 43fb 37be e177 5abf
000002b0: 7191 52bd 7e66 97be 428d b7be e96e d5bd
000002c0: 96af bebe 4cc8 cdbe fb1a 2cbe 46b8 c8be
000002d0: c8ab e9be 3804 17bf abfc e9be 6d6f a1be
000002e0: aabc b3be a737 f2be dde5 d2be 879d bdbe
000002f0: 13ae 86be 8cab bbbe 798d ebbe 26f7 98be
00000300: 7e27 2abd 3c36 9fbb 9d58 4bbc 15cd 3fbe
00000310: 2e18 28be 5412 cdbe 1795 7cbd 338d b1bd
00000320: 23fb 693d 5260 81bd e973 f2bd 262c 53be
00000330: 21e9 c9bd f8f3 75be 8da7 a1bd ca35 b6bd
00000340: c21a cfbd 7933 a9bb ef5c 7abe 4e3e 3fbd
00000350: 5d95 95be 030b fa3b 8a27 2dbe dcc5 c6bc
00000360: 0fca c73d 170e 213d a7ce 5abe 4743 91be
00000370: 5d12 18be e4b4 8e3d 7ccb 86bd 0ea9 303d
00000380: 5f9b d0be e535 01bf cda8 93bb 434d 863e
00000390: 2b1d c8bc ec2b ebbe dbc5 d3be 10ef 17bf
000003a0: 63b1 a3be ebca 443e ec56 263e 204a e7be
000003b0: bc41 933d f0d0 9bbe 70a5 4b3e 1d8f e9bd
000003c0: 4533 0cbf bf72 20ba 3434 2fbe 98ff 89be
000003d0: a05d 0fbf 62ef 1abf 5a8d 47be 0d9e 72bd
000003e0: 2406 1fbd a656 0cbe 46a1 d5bd 1de4 2b3d
000003f0: d05e d4be d8b9 8e3e c880 d1be 03ab 2dbe

N.layers.1.bias f4 [32]
-0.6024725 -0.4731037 0.4006886 -0.7352163 0.50126654 -0.98899853 -0.62473893 -0.46366835
-0.56745195 0.14410235 0.68268996 -0.5253381 1.0235434 -1.2034107 -0.5988404 -0.33922565
-0.7448165 0.24411364 -0.4645768 -0.42989314 0.043493297 -0.5956359 -0.64144355 -0.044742703
0.4008826 0.43044508 0.59135133 0.5924152 0.09288939 0.5981681 0.60014325 -0.36254406
00000000: a33b 1abf a63a f2be 0e27 cd3e 2337 3cbf
00000010: 0153 003f 022f 7dbf e4ee 1fbf f065 edbe
00000020: 8844 11bf 918f 133e c5c4 2e3f 8f7c 06bf
00000030: 7803 833f 5d09 9abf 9b4d 19bf fcae adbe
00000040: 4bac 3ebf edf8 793e 03dd edbe f41a dcbe
00000050: 0726 323d 987b 18bf a535 24bf 2044 37bd
00000060: 7c40 cd3e 4c63 dc3e cd62 173f 86a8 173f
00000070: cb3c be3d 8b21 193f fda2 193f 609f b9be
