Birth-Death-0.1--1d/experiments/cnf/toy/2020_10_20_13_10_06_8gaussians_alph100_0_m32_checkpt.pth (torch, 8199 bytes, 7 tensors)

A f4 [2, 2]
0	0x3c4f9d7f	0.012671827
1	0x3f06e869	0.5269838
2	0xbf039863	-0.514044
3	0x3edecd49	0.43515995

c.weight f4 [1, 2]
0	0x3df5e953	0.12007394
1	0xbf923f37	-1.1425542

w.weight f4 [1, 32]
0	0x3ed966ca	0.42461234
1	0xbcd62b74	-0.026143767
2	0xbc9fa5dd	-0.01948827
3	0x3e06be45	0.1315852
4	0xbdd943e6	-0.10608654
5	0xbe3761d6	-0.17908415
6	0xbddd6228	-0.108097374
7	0x3e48435f	0.1955695
8	0x3da21d2d	0.07915721
9	0x3d0baead	0.03410213
10	0xbe73de39	-0.2381524
11	0xbe2fdb74	-0.17173558
12	0x3d81d4e1	0.063394316
13	0xbd5a54e2	-0.053303607
14	0xbd8ea6e9	-0.06965429
15	0x3eb5b991	0.35493138
16	0xbdb3446b	-0.08753284
17	0xbdcea761	-0.10090519
18	0xbdb1638d	-0.08661566
19	0xbe1a6c12	-0.15080288
20	0x3f00eda7	0.5036263
21	0xbd955470	-0.07291496
22	0xbd73d3d3	-0.059528183
23	0xbd50d99b	-0.050988775
24	0xbe4f2150	-0.20227551
25	0x3e7db3a0	0.24775553
26	0x3ddea916	0.10872094
27	0xbe2dd696	-0.1697639
28	0xbe1ef0b3	-0.15521507
29	0xbd5cb420	-0.053882718
30	0x3c3a1a4e	0.011358811
31	0xbcdc1fbc	-0.0268706

N.layers.0.weight f4 [32, 2]
0	0xba62a4c1	-0.0008645766
1	0xbeaa9422	-0.3331614
2	0x3e964645	0.29350486
3	0xbf5e8bec	-0.86932254
4	0x3e17bcfa	0.14818183
5	0xbe7f8d68	-0.24956286
6	0x3dee3da6	0.11632852
7	0xbeeb7cd9	-0.4599369
8	0xbcac5e02	-0.02104092
9	0x3f190aca	0.5978209
10	0x3de75b3e	0.112967
11	0x3d3db4ec	0.04631512
12	0xbc13c201	-0.009018422
13	0xbec25aff	-0.3796005
14	0x3d2078fe	0.039177887
15	0xbf7dfeac	-0.99216723
16	0x3eab5ce7	0.33469316
17	0xbccd20ec	-0.025040112
18	0x3d5eb8fb	0.05437563
19	0x3f549078	0.8303294
20	0xbdc23581	-0.09482861
21	0xbeb42822	-0.3518687
22	0xbd1fa33b	-0.038974028
23	0x3f7fb8c9	0.99891335
24	0x3ee34b54	0.44393408
25	0xbf5639ea	-0.8368212
26	0x3d1d2669	0.03836671
27	0x3e37bbd5	0.17942746
28	0x3e3c973c	0.18417066
29	0x3df78897	0.12086599
30	0xbc20014b	-0.009765933
31	0x3f5a6eec	0.85325503
32	0x3ce00573	0.027346348
33	0xbf19561e	-0.5989703
34	0x3eb110d9	0.34583166
35	0xbef0a42d	-0.47000256
36	0xbdba8c09	-0.09108741
37	0xbefe146f	-0.49624965
38	0x3cf9bb23	0.030484742
39	0x3d01617a	0.0315871
40	0xbfa3601f	-1.2763709
41	0xbc3769a6	-0.011194622
42	0x3e4be2b4	0.19910699
43	0xbd6d8df4	-0.057996705
44	0x3da70471	0.08155144
45	0xbd8c1192	-0.06839289
46	0xbe1b2ca1	-0.15153743
47	0x3efcc3f2	0.49368244
48	0xbd8e2d00	-0.06942177
49	0x3e120b0e	0.1426203
50	0xbe2122d2	-0.15735939
51	0xbfaf079f	-1.3674201
52	0xbe818b85	-0.25301757
53	0xbe5be677	-0.21474634
54	0x3d5b3de0	0.053525805
55	0x3ed6e833	0.4197403
56	0x3d7765f2	0.060399957
57	0xbf281de5	-0.65670615
58	0xbd88ac2f	-0.066734664
59	0x3e8f8e59	0.2803829
60	0xbd5e32fb	-0.054247838
61	0x3f209571	0.6272803
62	0xbd367fad	-0.044555355
63	0x3ec58c7d	0.38583747

N.layers.0.bias f4 [32]
0	0xbdcdb004	-0.10043338
1	0xbe9f87d8	-0.31158328
2	0x3dd98a47	0.106220774
3	0x3eac18e4	0.3361274
4	0x3f74ce96	0.95627725
5	0xbeb59c89	-0.3547099
6	0x3e9faf75	0.3118855
7	0xbf2ae0d8	-0.66749334
8	0x3f110fc9	0.5666471
9	0x3f170b56	0.5900167
10	0x3ef57367	0.47939608
11	0x3f7f6ded	0.9977711
12	0x3ee06f42	0.43834883
13	0xbe991b49	-0.2990363
14	0x3f5b0db2	0.8556777
15	0xbf139069	-0.5764223
16	0x3e9f5aad	0.31123868
17	0x3e0e3f1e	0.13891265
18	0xbee57e0c	-0.4482273
19	0x3d7d777b	0.061881524
20	0x3d3c703a	0.046005465
21	0xbf1e9606	-0.6194767
22	0x3e79de95	0.24401315
23	0xbf0a0efa	-0.539291
24	0xbf81f4e0	-1.0152855
25	0xbe6560d7	-0.22400223
26	0xbf475c76	-0.7787546
27	0x3f5548ce	0.83314216
28	0xbcd010f6	-0.025398713
29	0xbeb8af91	-0.36071447
30	0xbe603a25	-0.2189718
31	0x3dc9e57d	0.098582245

N.layers.1.weight f4 [32, 32]
0	0x3eef6089	0.46753338
1	0xbeb5f6e2	-0.3553992
2	0xbd743be6	-0.059627436
3	0x3ed97e94	0.42479384
4	0x3e811639	0.25212267
5	0xbe8d4b29	-0.27596405
6	0x3e98f8c0	0.2987728
7	0xbd92c76e	-0.071669444
8	0xbe038c8a	-0.1284658
9	0x3d73751c	0.059437856
10	0x3d8f612f	0.07000958
11	0x3e8e7213	0.27821407
12	0xbd4cd734	-0.05000992
13	0x3e5ecd24	0.21757942
14	0xbea415ff	-0.32048032
15	0x3f0aef01	0.5427094
16	0x3ef7b4e6	0.48380202
17	0x3ef09d6d	0.46995106
18	0xbcff878e	-0.031192567
19	0x3ed59284	0.41713345
20	0x3f888443	1.0665363
21	0xbe1f0991	-0.15530993
22	0x3e81def0	0.253654
23	0x3e3e0482	0.18556407
24	0xbd02f6f9	-0.031973813
25	0xbe2a4266	-0.16626891
26	0xbe7437df	-0.23849438
27	0x3eaad2c6	0.33363932
28	0xbd82b188	-0.06381518
29	0xbc584a89	-0.013201364
30	0x3d38d446	0.045124315
31	0x3e071b9e	0.13194129
32	0x3e3b774e	0.1830723
33	0x3d965be8	0.073417485
34	0xbdee49e2	-0.11635186
35	0x3d511f79	0.051055405
36	0xbe0f396d	-0.1398675
37	0xbd1fc3cd	-0.03900509
38	0x3e2a21cd	0.16614456
39	0x3d382648	0.044958383
40	0xbe412547	-0.18861876
41	0xbe4652c6	-0.19367513
42	0x3cbfdf92	0.023422036
43	0x3c0519b9	0.008123809
44	0x3e60cfb9	0.2195424
45	0x3e1607ea	0.14651456
46	0x3e48c5e3	0.19606738
47	0x3e9d9ef5	0.30785337
48	0xbd48c3f0	-0.049014986
49	0x3d6f8f16	0.058486067
50	0x3d27db6b	0.040980738
51	0xbcc1b3d9	-0.023645328
52	0x3d8ba4c5	0.06818537
53	0xbda79f7e	-0.081847176
54	0xbde1cb6f	-0.1102513
55	0x3e8cd191	0.27503636
56	0x3e90cdf8	0.28282142
57	0x3e4428bf	0.19156168
58	0x3cb13096	0.021629613
59	0x3dc5fd8a	0.09667499
60	0xbe15999c	-0.14609379
61	0x3e381e67	0.17980348
62	0xbda0ea57	-0.07857197
63	0xbe0ce260	-0.1375823
64	0xbc65069e	-0.013978628
65	0x3e2b432a	0.1672484
66	0xbc3b1487	-0.011418468
67	0xbe15c282	-0.1462498
68	0xbeaaddfc	-0.33372486
69	0xbd689b49	-0.056788716
70	0x3db2db8d	0.08733282
71	0xbe0df04c	-0.13861197
72	0x3de78428	0.11304504
73	0xbdfb58f1	-0.122728236
74	0xbcc3653a	-0.02385198
75	0x3e199da6	0.15001544
76	0xbd485d7e	-0.048917286
77	0x3df2168a	0.11820705
78	0xbdee949b	-0.11649438
79	0x3e029c04	0.12754828
80	0xbeb87f43	-0.36034593
81	0xbe2e6ea3	-0.17034392
82	0xbe74ea18	-0.23917425
83	0xbd92a884	-0.07161048
84	0x3d67ac6f	0.05656093
85	0x3de17f1d	0.11010573
86	0xbccce1f4	-0.025010087
87	0xbe25bc37	-0.1618508
88	0x3d3251ba	0.04353497
89	0x3e8f0d3b	0.27939782
90	0xbd02a5d6	-0.031896435
91	0x3d9483c9	0.072516985
92	0xbea57a9f	-0.32320115
93	0xbdc2dd89	-0.09514911
94	0xbdd4074f	-0.103529565
95	0xbe6e2206	-0.23255166
96	0x3e8d8ee8	0.2764809
97	0xbe73110e	-0.23736975
98	0xbcc74aa8	-0.024327591
99	0xbd4bd1a6	-0.049760483
100	0xbec3c902	-0.38239294
101	0xbdffa00e	-0.124817
102	0xbd0d2b38	-0.034465045
103	0xbe14e255	-0.14539464
104	0x3e548f42	0.20757774
105	0xb9b670e3	-0.00034797852
106	0xbe91c2e7	-0.2846901
107	0x3e1e877e	0.15481374
108	0x3d07f329	0.03319088
109	0xbe80c847	-0.251528
110	0xbe17756e	-0.1479089
111	0xbdbe66aa	-0.09296925
112	0xbd947c80	-0.07250309
113	0x3da4c071	0.08044518
114	0x3e07e42e	0.13270637
115	0x3c09661d	0.008386162
116	0x3daa870c	0.083265394
117	0x3dd92f1d	0.10604689
118	0x3ea6502d	0.32483044
119	0xbc9cd936	-0.019146543
120	0x3d8c0732	0.0683731
121	0xbddd8c6c	-0.10817799
122	0x3db3ef19	0.08785839
123	0x3f225f49	0.63426644
124	0x3c982fd9	0.018577503
125	0x3ea15cbb	0.3151606
126	0x3d64afc8	0.0558317
127	0xbeb9cc43	-0.36288652
128	0xbe1d059e	-0.15334174
129	0x3e10d92a	0.14145342
130	0x3d2f3362	0.04277361
131	0x3bd6059d	0.006531431
132	0x3daf1aed	0.085500576
133	0x3e7c4f71	0.2463968
134	0x3dac5157	0.08413952
135	0x3e2dcd84	0.16972929
136	0x3e3c513d	0.18390365
137	0x3e8e5235	0.27797094
138	0x3e0c8620	0.1372304
139	0x3dcf5be6	0.1012495
140	0x3ecad9c5	0.3961927
141	0x3e789117	0.24274097
142	0x3dd05ed3	0.10174336
143	0x3e4ead07	0.20183192
144	0x3d13112c	0.03590505
145	0x3e53bb08	0.20676816
146	0x3ea0d8ff	0.31415555
147	0x3db0bdb8	0.08629936
148	0xbcef1973	-0.02918694
149	0x3d8a7213	0.06760039
150	0x3db3e436	0.08783762
151	0x3e90c458	0.28274798
152	0x3e6248d3	0.22098093
153	0x3eed43b5	0.4634072
154	0x3e8f5bfa	0.2799986
155	0x3c0d24ca	0.008614728
156	0x3ec9d5a4	0.39420807
157	0x3d4b90b1	0.049698535
158	0x3e373005	0.17889412
159	0x3ea54b83	0.32284173
160	0xbf0fbf23	-0.56151026
161	0xbe73eecb	-0.23821561
162	0xbc55296b	-0.013010363
163	0xbed3e34f	-0.4138436
164	0xbe568430	-0.20948863
165	0x3d52e1da	0.05148492
166	0xbee9e7f5	-0.45684782
167	0xbdb940a7	-0.090455346
168	0xbd7f97a7	-0.062400486
169	0xbde51a4f	-0.111866586
170	0xbe1cebf1	-0.1532438
171	0xbf0f373d	-0.5594366
172	0xbe23634f	-0.15955852
173	0xbf1dfe5a	-0.61716235
174	0xbe550366	-0.20802078
175	0xbeaba146	-0.3352148
176	0xbf136017	-0.57568496
177	0xbe84b23f	-0.2591724
178	0xbe94f02e	-0.29089493
179	0xbf29de0a	-0.6635443
180	0xbdda6680	-0.106640816
181	0x3e03138b	0.12800424
182	0xbe869a22	-0.2628947
183	0xbf06325b	-0.52420586
184	0xbeb827c8	-0.3596785
185	0xbeba7935	-0.364206
186	0xbe8a5afa	-0.27022535
187	0xbeba3ae7	-0.36373064
188	0xbe49d0c9	-0.19708551
189	0xbde660ee	-0.112489566
190	0xbe5dafb7	-0.21649061
191	0x3d4f4345	0.050601263
192	0x3e8dc467	0.27688906
193	0x3e7815b6	0.24227032
194	0x3d864cec	0.065576404
195	0x3e1bf6e1	0.15230896
196	0x3e547c56	0.20750555
197	0x3e9fc37c	0.3120383
198	0x3e60be90	0.21947694
199	0x3e647194	0.22308952
200	0x3ecb0c85	0.3965799
201	0x3cf53abb	0.029935231
202	0x3ea417ab	0.32049307
203	0x3e261bfe	0.16221616
204	0x3e7deb58	0.24796808
205	0x3e1b8080	0.15185738
206	0x3e7ea1d4	0.2486642
207	0x3e544851	0.20730712
208	0xbb0d053c	-0.0021518013
209	0x3df4a482	0.1194544
210	0x3e67cd40	0.2263689
211	0x3e725535	0.23665316
212	0xbd2881f1	-0.041139547
213	0x3e98baf4	0.29830134
214	0x3e1cd2f7	0.15314852
215	0x3e02d1ae	0.12775299
216	0x3e0a6ffb	0.1351928
217	0x3ebd8fb8	0.3702371
218	0x3eca79df	0.39546105
219	0x3ed54181	0.41651538
220	0x3e1cde70	0.15319228
221	0x3e7841be	0.24243829
222	0x3e81b5f3	0.2533413
223	0x3e216510	0.15761209
224	0x3f977087	1.1831216
225	0xbe601889	-0.2188436
226	0x3e6e05a8	0.23244345
227	0x3e9ecbdc	0.31014907
228	0x3eb00aa3	0.34383115
229	0x3e42d24f	0.19025539
230	0x3f350a7a	0.7071911
231	0xbde4a315	-0.11163918
232	0x3deff9aa	0.117175415
233	0x3e95301c	0.29138267
234	0x3dcbc295	0.09949223
235	0x3e9f94ed	0.3116831
236	0xbea7f00d	-0.32800332
237	0x3f2f31d5	0.6843541
238	0xbe177f0a	-0.14794555
239	0x3f12fadd	0.57414037
240	0x3f372efc	0.7155607
241	0x3e85cd66	0.2613327
242	0x3f040788	0.5157399
243	0x3f83e590	1.0304432
244	0x3f722d80	0.9460068
245	0x3df6bb91	0.12047494
246	0x3eccdf26	0.40014
247	0x3eb4e7a3	0.35332975
248	0x3e5478f4	0.20749265
249	0xbd05b18a	-0.032640018
250	0xbe32d0fc	-0.17462534
251	0x3f6d26ed	0.9263752
252	0x3e590c19	0.21196021
253	0x3f2eae10	0.6823435
254	0x3e92dd14	0.28684294
255	0x3e5512c0	0.20807934

N.layers.1.bias f4 [32]
0	0x3f65dc55	0.89789325
1	0x3f809527	1.0045518
2	0x3f7a0a9a	0.97672427
3	0xbf1a78ae	-0.6034039
4	0x3f10d45e	0.56574047
5	0xbf1cfaf8	-0.6132045
6	0x3f27773b	0.65416306
7	0x3eb1ea78	0.34749198
8	0x3ede795d	0.43451968
9	0xbf2cda86	-0.6752094
10	0xbd44b2af	-0.04802197
11	0xbf2c3a09	-0.67276055
12	0xbf2d9299	-0.67801815
13	0xbf17fc41	-0.59369284
14	0x3f41c707	0.75694317
15	0x3f641010	0.8908701
16	0xbf083f66	-0.5322174
17	0x3f24fe47	0.64450496
18	0x3ed24620	0.41069126
19	0xbf287c1c	-0.65814376
20	0xbfb07597	-1.3785886
21	0xbf375f28	-0.7162957
22	0x3f243f9e	0.6415957
23	0xbeafb750	-0.34319544
24	0xbf32f563	-0.6990568
25	0xbf11f30e	-0.570115
26	0xbf2e578a	-0.68102324
27	0xbf24b933	-0.6434509
28	0x3f623d0f	0.8837442
29	0xbebb128c	-0.36537588
30	0xbf625dae	-0.88424194
31	0xbed534ff	-0.41641995
