Master-1d-noR/experiments/cnf/toy/2020_10_18_23_32_32_8gaussians_alph100_0_m32_checkpt.pth (torch_old, 6649 bytes, 7 tensors)

A f4 [2, 2]
0	0xbedca16d	-0.43091908
1	0x3e7a2555	0.24428304
2	0x3e653426	0.22383174
3	0xbf21dbb7	-0.63225883

c.weight f4 [1, 2]
0	0x3ea2f033	0.31823882
1	0xbb5fa09e	-0.0034122835

w.weight f4 [1, 32]
0	0x3e9d73c6	0.3075239
1	0x3f57676f	0.841422
2	0x3ee356ad	0.44402066
3	0x3ea7d023	0.32775983
4	0x3e8417fe	0.25799555
5	0x3eb28ebe	0.3487453
6	0x3e18463c	0.14870542
7	0x3eb7ece7	0.3592293
8	0x3e90842d	0.28225842
9	0x3e9760ef	0.29566142
10	0x3edb28ad	0.4280447
11	0x3eb62268	0.35573125
12	0x3e9c8b56	0.30575055
13	0x3e7d3a19	0.24729194
14	0x3eb3cacf	0.35115668
15	0x3e9a9fd6	0.3020007
16	0x3ebe1c51	0.3713098
17	0x3ecbc834	0.3980118
18	0x3e9204ca	0.2851928
19	0x3eb49e44	0.35276997
20	0x3eb2bec4	0.34911168
21	0x3ec5db5f	0.3864393
22	0x3f5b7c5f	0.8573665
23	0x3e17d09f	0.14825676
24	0x3e6dac96	0.23210368
25	0x3e6f6ff5	0.23382552
26	0x3e84dcce	0.2594971
27	0x3e54aef2	0.20769861
28	0x3e9771db	0.29579052
29	0x3ed3f0eb	0.41394743
30	0x3e9858db	0.2975529
31	0x3e850515	0.2598044

N.layers.0.weight f4 [32, 2]
0	0xbe8c16c0	-0.27361107
1	0x3f0db72d	0.5535763
2	0xbdc1a1fc	-0.09454724
3	0xbe0d0b9b	-0.13773958
4	0x3e1c31e3	0.15253405
5	0xbeb7d95c	-0.3590802
6	0x3e49445c	0.19654983
7	0xbf8fed40	-1.1244278
8	0xbd0cd1bf	-0.034379717
9	0xbf2c0ec0	-0.67210007
10	0xbe098bc6	-0.13432226
11	0xbee2616d	-0.44214955
12	0xbc067fb9	-0.008209162
13	0x3ce13158	0.02748935
14	0x3d742097	0.059601393
15	0xbfa0f7a1	-1.257557
16	0x3d4f5e69	0.050627146
17	0xb902dc9f	-0.00012479954
18	0x3dfff467	0.12497788
19	0xbd18553d	-0.037190665
20	0xbb560441	-0.0032656344
21	0x3f3cb25d	0.7370966
22	0xbd390539	-0.045170996
23	0x3eaeb5ef	0.3412318
24	0x3d9adeeb	0.075620495
25	0xbf81f1fd	-1.0151974
26	0x3dae39b9	0.085071035
27	0xbf40d23e	-0.75320804
28	0xbdab8cc7	-0.083764605
29	0xbeae39a6	-0.34028357
30	0x3e75bafa	0.23997107
31	0xbf442696	-0.7662138
32	0xbdaf8d9f	-0.08571934
33	0x3f930b18	1.148776
34	0xbac3c4a4	-0.0014935923
35	0x3ea0a009	0.31372097
36	0x3cc8d0a0	0.024513543
37	0xbdc724e4	-0.09723833
38	0xbc1fe41d	-0.009758976
39	0xbf8f880f	-1.1213397
40	0x3db9b932	0.09068526
41	0xbf876e05	-1.058045
42	0xbd893754	-0.06700006
43	0x3f41bce5	0.75678855
44	0x3e189fd0	0.14904714
45	0x3ebb0a95	0.3653151
46	0xbdca0fc7	-0.098662905
47	0xbe135e17	-0.14391361
48	0x3daf56d9	0.08561487
49	0xbf16b1fb	-0.58865327
50	0x3daf9695	0.08573643
51	0xbe7f2a30	-0.24918437
52	0xbdb02eb0	-0.08602655
53	0xbf24e3bf	-0.6441001
54	0xbe3e66aa	-0.1859385
55	0xbe58de77	-0.21178614
56	0xbd8c197f	-0.068408005
57	0x3f64907b	0.8928296
58	0x3d8c72c2	0.06857826
59	0xbf59629a	-0.8491608
60	0xbcfeaa9a	-0.031087209
61	0x3f330635	0.69931346
62	0x3d2b7a99	0.041864965
63	0x3eacbcea	0.3373788

N.layers.0.bias f4 [32]
0	0x3f823150	1.0171299
1	0x3f8ba1ab	1.0908712
2	0xbf2dc0f0	-0.67872524
3	0xbef11b03	-0.4709092
4	0xbfa84315	-1.3145472
5	0xbea20b83	-0.31649408
6	0xbec85850	-0.39129877
7	0xbf12c139	-0.57326084
8	0x3f08fcb9	0.53510624
9	0x3e14329a	0.14472428
10	0xbd710fe7	-0.058853056
11	0x3e89db8d	0.26925316
12	0xbeab7c47	-0.33493254
13	0xbfa1407d	-1.2597805
14	0x3f721d0a	0.9457556
15	0x3bbfc489	0.0058522862
16	0x3f55b6f5	0.83482295
17	0x3f9c0b99	1.2191039
18	0xbec74550	-0.3892007
19	0xbf514153	-0.817403
20	0xbf98b9f3	-1.1931747
21	0x3fa50833	1.2893127
22	0xbe74c8c1	-0.23904707
23	0xbf556ae4	-0.8336623
24	0x3e47b1c3	0.19501404
25	0xbf8eb4ba	-1.1148903
26	0xbf3b9c1a	-0.7328507
27	0x3f399147	0.724873
28	0x3f62681c	0.8844011
29	0xbf0bdcc3	-0.5463373
30	0x3ec2aaf7	0.3802106
31	0x3ec0e7a5	0.3767673

N.layers.1.weight f4 [32, 32]
0	0xbd7cdb54	-0.061732605
1	0x3edd1c93	0.43185863
2	0x3e8fa51d	0.2805566
3	0x3e67a6b4	0.22622186
4	0x3d0bd1ca	0.034135617
5	0xbc4a2062	-0.012336822
6	0x3edbddd8	0.4294269
7	0xbda18dd7	-0.07888382
8	0x3e715e00	0.23571014
9	0x3e295bb3	0.16538887
10	0x3e4509e2	0.19242051
11	0x3eb32c05	0.34994522
12	0x3ec81e52	0.39085633
13	0xbd92e012	-0.07171644
14	0x3e43cc91	0.19121005
15	0x3d08ee0b	0.03343014
16	0x3e92e5db	0.2869099
17	0xbc0921b4	-0.008369852
18	0x3e2b240f	0.16712974
19	0x3e30b9c8	0.1725837
20	0x3e05d327	0.1306883
21	0x3e873838	0.2641008
22	0x3eba9f9b	0.36449894
23	0x3e98bf52	0.29833466
24	0x3ed9bb47	0.42525694
25	0x3ee69f2f	0.45043322
26	0x3e6199ee	0.22031376
27	0xbe0fc25d	-0.14038987
28	0x3eef2f75	0.46715894
29	0x3e8d7e02	0.276352
30	0x3eb1166e	0.34587425
31	0x3e7a844c	0.2446453
32	0xbeae8082	-0.3408242
33	0x3ebe62e0	0.3718481
34	0x3e8fa21f	0.28053376
35	0x3ea2fd25	0.3183376
36	0x3dde2b22	0.10848071
37	0xbef73fe3	-0.4829093
38	0x3e9e035a	0.30861932
39	0xbf06f7ec	-0.5272205
40	0x3e8cf631	0.2753158
41	0xbd117cb9	-0.035519335
42	0x3ecb5a55	0.39717355
43	0x3efca551	0.49344876
44	0x3ed9fc91	0.42575505
45	0xbe8eba52	-0.27876526
46	0x3ee89b6b	0.45431075
47	0x3e18e689	0.14931692
48	0x3efef407	0.49795553
49	0xbe9bfe61	-0.30467513
50	0x3e8f2f7b	0.27965912
51	0xbe7e8245	-0.24854381
52	0x3eb6c353	0.35695896
53	0x3d0a1537	0.03371164
54	0x3e8e3af5	0.27779356
55	0x3e67a396	0.22620997
56	0x3f0f0746	0.55870473
57	0x3ee414fb	0.44547257
58	0xbe958ed8	-0.29210544
59	0xbf2b5ec6	-0.6694149
60	0x3f0dea7c	0.5543592
61	0x3f07c182	0.53029644
62	0x3ebe08b0	0.37116003
63	0x3ec1a841	0.3782368
64	0xbf1502a7	-0.5820717
65	0xbdf5ca0b	-0.12001427
66	0xbe540be8	-0.20707667
67	0xbdfda9d6	-0.12385909
68	0xbcfba2b3	-0.03071723
69	0xbd9ff940	-0.078112125
70	0xbc8dc7e8	-0.017307237
71	0xbe2bde2a	-0.16783968
72	0x3e906890	0.28204775
73	0x3de5b055	0.11215273
74	0x3ec78e7f	0.38975903
75	0x3d8c6846	0.06855826
76	0x3da1daa3	0.0790303
77	0xbf0bfe1c	-0.54684615
78	0x3e14e423	0.14540152
79	0x3e3096ce	0.17245027
80	0xbf35b832	-0.70984185
81	0xbe00a66e	-0.12563488
82	0x3db9f1ed	0.09079347
83	0x3dea0c5e	0.1142814
84	0xbf0727e9	-0.52795273
85	0x3ca01a6a	0.019543845
86	0x3e4d658a	0.20058265
87	0x3dafe493	0.08588519
88	0x3e03bba5	0.1286455
89	0xbf280230	-0.6562834
90	0xbd9d399c	-0.07677004
91	0xbea9bbf4	-0.3315121
92	0xbecbd944	-0.39814198
93	0xbe4a4665	-0.19753416
94	0x3e7b5806	0.24545297
95	0x3e5947b1	0.21218754
96	0x3cb8eca5	0.022573778
97	0x3d03926a	0.032122053
98	0x3e0819ab	0.13291042
99	0xbccbeb5b	-0.0248925
100	0x3d6de4ba	0.05807946
101	0x3cfae09b	0.030624678
102	0xbd414845	-0.047188062
103	0x3e1d971c	0.15389675
104	0xbbd239e8	-0.0064155944
105	0x3e1c1dce	0.15245745
106	0x3e10219f	0.14075325
107	0x3dc07f6a	0.09399302
108	0x3eb31ccf	0.34982917
109	0x3e01a0ce	0.12658998
110	0x3d5d92c3	0.05409504
111	0xbc89ac2c	-0.01680573
112	0x3e01e458	0.12684762
113	0xbb5f7166	-0.003409469
114	0x3e653623	0.22383933
115	0x3e9c3119	0.3050621
116	0x3e62ac81	0.22136118
117	0x3cec188c	0.028820299
118	0x3e6ec9fe	0.23319241
119	0x3db77ed2	0.08959736
120	0x3de30060	0.11084056
121	0x3e7b3ec7	0.24535666
122	0x3d0fc4a7	0.03509965
123	0xbd99b20e	-0.07504664
124	0x3e4cc256	0.19996008
125	0x3d74b10e	0.059739165
126	0x3cdb7fcb	0.026794335
127	0x3d836551	0.06415809
128	0x3e9ff7e1	0.31243804
129	0xbd9fe360	-0.0780704
130	0x3e092e05	0.13396461
131	0x3e9f344f	0.31094596
132	0x3e1234d0	0.14277959
133	0x3e5c8746	0.21535978
134	0xbe65e8d1	-0.22452094
135	0x3e98e87c	0.29864872
136	0xbe54c2bc	-0.2077741
137	0x3d98d29e	0.07462047
138	0xbdc83289	-0.09775264
139	0x3d13553c	0.035969958
140	0x3c8f3362	0.017480556
141	0x3ed1d6b4	0.40984118
142	0xbd3c7777	-0.046012368
143	0x3d764d91	0.060132567
144	0xbdf08862	-0.11744763
145	0x3d11dca8	0.035610825
146	0xbe5393a5	-0.2066179
147	0x3ea42cca	0.3206542
148	0x3e08b522	0.13350347
149	0x3e88bac1	0.26704982
150	0x3df72fae	0.12069641
151	0xbde968e0	-0.113969564
152	0xbe71ab03	-0.23600392
153	0x3cba7a6a	0.02276345
154	0x3d84f6d8	0.06492394
155	0x3e9806dd	0.29692736
156	0xbc9e947b	-0.01935791
157	0x3cf3c684	0.029757746
158	0xbd166b83	-0.036723625
159	0xbe144420	-0.14479113
160	0xbe40a111	-0.18811442
161	0xbed39a33	-0.41328582
162	0xbe6960b3	-0.22790794
163	0xbec3fcb4	-0.38278735
164	0xbd662e04	-0.056196228
165	0x3c42ac5c	0.011881914
166	0xbeea7f70	-0.45800352
167	0xbe82c529	-0.25541046
168	0xbedd3b09	-0.43209103
169	0xbec3d741	-0.38250163
170	0xbeadc48c	-0.33939016
171	0xbe9cda40	-0.30635262
172	0xbefbccab	-0.49179587
173	0x3e1cea92	0.15323856
174	0xbeadf067	-0.33972475
175	0xbe485b60	-0.19566107
176	0xbe686cac	-0.22697705
177	0xbb9f287e	-0.004857122
178	0xbe9d2d62	-0.30698687
179	0x3d537168	0.051621825
180	0xbdfd7cc0	-0.1237731
181	0xbe020218	-0.12696111
182	0xbecc0a6b	-0.39851698
183	0xbe00b6d9	-0.12569751
184	0xbeb5de80	-0.35521317
185	0xbed49773	-0.41521797
186	0xbc393db5	-0.011306216
187	0x3db0c8c2	0.086320415
188	0xbe5ff0ff	-0.21869276
189	0xbe86a19e	-0.2629518
190	0xbe5a5011	-0.21319605
191	0xbe8deb03	-0.27718362
192	0xbe4036f6	-0.18770966
193	0xbdd392ee	-0.10330759
194	0xbd957e8a	-0.07299526
195	0xbe5f88c5	-0.21829517
196	0xbe256191	-0.161505
197	0xbdea59da	-0.11442919
198	0xbeba6099	-0.36401823
199	0x3c820200	0.015870094
200	0xbe9a2558	-0.30106616
201	0xbe18ca94	-0.14921027
202	0xbe102345	-0.14075954
203	0xbea5c36b	-0.32375655
204	0xbe636d8b	-0.22209756
205	0xbdaf4130	-0.085573554
206	0xbe32eff8	-0.17474353
207	0xbd964309	-0.07337005
208	0xbe134d71	-0.1438501
209	0x3d0077a0	0.031364083
210	0xbe4277e8	-0.18991053
211	0xbd43909c	-0.047745332
212	0xbe860f18	-0.2618339
213	0xbe0afe79	-0.13573636
214	0xbe899af8	-0.26876044
215	0xbeb81310	-0.35952044
216	0xbeee20e0	-0.46509457
217	0xbe1a51d5	-0.15070279
218	0xbd30d0c4	-0.043167844
219	0xbd46f980	-0.048577785
220	0xbde5f96a	-0.112292126
221	0xbecc19eb	-0.39863524
222	0xbe84ebf1	-0.2596126
223	0xbe684ab8	-0.22684753
224	0xbd83a7b7	-0.064284734
225	0x3e92e11e	0.28687376
226	0x3e3894a7	0.18025456
227	0x3dfed9a7	0.12443858
228	0x3d315c8b	0.043301146
229	0xbe64f261	-0.22358085
230	0x3e7071bf	0.2348089
231	0xbe956633	-0.29179534
232	0x3e287df2	0.16454294
233	0x3ec85733	0.39129028
234	0x3edf31ba	0.43592626
235	0x3eba246e	0.3635592
236	0x3eb1a001	0.34692386
237	0xbe931de4	-0.28733742
238	0x3e1d4f2f	0.15362237
239	0x3e38bccb	0.18040769
240	0x3eef4360	0.4673109
241	0xbe5542f3	-0.2082632
242	0x3f012f39	0.5046268
243	0xbdaeb422	-0.08530451
244	0x3d9f1a59	0.07768697
245	0xbd0fb118	-0.035081
246	0x3ec94a3e	0.39314455
247	0x3e32177f	0.17391776
248	0x3f056f3e	0.5212287
249	0x3eabcad7	0.33553192
250	0xbd8c25bb	-0.06843134
251	0xbe8956c9	-0.26824024
252	0x3e5b1806	0.21395883
253	0x3e32459f	0.17409371
254	0x3edb727e	0.42860788
255	0x3e6c1934	0.23056489

N.layers.1.bias f4 [32]
0	0x3ea06f65	0.31334987
1	0x3f35f832	0.7108184
2	0x3ec85d6c	0.39133775
3	0x3e85b5fe	0.26115412
4	0xbe719c2f	-0.23594736
5	0xbebd1ec8	-0.36937547
6	0xbea2307a	-0.3167761
7	0x3ef1b7e2	0.47210604
8	0xbedcb6cb	-0.4310821
9	0xbece4453	-0.40286502
10	0x3f27a7ca	0.654904
11	0xbe4d5940	-0.20053577
12	0xbe7d3aa5	-0.24729402
13	0xbf240427	-0.64068836
14	0x3e5f2fde	0.21795604
15	0x3e67d532	0.22639921
16	0x3d83c39e	0.064337954
17	0xbea3b333	-0.31972656
18	0x3e1e3c5f	0.15452717
19	0xbef0a953	-0.47004184
20	0xbf06ba32	-0.5262786
21	0xbac74956	-0.0015204351
22	0xbf084c22	-0.5324117
23	0x3ed94343	0.4243413
24	0x3eae4692	0.34038216
25	0x3eb7c8e3	0.35895452
26	0xbed53f91	-0.4165006
27	0x3f027640	0.50961685
28	0x3e41343b	0.1886758
29	0xbedd9a3d	-0.43281737
30	0xbea25214	-0.31703246
31	0x3e8f9180	0.28040695
