Master-1d/experiments/cnf/toy/2020_10_18_23_33_49_8gaussians_alph100_0_m32_checkpt.pth (torch_old, 6649 bytes, 7 tensors)

A f4 [2, 2]
000000 3a 4e 89 3e 53 b1 b7 bf cd 7a c9 be 83 45 2a 3f
       0.26817495 -1.435099 -0.39351502 0.66512316

c.weight f4 [1, 2]
000000 e0 ce 91 3e b8 2f 4d 39
       0.28478146 0.000195681

w.weight f4 [1, 32]
000000 6e 74 b9 3e 86 bc a3 3e b8 8a 5b 3e b3 0b 8b 3e
       0.3622164 0.3197977 0.21439636 0.27157363
000010 9b 2e 3c 3e 27 37 90 3e 63 cd 6d 3e 8e a1 9c 3e
       0.18377154 0.28167078 0.2322288 0.30592006
000020 1b c2 a7 3e 61 5a 93 3e 30 a6 f2 3e 6e 7d 98 3e
       0.32765278 0.2877989 0.47392416 0.29783195
000030 82 fa 3f 3e 50 cc 96 3e f4 8d 7a 3e c3 82 93 3e
       0.18747905 0.29452753 0.24468213 0.288107
000040 5f 12 66 3e 1c 08 72 3e 89 3d 81 3e 4c 83 78 3e
       0.22467946 0.23635906 0.2524226 0.24268836
000050 56 44 6d 3f eb ee 28 3f 30 d6 98 3e 95 d5 91 3f
       0.926824 0.6598956 0.29850912 1.1393305
000060 6c e2 83 3e f8 bf 71 3e 48 f1 db 3e b0 d0 84 3e
       0.25758684 0.23608387 0.4295752 0.25940466
000070 2f b3 6a 3e 78 c6 52 3e ff c7 ba 3e 37 a9 58 3e
       0.22919916 0.20583522 0.3648071 0.211583

N.layers.0.weight f4 [32, 2]
000000 e6 c1 57 bd 37 b6 2d 3d 4b 22 0b bd 23 f8 7a bf
       -0.05267515 0.0424101 -0.03396825 -0.98034877
000010 29 da 5e 3e 45 44 8d bf 50 ab 6a bb f6 cf 2e be
       0.21762909 -1.1036459 -0.0035807677 -0.17071518
000020 e2 93 9a bb 0f a2 3f bf 45 4d 7a bc 45 cc 0b bf
       -0.004717336 -0.74856657 -0.015277212 -0.54608566
000030 31 82 cc bd 44 e4 ab 3f 17 a1 2d be 65 f1 15 3f
       -0.099857695 1.3429036 -0.16955982 0.58571464
000040 8e e8 f9 3d fc b4 ca 3d fe d3 39 be e2 a1 0a bf
       0.122025594 0.09897801 -0.18147275 -0.54153264
000050 91 ac 1e be 2e 05 7f bf 0d 93 4d be c7 57 48 3f
       -0.15495516 -0.9961728 -0.20075627 0.7825894
000060 0b f1 c1 bd 44 e9 be 3d 6e a9 c4 3c 97 1a c3 3d
       -0.094698034 0.09321836 0.024006572 0.09526556
000070 6c e8 a1 3b d5 88 3d bf 70 9a 3a 3c 68 0b 35 3f
       0.004941037 -0.74036914 0.01138936 0.7072053
000080 eb 5e 93 be 49 dc e7 3e bc 6f 76 3e 5d a6 0c 3f
       -0.28783354 0.45285252 0.24066061 0.5494135
000090 e7 5c 5c be 5e 74 22 be e5 d7 09 be bf d5 17 bf
       -0.21519814 -0.15864703 -0.13461263 -0.59310526
0000a0 4b f4 2c bd 84 ce 9d bf 16 f6 87 bd dc b9 24 3f
       -0.042225163 -1.2328649 -0.06638734 0.643461
0000b0 f1 9c 2d 3e ac 89 69 bf cd f3 8a bd 96 c0 8a 3f
       0.169544 -0.91225696 -0.067847826 1.0840023
0000c0 22 3d 00 be 0d 3b 86 3f d6 25 36 be a6 88 a0 3f
       -0.1252332 1.0486771 -0.17787871 1.2541702
0000d0 62 6f 54 3e 70 0f 90 bf ba ea 98 3c be 89 01 bf
       0.20745614 -1.1254711 0.018666614 -0.506008
0000e0 a3 5c 83 3b f7 8c 46 3f fb d6 ff 3c 50 42 b3 be
       0.004008846 0.77558845 0.03123044 -0.3501153
0000f0 b4 bd 20 be 30 ae 8e 3f f0 a5 37 bd b7 05 99 bf
       -0.15697366 1.1146908 -0.044835985 -1.1954869

N.layers.0.bias f4 [32]
000000 44 32 a6 3f ca 34 4c bf b7 d7 9c bf d8 0e 26 bf
       1.298409 -0.7976805 -1.2253331 -0.648664
000010 45 a5 f2 be a5 75 d8 3e f2 63 15 3f b1 e7 68 3f
       -0.47391716 0.42277256 0.5835563 0.90978533
000020 ca 89 7c 3f d2 29 37 bf c8 b9 3a bf d4 8f 47 3f
       0.9864775 -0.7154819 -0.7293973 0.7795384
000030 1e fa 07 3f be 90 18 3f d5 76 80 bd a7 2c 0a 3f
       0.53116024 0.5959586 -0.062726654 0.53974384
000040 08 3b 26 bf c4 ea 37 3f 94 08 9e 3f 1c 93 46 bf
       -0.64933825 0.718426 1.2346368 -0.7756822
000050 23 94 9c bf 00 85 0f 3f fb f7 96 bf f4 05 4c 3f
       -1.2232708 0.56062317 -1.1794428 0.79696584
000060 00 d9 95 3f 9d 8f 87 3f ce 69 48 bf d7 23 66 3e
       1.1706848 1.0590702 -0.78286445 0.2247461
000070 46 1b 05 3f 5d 66 16 3f f1 12 67 3f 54 06 8e bf
       0.5199474 0.58749944 0.9026328 -1.1095681

N.layers.1.weight f4 [32, 32]
000000 c9 ac 2d bc e6 9b 73 3e 1e cb e2 3d 34 65 de 3e
       -0.010600277 0.2378994 0.11073898 0.43436587
000010 c6 0b b5 3e d4 17 b0 3e 1a 08 7f bd ac 7c 07 3e
       0.35360545 0.3439318 -0.062263586 0.13231152
000020 2c 85 ce 3e 8b c4 85 3c 97 e2 8e 3d 0b 46 0f 3e
       0.40335977 0.01632907 0.06976812 0.13991563
000030 a6 e7 fa 3d b7 aa 5d 3e 66 9d ab 3e ce 19 88 3e
       0.12251215 0.21647154 0.33518523 0.26582187
000040 91 53 aa 3c f1 08 11 3e 90 19 ab 3e b2 1e 0a be
       0.0207918 0.14163567 0.3341794 -0.13488272
000050 19 4e 19 3e 3b ab 05 3e a6 8f bc 3e 38 bd c1 3e
       0.14971198 0.130536 0.36828345 0.37839675
000060 a7 3b 42 3e 8e cf c0 bc ba cd 55 3e b1 e4 52 3e
       0.18968068 -0.02353647 0.2087926 0.20595051
000070 21 9f 2d 3e f9 7c dd 3d fb 42 87 3e 4f 2d eb 3d
       0.16955234 0.10814852 0.2641829 0.11483251
000080 6b 0d a3 bd fa f9 c5 3d e9 f8 bc bc d5 74 a8 be
       -0.07961544 0.0966682 -0.023067908 -0.32901636
000090 1b d5 19 be 42 97 02 bf d5 a8 2a bd 8d cc 81 be
       -0.150227 -0.5101205 -0.041664917 -0.25351372
0000a0 37 30 cd bd 70 1e fd 3d 6e 00 00 be 0b b9 7c be
       -0.10018962 0.12359321 -0.12500164 -0.24679963
0000b0 a5 28 c1 be 51 d7 4c be 3b 47 e6 be 8d a6 ba be
       -0.37726322 -0.20004012 -0.4497622 -0.36455193
0000c0 e9 70 07 be 74 8b 1f bd 92 29 21 be 0f 67 6f 3e
       -0.13226666 -0.038951352 -0.15738514 0.23379157
0000d0 a2 1d 82 be ac 7e da be 18 4f 68 be 79 b5 d1 be
       -0.25413233 -0.42674768 -0.22686422 -0.40958765
0000e0 b4 b7 89 be c9 aa 75 bd 74 3e eb bd 96 f1 56 be
       -0.26897967 -0.059977327 -0.11486521 -0.20990595
0000f0 de 60 04 bf f8 ff fb be 4d 86 36 be 87 e6 77 be
       -0.5171031 -0.49218726 -0.17824669 -0.24209033
000100 4f e6 d4 bc a8 4c 6c 3d b5 11 2f 3d 17 95 98 be
       -0.025988726 0.057690293 0.042741496 -0.29801247
000110 65 f3 9e be da e0 d8 be 77 58 62 3d 80 7f 95 be
       -0.3104507 -0.42359048 0.055260148 -0.29198837
000120 cc 2a 9e bd 16 ae 22 be cd e6 c6 bc d4 bd e0 bc
       -0.077230066 -0.15886721 -0.024279976 -0.027434267
000130 82 7d ef bd 6b 84 b5 be 7b 20 5f be d7 41 8b be
       -0.116938606 -0.3545259 -0.21789734 -0.2719867
000140 3f c2 10 3d 95 f6 1e be d5 fa 84 bd cd f2 f6 3d
       0.035341498 -0.15523751 -0.06493155 0.12058029
000150 ee 80 97 be 6e 97 8a be 71 1d 18 bd 52 0b db bd
       -0.29590553 -0.27068657 -0.037137453 -0.106955186
000160 dd c4 3e be 02 4b a2 3d f2 49 08 3e 46 1e 35 be
       -0.18629785 0.07924463 0.13309458 -0.1768733
000170 a8 2f 74 be db 26 a2 be 6c 7e 9a be 46 1a 2d bd
       -0.23846304 -0.3167027 -0.30174577 -0.042261384
000180 66 4f 0a 3e 3c e9 95 3e ab 9c 8b 3d 56 b4 a9 be
       0.1350685 0.29279506 0.068169914 -0.33145398
000190 10 40 4a be 61 0e a6 be 32 37 46 3d a2 b7 95 be
       -0.19751 -0.32432845 0.048392482 -0.29241663
0001a0 3e b7 e7 bd 65 54 93 3e a6 35 c0 3e da 39 33 be
       -0.113142475 0.28775325 0.3754093 -0.17502537
0001b0 ab 2a a6 be 89 7f ae be 61 6a d7 be 93 cb e2 be
       -0.32454428 -0.34081677 -0.42073348 -0.4429594
0001c0 05 2c da bd 0f 76 24 3e d5 37 b1 bc 12 47 a6 3e
       -0.10652927 0.16060661 -0.021633068 0.32476097
0001d0 e7 e4 e5 3e a2 86 71 be 52 91 9b be c5 3f 3b be
       0.449012 -0.23586515 -0.30384308 -0.18286045
0001e0 2d 1c 34 be b0 b6 7c 3d 87 cd 66 3e fa 43 5e be
       -0.17588873 0.061697662 0.2253934 -0.21705619
0001f0 26 4d bb be 6b 0e 67 be 63 da 09 be d6 61 fb 3e
       -0.36582297 -0.22564094 -0.13462214 0.4909808
000200 52 6f f0 bd 35 ed bf 3d 03 c5 1e 3d 48 54 34 be
       -0.11739983 0.093714155 0.038762104 -0.17610276
000210 9c 5b f6 bd a8 a3 ab be a8 52 95 3e 0b 5f 32 bc
       -0.12029192 -0.33523297 0.29164624 -0.010886918
000220 b5 dd aa bd 46 76 40 3c 4e 21 59 3d 02 d1 c1 bd
       -0.083430685 0.011746949 0.053010277 -0.09463693
000230 c7 78 44 be e3 6e 1e be 0b 9d cf be d8 bb aa be
       -0.19186698 -0.15471987 -0.40549502 -0.33346438
000240 75 72 fa bd 6e 47 d9 bc 35 28 11 bd 76 6b 31 3e
       -0.12228862 -0.026523318 -0.035438735 0.1732615
000250 f4 71 9c be 28 4d d3 bd 4d ee 49 3c d8 e2 08 be
       -0.3055569 -0.10317451 0.012324882 -0.13367784
000260 0c b8 05 be 42 c7 70 3e 00 83 81 3e 3d c5 93 be
       -0.1305849 0.23513511 0.25295258 -0.28861418
000270 74 13 9f be 89 28 81 be 59 90 7c be df 1a 0d be
       -0.3106953 -0.25226238 -0.2466444 -0.13779782
000280 d5 0e e0 3c 2a 87 c3 3d d7 68 b6 bd 8c 89 4f be
       0.027350822 0.09547265 -0.08906715 -0.20267314
000290 62 46 f6 be 72 2a ed be ff 39 44 3e eb 37 9e be
       -0.48100573 -0.46321446 0.19162749 -0.30902037
0002a0 be 40 c8 bd 75 b9 17 3e 39 70 16 be a7 1c b4 be
       -0.097779736 0.1481684 -0.14691247 -0.3517811
0002b0 51 91 e4 be c0 4f ca be 05 e2 8a be ce a2 e1 be
       -0.44642118 -0.3951397 -0.27125564 -0.44069523
0002c0 cb f7 03 3c 2e 24 9a bc 25 9f 90 bd 9c 4b 92 3e
       0.008054684 -0.01881608 -0.070616044 0.2857331
0002d0 df c1 40 be e8 60 8b be ad a8 89 be 6b 38 ab be
       -0.18823956 -0.2722237 -0.26886502 -0.3344148
0002e0 f6 81 bb be 81 c3 c0 bb ae 34 0b 3e 00 30 cc be
       -0.3662259 -0.005882681 0.13594314 -0.3988037
0002f0 e6 2d 80 be 6f e2 da be d9 c8 a3 be 72 97 a3 be
       -0.25035018 -0.4275088 -0.31989172 -0.3195148
000300 f7 12 ca 3d f4 48 56 be 9e 82 3c be f4 55 da be
       0.098668985 -0.20926267 -0.18409202 -0.42643702
000310 05 69 02 bf 63 e4 e2 be 51 31 13 3e 66 65 98 be
       -0.509415 -0.4431487 0.14374281 -0.2976486
000320 b7 ca 38 be 94 56 cb 3d f9 2b 40 be 73 ea 8d be
       -0.1804608 0.09928623 -0.18766774 -0.27717933
000330 e1 a0 0f be 06 9e 9b be e9 99 ac be ae 57 a2 be
       -0.14026214 -0.30394 -0.33711174 -0.3170752
000340 6c af 74 bd f3 81 8c bd 9f 3c b5 be 9c fc 14 3e
       -0.059737608 -0.06860723 -0.35397813 0.14549488
000350 b6 07 74 be 32 9b 71 be 08 08 6a be f2 67 80 be
       -0.23831066 -0.23594359 -0.22854626 -0.25079304
000360 cc 4c 88 be e2 32 02 3e 45 b1 db bc b1 c1 89 be
       -0.2662109 0.12714723 -0.026817927 -0.26905587
000370 69 62 f9 be 29 98 41 be c3 47 34 be b3 1a d9 bd
       -0.48707893 -0.189057 -0.176055 -0.106007956
000380 88 8a 2b 3e 95 bf 86 3e 12 3f b6 3e 6d 11 c1 bc
       0.16752064 0.2631804 0.35594994 -0.02356788
000390 a7 6c 5e be 13 e2 cc bd af f5 be 3e 3d 6d db bd
       -0.21721135 -0.10004058 0.37296817 -0.10714195
0003a0 b0 10 92 be cd 42 9b 3d bf 57 00 bd ce 09 80 bc
       -0.28528357 0.075811006 -0.03133368 -0.015629675
0003b0 d0 67 62 bd 97 aa c2 3d b9 5f 77 bd 87 bc 4b 3b
       -0.055274785 0.09505194 -0.060394023 0.0031087713
0003c0 04 d0 51 3b 19 91 e6 3d 3e b5 45 3c 6b 94 8d 3e
       0.0032014856 0.11258144 0.012067137 0.27652296
0003d0 73 07 e2 bd be cd 62 be 82 fb 6d 3d 02 03 87 3c
       -0.11036577 -0.22148797 0.058101185 0.016480926
0003e0 86 02 4b 3d e5 b9 63 3e dd 80 7b 3e e7 71 88 be
       0.049562953 0.22238882 0.24560876 -0.266494
0003f0 1a d8 97 bc 22 b4 73 3c ac 7f e4 3c 2e 9b 04 3d
       -0.018535662 0.01487449 0.02789291 0.032374553

N.layers.1.bias f4 [32]
000000 ec 0b 65 3e c5 42 b4 be b8 ec 08 bf 6e 6d 67 be
       0.22367829 -0.3520719 -0.53486204 -0.22600338
000010 67 73 0b bf 54 38 9f be 37 35 0f bf 3f 15 34 be
       -0.54472965 -0.31097662 -0.55940574 -0.1758623
000020 00 be 86 3e 9a ae 0c bf 5f 46 38 3f 8f d3 25 3e
       0.26316833 -0.5495392 0.7198238 0.16193984
000030 01 2f b1 3e f3 3f f9 3e 4d 08 9c 3e 09 35 c2 3c
       0.34606174 0.48681602 0.30475083 0.02370693
000040 d1 3e 6b 3e 6c 4f b5 be 5b 1c c8 3e 30 91 7e be
       0.22973181 -0.35412157 0.39084134 -0.24860072
000050 46 a0 09 bf 36 a7 bb be 45 fe 73 bd c9 31 19 3f
       -0.5376018 -0.3665101 -0.059568662 0.5984159
000060 d6 f1 8d 3e 96 56 d1 be 6c 54 28 bf 8f 40 bc 3e
       0.2772357 -0.40886372 -0.6575382 0.36768004
000070 c2 a9 22 bd 00 1c 02 bf e3 3a 0d 3e 9b fd be be
       -0.039712675 -0.50823975 0.13791995 -0.3730286
